spectf_cloud/weights/v0.0.1/model_no_bandcat_bf16.onnx (onnx, 59356 bytes, 19 tensors)

spectral_embed.linear.bias bf16 [64]
0	0x3bf0	0.0073242188
1	0x3c9f	0.01940918
2	0xbabf	-0.0014572144
3	0xbc12	-0.008911133
4	0xbc03	-0.0079956055
5	0x3bdd	0.0067443848
6	0xbc57	-0.013122559
7	0xbb84	-0.0040283203
8	0x3c8a	0.016845703
9	0xbbe4	-0.006958008
10	0xbbab	-0.005218506
11	0xbc7c	-0.015380859
12	0x3c21	0.00982666
13	0x3ccc	0.024902344
14	0xbab8	-0.0014038086
15	0xbab5	-0.0013809204
16	0xbc0f	-0.008728027
17	0x3c92	0.017822266
18	0xbbf2	-0.007385254
19	0xbcd3	-0.025756836
20	0x3ccf	0.025268555
21	0x3b3d	0.0028839111
22	0xbd95	-0.072753906
23	0x3c05	0.008117676
24	0xbc1b	-0.009460449
25	0x3cc7	0.024291992
26	0xbc6a	-0.014282227
27	0x3b87	0.004119873
28	0x3b16	0.0022888184
29	0xbb83	-0.0039978027
30	0x3c52	0.012817383
31	0xbc4e	-0.012573242
32	0x3bb8	0.0056152344
33	0x3bd8	0.006591797
34	0x3c7f	0.015563965
35	0xba8c	-0.0010681152
36	0xbca3	-0.019897461
37	0xb89c	-7.43866e-05
38	0xbcf9	-0.030395508
39	0x3b9a	0.004699707
40	0x3cc9	0.024536133
41	0x3b29	0.0025787354
42	0xbc18	-0.009277344
43	0x3d03	0.031982422
44	0xba18	-0.000579834
45	0x3c46	0.012084961
46	0xbc51	-0.012756348
47	0xbc8b	-0.016967773
48	0x3c7a	0.015258789
49	0x3c08	0.008300781
50	0xbb2d	-0.0026397705
51	0x3b92	0.0044555664
52	0x3c5d	0.0134887695
53	0xbc16	-0.009155273
54	0xbc93	-0.017944336
55	0x3c86	0.016357422
56	0xbb92	-0.0044555664
57	0xbb01	-0.0019683838
58	0x3cbf	0.02331543
59	0x3930	0.00016784668
60	0xba35	-0.0006904602
61	0x3b60	0.0034179688
62	0x3c09	0.008361816
63	0xbc03	-0.0079956055

layers.0.attention.attention.out_proj.weight bf16 [64, 64]
0	0x3dd5	0.104003906
1	0x3e67	0.22558594
2	0xbe44	-0.19140625
3	0x3dbe	0.09277344
4	0x3e36	0.17773438
5	0x3d09	0.033447266
6	0x3d2a	0.041503906
7	0x3e7c	0.24609375
8	0xbd19	-0.037353516
9	0x3dc1	0.09423828
10	0x3dd8	0.10546875
11	0xbd4f	-0.05053711
12	0xbdee	-0.11621094
13	0x3d89	0.06689453
14	0x3e6b	0.22949219
15	0x3d9d	0.076660156
16	0x3c91	0.017700195
17	0xbcd0	-0.025390625
18	0x3e1e	0.15429688
19	0x3e2b	0.16699219
20	0x3ba9	0.0051574707
21	0x3d53	0.051513672
22	0xbe0d	-0.13769531
23	0x3dfe	0.12402344
24	0xbe6d	-0.23144531
25	0xbca4	-0.020019531
26	0x3e1b	0.15136719
27	0xbe2d	-0.16894531
28	0x3d7f	0.06225586
29	0xbbda	-0.006652832
30	0xbe15	-0.14550781
31	0x3da6	0.08105469
32	0x3cc7	0.024291992
33	0xbdc0	-0.09375
34	0x3e04	0.12890625
35	0x3d3e	0.04638672
36	0xbe46	-0.19335938
37	0xbcc9	-0.024536133
38	0xbd9b	-0.075683594
39	0xbdea	-0.11425781
40	0x3e0f	0.13964844
41	0xbaa4	-0.0012512207
42	0x3d88	0.06640625
43	0x3c84	0.016113281
44	0xbae9	-0.0017776489
45	0xbe72	-0.23632812
46	0x3c9b	0.018920898
47	0xbdc2	-0.09472656
48	0x3dff	0.12451172
49	0xbb9e	-0.0048217773
50	0xbe5a	-0.21289062
51	0xbe12	-0.14257812
52	0xbe43	-0.19042969
53	0x3cf6	0.030029297
54	0x3dba	0.09082031
55	0x3d4f	0.05053711
56	0x3e24	0.16015625
57	0x3e11	0.14160156
58	0x3e00	0.125
59	0x3e3b	0.18261719
60	0xbdc1	-0.09423828
61	0xbded	-0.115722656
62	0xbdbb	-0.091308594
63	0xbe9c	-0.3046875
64	0x3e27	0.16308594
65	0x3d93	0.071777344
66	0xbddf	-0.10888672
67	0xbb8e	-0.004333496
68	0x3e90	0.28125
69	0x3e2e	0.16992188
70	0x3e14	0.14453125
71	0xbdeb	-0.114746094
72	0xbdee	-0.11621094
73	0xbdd3	-0.103027344
74	0xbddd	-0.107910156
75	0x3e0f	0.13964844
76	0xbe28	-0.1640625
77	0x3dcd	0.100097656
78	0x3dbc	0.091796875
79	0x3e66	0.22460938
80	0x3e60	0.21875
81	0xbe3c	-0.18359375
82	0xbe05	-0.12988281
83	0x3e4a	0.19726562
84	0xbdb0	-0.0859375
85	0xbd99	-0.07470703
86	0x3e24	0.16015625
87	0x3d94	0.072265625
88	0xbdc2	-0.09472656
89	0xbde8	-0.11328125
90	0xbcb7	-0.022338867
91	0x3dbe	0.09277344
92	0x3d95	0.072753906
93	0xbdf8	-0.12109375
94	0x3d32	0.04345703
95	0x3ddd	0.107910156
96	0xbe0f	-0.13964844
97	0x3cc7	0.024291992
98	0xbe7e	-0.24804688
99	0xbdb7	-0.08935547
100	0xbea5	-0.32226562
101	0x3e51	0.20410156
102	0xbd7d	-0.061767578
103	0xbd68	-0.056640625
104	0x3bfc	0.0076904297
105	0xbda0	-0.078125
106	0xbe0c	-0.13671875
107	0xbd9e	-0.07714844
108	0x3c8f	0.017456055
109	0xbe16	-0.14648438
110	0xbe4f	-0.20214844
111	0x3d01	0.03149414
112	0x3e08	0.1328125
113	0xbcc4	-0.023925781
114	0x3e1b	0.15136719
115	0x3e04	0.12890625
116	0xbe0f	-0.13964844
117	0x3da4	0.080078125
118	0xbe14	-0.14453125
119	0x3e6a	0.22851562
120	0x3d96	0.07324219
121	0x3e0f	0.13964844
122	0xbd86	-0.06542969
123	0x3ba6	0.005065918
124	0xbdfb	-0.122558594
125	0x3e7b	0.24511719
126	0xbe04	-0.12890625
127	0xbe31	-0.17285156
128	0xbdcf	-0.10107422
129	0xbe67	-0.22558594
130	0xbd52	-0.05126953
131	0x3e2e	0.16992188
132	0x3dbb	0.091308594
133	0x3ca0	0.01953125
134	0xbdfa	-0.12207031
135	0x3dae	0.08496094
136	0xbd01	-0.03149414
137	0xbe25	-0.16113281
138	0x3df6	0.12011719
139	0x3e00	0.125
140	0x3e1e	0.15429688
141	0xbe42	-0.18945312
142	0x3cf4	0.029785156
143	0x3e16	0.14648438
144	0xbda9	-0.08251953
145	0x3e17	0.14746094
146	0x3d9c	0.076171875
147	0xbe08	-0.1328125
148	0x3dde	0.10839844
149	0x38b7	8.72612e-05
150	0x3a98	0.001159668
151	0x3d57	0.052490234
152	0x3df6	0.12011719
153	0x3da7	0.08154297
154	0x3e1b	0.15136719
155	0xbe42	-0.18945312
156	0xbd23	-0.039794922
157	0xbcee	-0.029052734
158	0x3dbb	0.091308594
159	0x3de5	0.111816406
160	0xbdad	-0.084472656
161	0xbd01	-0.03149414
162	0xbd84	-0.064453125
163	0xbd8a	-0.06738281
164	0x3e06	0.13085938
165	0x3e1f	0.15527344
166	0x3e14	0.14453125
167	0xbc1f	-0.00970459
168	0x3cee	0.029052734
169	0xbe30	-0.171875
170	0x3da4	0.080078125
171	0xbe28	-0.1640625
172	0xbdc6	-0.09667969
173	0xbda1	-0.07861328
174	0x3c2f	0.010681152
175	0x3de5	0.111816406
176	0xbe71	-0.23535156
177	0x3e22	0.15820312
178	0x3d14	0.036132812
179	0x3e00	0.125
180	0xbe30	-0.171875
181	0x3ce2	0.02758789
182	0x3e67	0.22558594
183	0x3e29	0.16503906
184	0xbdf6	-0.12011719
185	0x3c94	0.018066406
186	0xbde5	-0.111816406
187	0x3dae	0.08496094
188	0x3dc4	0.095703125
189	0x3daf	0.08544922
190	0xbe18	-0.1484375
191	0x3d0b	0.033935547
192	0x3da0	0.078125
193	0xbe68	-0.2265625
194	0xbdca	-0.09863281
195	0x3e06	0.13085938
196	0xbe32	-0.17382812
197	0x3e23	0.15917969
198	0x3e8b	0.27148438
199	0xbe2d	-0.16894531
200	0xbe57	-0.20996094
201	0xbe3b	-0.18261719
202	0x3ce3	0.027709961
203	0xbe1c	-0.15234375
204	0x3e34	0.17578125
205	0x3e2d	0.16894531
206	0xbdb1	-0.08642578
207	0x3d40	0.046875
208	0x3e34	0.17578125
209	0x3e02	0.12695312
210	0xbe22	-0.15820312
211	0xbcfa	-0.030517578
212	0x3dd2	0.10253906
213	0xbca0	-0.01953125
214	0x3dd8	0.10546875
215	0xbc8c	-0.017089844
216	0xbdf7	-0.12060547
217	0x3d0a	0.033691406
218	0xbde4	-0.111328125
219	0xbe07	-0.13183594
220	0x3e86	0.26171875
221	0xbcd7	-0.026245117
222	0xbdb4	-0.087890625
223	0x3e0c	0.13671875
224	0x3d51	0.05102539
225	0xbe8a	-0.26953125
226	0xbe29	-0.16503906
227	0x3cb0	0.021484375
228	0xbe2f	-0.17089844
229	0xbddb	-0.106933594
230	0x3d9b	0.075683594
231	0x3e13	0.14355469
232	0xbe38	-0.1796875
233	0x3e5b	0.21386719
234	0x3dde	0.10839844
235	0x3e45	0.19238281
236	0xbe24	-0.16015625
237	0x3d60	0.0546875
238	0x3e0c	0.13671875
239	0x3e04	0.12890625
240	0xbd0b	-0.033935547
241	0x3dbe	0.09277344
242	0x3de4	0.111328125
243	0xbe5c	-0.21484375
244	0x3dda	0.10644531
245	0xbdef	-0.11669922
246	0x3e12	0.14257812
247	0xbd9b	-0.075683594
248	0xbe11	-0.14160156
249	0x3e0a	0.13476562
250	0xbe1f	-0.15527344
251	0x3b0d	0.0021514893
252	0x3d5a	0.053222656
253	0x3e96	0.29296875
254	0x3dc0	0.09375
255	0x3e3c	0.18359375

layers.0.attention.attention.out_proj.bias bf16 [64]
0	0xb880	-6.1035156e-05
1	0xbcdb	-0.026733398
2	0x3c5a	0.013305664
3	0x3cf3	0.029663086
4	0xbabb	-0.0014266968
5	0x3d84	0.064453125
6	0xbc4e	-0.012573242
7	0xbc30	-0.0107421875
8	0xbca7	-0.020385742
9	0x3bb3	0.0054626465
10	0x3b75	0.0037384033
11	0xbd43	-0.047607422
12	0x3c11	0.008850098
13	0xbb01	-0.0019683838
14	0x3d2c	0.041992188
15	0x3cc1	0.02355957
16	0x3d82	0.06347656
17	0x3b98	0.004638672
18	0xbc86	-0.016357422
19	0x3c6f	0.014587402
20	0xbd78	-0.060546875
21	0x3bc0	0.005859375
22	0xbd2c	-0.041992188
23	0x3b2b	0.002609253
24	0xbb2b	-0.002609253
25	0x3d1b	0.037841797
26	0xbc59	-0.013244629
27	0x3d0a	0.033691406
28	0xbd18	-0.037109375
29	0x3d1a	0.037597656
30	0x3d36	0.044433594
31	0xbc6b	-0.014343262
32	0xbc8f	-0.017456055
33	0x3d2d	0.042236328
34	0x3d05	0.032470703
35	0xbd85	-0.064941406
36	0x3afe	0.0019378662
37	0x3cd3	0.025756836
38	0xbd1f	-0.03881836
39	0x3c85	0.016235352
40	0x3d07	0.032958984
41	0xbd06	-0.032714844
42	0x3c50	0.0126953125
43	0x3c23	0.0099487305
44	0xbbb3	-0.0054626465
45	0x3d1f	0.03881836
46	0xbcd4	-0.025878906
47	0x3c9e	0.01928711
48	0x3d22	0.03955078
49	0x3c74	0.014892578
50	0xbbf8	-0.0075683594
51	0xbcad	-0.021118164
52	0xbc8b	-0.016967773
53	0x3c86	0.016357422
54	0x3d46	0.048339844
55	0x3c74	0.014892578
56	0x3c59	0.013244629
57	0x3baf	0.005340576
58	0x3b70	0.0036621094
59	0x3a30	0.0006713867
60	0xbd43	-0.047607422
61	0x3ced	0.028930664
62	0x3c79	0.015197754
63	0x3b52	0.0032043457

layers.0.ff.linear1.bias bf16 [64]
0	0xbe03	-0.12792969
1	0xbde1	-0.10986328
2	0xbca9	-0.020629883
3	0xbd0f	-0.03491211
4	0xbd55	-0.052001953
5	0xbe82	-0.25390625
6	0xbe42	-0.18945312
7	0xbe1f	-0.15527344
8	0x3c6c	0.014404297
9	0xbe25	-0.16113281
10	0xbddb	-0.106933594
11	0x3c36	0.011108398
12	0xbda9	-0.08251953
13	0xbdf9	-0.12158203
14	0xbe04	-0.12890625
15	0x3d61	0.05493164
16	0xbe2a	-0.16601562
17	0xbe37	-0.17871094
18	0xbd91	-0.07080078
19	0xbd9a	-0.07519531
20	0xbdfe	-0.12402344
21	0xbe88	-0.265625
22	0x3c17	0.009216309
23	0xbd9b	-0.075683594
24	0xbd33	-0.043701172
25	0xbe16	-0.14648438
26	0x3d32	0.04345703
27	0xbe42	-0.18945312
28	0xbe1f	-0.15527344
29	0xbe05	-0.12988281
30	0xbde8	-0.11328125
31	0xbc37	-0.011169434
32	0xbdcc	-0.099609375
33	0xbdc8	-0.09765625
34	0xbd09	-0.033447266
35	0xbd0c	-0.034179688
36	0xbdbc	-0.091796875
37	0xbd31	-0.04321289
38	0xbec4	-0.3828125
39	0xbeb1	-0.34570312
40	0xbe3b	-0.18261719
41	0xbe42	-0.18945312
42	0xbe28	-0.1640625
43	0xbe31	-0.17285156
44	0xbda2	-0.07910156
45	0xbc03	-0.0079956055
46	0xbd6d	-0.057861328
47	0xbe25	-0.16113281
48	0xbdaf	-0.08544922
49	0x38a8	8.010864e-05
50	0xbe57	-0.20996094
51	0xbd2d	-0.042236328
52	0xbd94	-0.072265625
53	0xbd50	-0.05078125
54	0xbe11	-0.14160156
55	0xbe47	-0.19433594
56	0xbe1f	-0.15527344
57	0x3c02	0.00793457
58	0xbd46	-0.048339844
59	0xbd8f	-0.06982422
60	0xbcda	-0.026611328
61	0xbd81	-0.06298828
62	0xbdba	-0.09082031
63	0xbc9f	-0.01940918

layers.0.ff.linear2.bias bf16 [64]
0	0xbb96	-0.0045776367
1	0x3bc5	0.006011963
2	0xbc0f	-0.008728027
3	0x3ca8	0.020507812
4	0x3c05	0.008117676
5	0x3d31	0.04321289
6	0xbd40	-0.046875
7	0xbc0c	-0.008544922
8	0xbe19	-0.14941406
9	0xbc04	-0.008056641
10	0xbc52	-0.012817383
11	0x3b9a	0.004699707
12	0xbbed	-0.007232666
13	0xbc0e	-0.008666992
14	0x3cbb	0.022827148
15	0xbcde	-0.02709961
16	0x3cd1	0.025512695
17	0xbc09	-0.008361816
18	0x3bd7	0.0065612793
19	0x3bf0	0.0073242188
20	0x3ce3	0.027709961
21	0x3be9	0.0071105957
22	0x3c32	0.010864258
23	0xbc07	-0.008239746
24	0xbc0a	-0.008422852
25	0xbde1	-0.10986328
26	0xbbda	-0.006652832
27	0xbbf1	-0.0073547363
28	0x3be5	0.0069885254
29	0xbe27	-0.16308594
30	0x3bf7	0.007537842
31	0x3bf3	0.0074157715
32	0x3d9b	0.075683594
33	0xbcb5	-0.022094727
34	0x3cb3	0.021850586
35	0xbc60	-0.013671875
36	0x3bfd	0.0077209473
37	0xbd0e	-0.03466797
38	0xbbfe	-0.007751465
39	0x3c05	0.008117676
40	0xbcc0	-0.0234375
41	0xbc11	-0.008850098
42	0x3bef	0.007293701
43	0x3d5a	0.053222656
44	0xbcab	-0.020874023
45	0xbc0a	-0.008422852
46	0xbd04	-0.032226562
47	0xbc11	-0.008850098
48	0xbc0c	-0.008544922
49	0xbc06	-0.008178711
50	0x3c38	0.011230469
51	0x3cdc	0.026855469
52	0xbcd1	-0.025512695
53	0x3bf8	0.0075683594
54	0x3c0b	0.008483887
55	0x3bb6	0.005554199
56	0xbd9a	-0.07519531
57	0xbc0b	-0.008483887
58	0xbb37	-0.0027923584
59	0xbc0b	-0.008483887
60	0xbc0d	-0.008605957
61	0xbbf4	-0.007446289
62	0x3c12	0.008911133
63	0x3d0f	0.03491211

layers.0.norm1.weight bf16 [64]
0	0x3f84	1.03125
1	0x3f82	1.015625
2	0x3f84	1.03125
3	0x3f83	1.0234375
4	0x3f82	1.015625
5	0x3f81	1.0078125
6	0x3f83	1.0234375
7	0x3f83	1.0234375
8	0x3f83	1.0234375
9	0x3f87	1.0546875
10	0x3f92	1.140625
11	0x3f7d	0.98828125
12	0x3f83	1.0234375
13	0x3f7f	0.99609375
14	0x3f8c	1.09375
15	0x3f85	1.0390625
16	0x3f82	1.015625
17	0x3f84	1.03125
18	0x3f88	1.0625
19	0x3f82	1.015625
20	0x3f85	1.0390625
21	0x3f83	1.0234375
22	0x3f86	1.046875
23	0x3f8a	1.078125
24	0x3f7e	0.9921875
25	0x3f83	1.0234375
26	0x3f85	1.0390625
27	0x3f84	1.03125
28	0x3f85	1.0390625
29	0x3f85	1.0390625
30	0x3f85	1.0390625
31	0x3f89	1.0703125
32	0x3f82	1.015625
33	0x3f7f	0.99609375
34	0x3f89	1.0703125
35	0x3f81	1.0078125
36	0x3f85	1.0390625
37	0x3f85	1.0390625
38	0x3f84	1.03125
39	0x3f83	1.0234375
40	0x3f83	1.0234375
41	0x3f81	1.0078125
42	0x3f86	1.046875
43	0x3f86	1.046875
44	0x3f81	1.0078125
45	0x3f81	1.0078125
46	0x3f82	1.015625
47	0x3f82	1.015625
48	0x3f7d	0.98828125
49	0x3f81	1.0078125
50	0x3f8b	1.0859375
51	0x3f81	1.0078125
52	0x3f80	1.0
53	0x3f83	1.0234375
54	0x3f82	1.015625
55	0x3f82	1.015625
56	0x3f7d	0.98828125
57	0x3f7b	0.98046875
58	0x3f85	1.0390625
59	0x3f83	1.0234375
60	0x3f84	1.03125
61	0x3f7e	0.9921875
62	0x3f83	1.0234375
63	0x3f82	1.015625

layers.0.norm1.bias bf16 [64]
0	0xbc98	-0.018554688
1	0xbba7	-0.0050964355
2	0x3cac	0.020996094
3	0xbd1f	-0.03881836
4	0x3d1a	0.037597656
5	0x3aa0	0.0012207031
6	0x3d29	0.041259766
7	0x3981	0.00024604797
8	0xbcac	-0.020996094
9	0x3d74	0.059570312
10	0xbd25	-0.040283203
11	0xbac0	-0.0014648438
12	0xbd18	-0.037109375
13	0xbd93	-0.071777344
14	0x3a26	0.00063323975
15	0xbc88	-0.016601562
16	0x3c9f	0.01940918
17	0xbd7b	-0.061279297
18	0x3d01	0.03149414
19	0x3cdb	0.026733398
20	0x3d0a	0.033691406
21	0x3cad	0.021118164
22	0x3c51	0.012756348
23	0xbda0	-0.078125
24	0x3d54	0.051757812
25	0xbd32	-0.04345703
26	0x3d8c	0.068359375
27	0x3d49	0.049072266
28	0x3d17	0.036865234
29	0x3d0f	0.03491211
30	0xbd57	-0.052490234
31	0x3cbc	0.022949219
32	0x3c13	0.008972168
33	0xbdd1	-0.10205078
34	0xbb58	-0.0032958984
35	0x3ccf	0.025268555
36	0x3cfb	0.030639648
37	0xbcab	-0.020874023
38	0x3d8d	0.068847656
39	0x3cc7	0.024291992
40	0xbd32	-0.04345703
41	0x3cc3	0.023803711
42	0xbcbe	-0.02319336
43	0x3c81	0.01574707
44	0xbd0c	-0.034179688
45	0x3c9f	0.01940918
46	0x3b0c	0.0021362305
47	0x3cfc	0.030761719
48	0x3cb9	0.022583008
49	0x3d17	0.036865234
50	0x3d14	0.036132812
51	0x3c11	0.008850098
52	0x3c99	0.018676758
53	0x3c9b	0.018920898
54	0xbd6b	-0.057373047
55	0x3ca0	0.01953125
56	0xbd2d	-0.042236328
57	0xbd47	-0.048583984
58	0xbcde	-0.02709961
59	0x3d3f	0.04663086
60	0x3d58	0.052734375
61	0x3d12	0.03564453
62	0xbc97	-0.018432617
63	0xbd75	-0.059814453

layers.0.norm2.weight bf16 [64]
0	0x3f8e	1.109375
1	0x3f7a	0.9765625
2	0x3f8d	1.1015625
3	0x3f96	1.171875
4	0x3f93	1.1484375
5	0x3f92	1.140625
6	0x3f95	1.1640625
7	0x3f9b	1.2109375
8	0x3f8b	1.0859375
9	0x3f94	1.15625
10	0x3f8e	1.109375
11	0x3f8b	1.0859375
12	0x3f92	1.140625
13	0x3fa0	1.25
14	0x3f8c	1.09375
15	0x3f83	1.0234375
16	0x3f86	1.046875
17	0x3fa0	1.25
18	0x3f87	1.0546875
19	0x3f92	1.140625
20	0x3fa1	1.2578125
21	0x3f8c	1.09375
22	0x3f88	1.0625
23	0x3fa5	1.2890625
24	0x3f8e	1.109375
25	0x3f83	1.0234375
26	0x3f73	0.94921875
27	0x3f9e	1.234375
28	0x3f87	1.0546875
29	0x3f95	1.1640625
30	0x3f91	1.1328125
31	0x3f96	1.171875
32	0x3f99	1.1953125
33	0x3f8c	1.09375
34	0x3f8a	1.078125
35	0x3f98	1.1875
36	0x3f8f	1.1171875
37	0x3f8b	1.0859375
38	0x3f93	1.1484375
39	0x3f86	1.046875
40	0x3f93	1.1484375
41	0x3f85	1.0390625
42	0x3f91	1.1328125
43	0x3f88	1.0625
44	0x3f8e	1.109375
45	0x3f8f	1.1171875
46	0x3f93	1.1484375
47	0x3fa0	1.25
48	0x3fa5	1.2890625
49	0x3f88	1.0625
50	0x3f8c	1.09375
51	0x3f87	1.0546875
52	0x3f97	1.1796875
53	0x3f8d	1.1015625
54	0x3f9e	1.234375
55	0x3f7d	0.98828125
56	0x3f7a	0.9765625
57	0x3f90	1.125
58	0x3f92	1.140625
59	0x3f99	1.1953125
60	0x3f90	1.125
61	0x3f90	1.125
62	0x3f8e	1.109375
63	0x3f9c	1.21875

layers.0.norm2.bias bf16 [64]
0	0x3c12	0.008911133
1	0xbe05	-0.12988281
2	0xbd1b	-0.037841797
3	0xbe29	-0.16503906
4	0x3ce9	0.028442383
5	0xbbbc	-0.0057373047
6	0xbd91	-0.07080078
7	0x3dba	0.09082031
8	0x3cc7	0.024291992
9	0xbd81	-0.06298828
10	0xbbe7	-0.0070495605
11	0xbe2d	-0.16894531
12	0x3d92	0.07128906
13	0x3dc5	0.096191406
14	0xbd7c	-0.061523438
15	0x3d9b	0.075683594
16	0xbd46	-0.048339844
17	0xbe26	-0.16210938
18	0xbd47	-0.048583984
19	0xbd6c	-0.057617188
20	0x3db6	0.08886719
21	0x3a4b	0.00077438354
22	0x3dcd	0.100097656
23	0x3da3	0.079589844
24	0xbdfe	-0.12402344
25	0x3dde	0.10839844
26	0x3ce4	0.027832031
27	0xbc4a	-0.012329102
28	0xbe28	-0.1640625
29	0x3d93	0.071777344
30	0x3db6	0.08886719
31	0xbcba	-0.022705078
32	0x3daf	0.08544922
33	0xbd48	-0.048828125
34	0x3d16	0.036621094
35	0xbd4f	-0.05053711
36	0x3c67	0.014099121
37	0x3d72	0.05908203
38	0x3b15	0.0022735596
39	0x3d5f	0.05444336
40	0x3ca0	0.01953125
41	0x3d55	0.052001953
42	0xbd90	-0.0703125
43	0x3d8e	0.06933594
44	0xbba0	-0.0048828125
45	0xbd0c	-0.034179688
46	0x3c89	0.016723633
47	0xbb06	-0.0020446777
48	0x3e0f	0.13964844
49	0xbdc2	-0.09472656
50	0xbde6	-0.11230469
51	0x3d60	0.0546875
52	0xbe53	-0.20605469
53	0x3c3f	0.011657715
54	0x3dd0	0.1015625
55	0x3d60	0.0546875
56	0x3c58	0.013183594
57	0x3e41	0.18847656
58	0xbcc5	-0.024047852
59	0xbda1	-0.07861328
60	0x3d02	0.03173828
61	0xbda7	-0.08154297
62	0x3e07	0.13183594
63	0x3d69	0.056884766

head.weight bf16 [2, 64]
0	0xbea3	-0.31835938
1	0x3e0a	0.13476562
2	0xbc90	-0.017578125
3	0x3dfd	0.123535156
4	0x3e25	0.16113281
5	0x3e54	0.20703125
6	0xbc4b	-0.012390137
7	0xb9ba	-0.00035476685
8	0xbe79	-0.24316406
9	0xbda0	-0.078125
10	0xbe5c	-0.21484375
11	0xbe04	-0.12890625
12	0x3e24	0.16015625
13	0xbe89	-0.26757812
14	0xbd8b	-0.067871094
15	0x3ecc	0.3984375
16	0x3ead	0.33789062
17	0xbe8f	-0.27929688
18	0xbe3d	-0.18457031
19	0x3e6b	0.22949219
20	0x3ebf	0.37304688
21	0x3dd1	0.10205078
22	0xbc99	-0.018676758
23	0xbe94	-0.2890625
24	0x3d00	0.03125
25	0xbd50	-0.05078125
26	0xbe10	-0.140625
27	0xbe8f	-0.27929688
28	0x3d86	0.06542969
29	0x3ea8	0.328125
30	0x3c85	0.016235352
31	0x3dbb	0.091308594
32	0x3ecd	0.40039062
33	0x3e29	0.16503906
34	0xbe81	-0.25195312
35	0xbe07	-0.13183594
36	0x3e19	0.14941406
37	0xbe74	-0.23828125
38	0x3d6a	0.057128906
39	0x3ea2	0.31640625
40	0xbe7a	-0.24414062
41	0x3d49	0.049072266
42	0x3e8f	0.27929688
43	0x3d8c	0.068359375
44	0x3ea0	0.3125
45	0xbdd1	-0.10205078
46	0x3e99	0.29882812
47	0xbe10	-0.140625
48	0xbd1b	-0.037841797
49	0x3ce1	0.02746582
50	0x3ec3	0.38085938
51	0x3e2f	0.17089844
52	0xbdd0	-0.1015625
53	0x3e1f	0.15527344
54	0xbeb0	-0.34375
55	0x3e8f	0.27929688
56	0x3cca	0.024658203
57	0xbe12	-0.14257812
58	0x3e25	0.16113281
59	0xbe20	-0.15625
60	0xbe49	-0.19628906
61	0x3e0f	0.13964844
62	0x3e90	0.28125
63	0xbeaf	-0.34179688
64	0x3e5f	0.21777344
65	0xbdbb	-0.091308594
66	0x3ea0	0.3125
67	0xbec6	-0.38671875
68	0xbe2a	-0.16601562
69	0xbe38	-0.1796875
70	0xbe9d	-0.30664062
71	0x3e8a	0.26953125
72	0x3eed	0.46289062
73	0x3e0e	0.13867188
74	0xbdc0	-0.09375
75	0xbe9b	-0.30273438
76	0x3eb3	0.34960938
77	0x3c7f	0.015563965
78	0x3da6	0.08105469
79	0x3e44	0.19140625
80	0x3d88	0.06640625
81	0x3e0e	0.13867188
82	0x3cd8	0.026367188
83	0xbe32	-0.17382812
84	0x3ca8	0.020507812
85	0xbe17	-0.14746094
86	0xbe96	-0.29296875
87	0x3dae	0.08496094
88	0x3e91	0.28320312
89	0x3e70	0.234375
90	0x3e10	0.140625
91	0xbde4	-0.111328125
92	0xbdfa	-0.12207031
93	0x3d99	0.07470703
94	0xbeae	-0.33984375
95	0xbe5c	-0.21484375
96	0xbc25	-0.010070801
97	0xbea0	-0.3125
98	0x3d45	0.048095703
99	0x3e39	0.18066406
100	0xbe41	-0.18847656
101	0xbd1a	-0.037597656
102	0x3ea4	0.3203125
103	0xbe7d	-0.24707031
104	0x3e13	0.14355469
105	0x3ea5	0.32226562
106	0xbdd8	-0.10546875
107	0x3ee1	0.43945312
108	0x3c6f	0.014587402
109	0x3e84	0.2578125
110	0xbde7	-0.11279297
111	0x3e45	0.19238281
112	0x3e71	0.23535156
113	0x3e52	0.20507812
114	0x3d8a	0.06738281
115	0xbe5f	-0.21777344
116	0x3e46	0.19335938
117	0xbebe	-0.37109375
118	0x3e01	0.12597656
119	0x3cba	0.022705078
120	0xbeb4	-0.3515625
121	0x3e9f	0.31054688
122	0xbed0	-0.40625
123	0x3e60	0.21875
124	0x3e9c	0.3046875
125	0xbd96	-0.07324219
126	0xbeaf	-0.34179688
127	0xbd47	-0.048583984

onnx::MatMul_141 bf16 [2, 64]
0	0x3e46	0.19335938
1	0xbe8f	-0.27929688
2	0xbebd	-0.36914062
3	0x3e05	0.12988281
4	0xbd44	-0.047851562
5	0x3d30	0.04296875
6	0xbde7	-0.11279297
7	0xbe68	-0.2265625
8	0x3e0d	0.13769531
9	0x3e9e	0.30859375
10	0x3ec4	0.3828125
11	0x3e79	0.24316406
12	0xbe57	-0.20996094
13	0x3d1a	0.037597656
14	0xbeae	-0.33984375
15	0xbe76	-0.24023438
16	0x3db2	0.08691406
17	0x3d6b	0.057373047
18	0x3e9f	0.31054688
19	0x3e18	0.1484375
20	0x3cf8	0.030273438
21	0x3e45	0.19238281
22	0xbe0e	-0.13867188
23	0x3e9d	0.30664062
24	0xbd74	-0.059570312
25	0x3d88	0.06640625
26	0x3e4c	0.19921875
27	0xbe85	-0.25976562
28	0xbe7f	-0.24902344
29	0xbe61	-0.21972656
30	0xbe4e	-0.20117188
31	0x3e8d	0.27539062
32	0x3dc2	0.09472656
33	0xbdf9	-0.12158203
34	0x3ed2	0.41015625
35	0xbe15	-0.14550781
36	0xbe10	-0.140625
37	0x3e08	0.1328125
38	0x3a2d	0.0006599426
39	0xbe07	-0.13183594
40	0x3c93	0.017944336
41	0xbdce	-0.10058594
42	0x3e9a	0.30078125
43	0x3daf	0.08544922
44	0x3d40	0.046875
45	0x3d9e	0.07714844
46	0x3d3a	0.045410156
47	0xbe31	-0.17285156
48	0x3e9d	0.30664062
49	0xbdea	-0.11425781
50	0xbec0	-0.375
51	0xbeaa	-0.33203125
52	0xbe2a	-0.16601562
53	0xbd41	-0.04711914
54	0x3e43	0.19042969
55	0xbe93	-0.28710938
56	0x3e5f	0.21777344
57	0x3b1d	0.0023956299
58	0xbd81	-0.06298828
59	0xbea8	-0.328125
60	0xbd13	-0.035888672
61	0xbd92	-0.07128906
62	0xbe1c	-0.15234375
63	0x3e0b	0.13574219
64	0x3db6	0.08886719
65	0xbd85	-0.064941406
66	0xbde2	-0.11035156
67	0xbe98	-0.296875
68	0x3e35	0.17675781
69	0x3e8a	0.26953125
70	0xb912	-0.00013923645
71	0xbdcd	-0.100097656
72	0x3e40	0.1875
73	0xbcb4	-0.021972656
74	0x3d55	0.052001953
75	0x3dea	0.11425781
76	0x3e94	0.2890625
77	0xbe02	-0.12695312
78	0x3cd0	0.025390625
79	0x3ec4	0.3828125
80	0xbe05	-0.12988281
81	0xbe1d	-0.15332031
82	0x3e24	0.16015625
83	0x3e07	0.13183594
84	0xbdd2	-0.10253906
85	0xbee7	-0.45117188
86	0x3d01	0.03149414
87	0x3c56	0.013061523
88	0x3e1e	0.15429688
89	0xbe26	-0.16210938
90	0x3da9	0.08251953
91	0x3d76	0.060058594
92	0x3ea8	0.328125
93	0xbd85	-0.064941406
94	0x3c6e	0.014526367
95	0xbdf2	-0.11816406
96	0xbd7f	-0.06225586
97	0xbba9	-0.0051574707
98	0xbeef	-0.46679688
99	0x3e81	0.25195312
100	0x3da6	0.08105469
101	0x3d5a	0.053222656
102	0xbe39	-0.18066406
103	0xbd9f	-0.07763672
104	0xbd85	-0.064941406
105	0xbe1e	-0.15429688
106	0x3d11	0.03540039
107	0x3e0a	0.13476562
108	0x3e2d	0.16894531
109	0xbdaa	-0.08300781
110	0xbe95	-0.29101562
111	0x3e9e	0.30859375
112	0xbe4a	-0.19726562
113	0x3dfe	0.12402344
114	0xbd52	-0.05126953
115	0xbe02	-0.12695312
116	0xbd19	-0.037353516
117	0xbe1b	-0.15136719
118	0xbded	-0.115722656
119	0x3dde	0.10839844
120	0xbd48	-0.048828125
121	0x3d1c	0.038085938
122	0xbda7	-0.08154297
123	0x3df5	0.119628906
124	0x3e1e	0.15429688
125	0xbdd6	-0.10449219
126	0x3d2a	0.041503906
127	0x3e75	0.23925781

onnx::Add_157 bf16 [64]
0	0x3d04	0.032226562
1	0x3c4d	0.012512207
2	0xbc84	-0.016113281
3	0x3cdf	0.02722168
4	0xbc77	-0.015075684
5	0x3b6a	0.0035705566
6	0xbc89	-0.016723633
7	0x3c02	0.00793457
8	0xbcaf	-0.021362305
9	0x3d0e	0.03466797
10	0x3d32	0.04345703
11	0x3c57	0.013122559
12	0x3de8	0.11328125
13	0x3c18	0.009277344
14	0xbd8e	-0.06933594
15	0xbd7f	-0.06225586
16	0xbda6	-0.08105469
17	0xbcff	-0.03112793
18	0xbd9c	-0.076171875
19	0x3ca1	0.01965332
20	0xbd64	-0.055664062
21	0xbd9b	-0.075683594
22	0x3d73	0.059326172
23	0x3e14	0.14453125
24	0xbc15	-0.009094238
25	0xbc15	-0.009094238
26	0xbd5e	-0.05419922
27	0xbc25	-0.010070801
28	0xbcd5	-0.026000977
29	0xbd15	-0.036376953
30	0x3b28	0.0025634766
31	0xbccc	-0.024902344
32	0x3c93	0.017944336
33	0x3d26	0.040527344
34	0x3a0f	0.0005455017
35	0x3bed	0.007232666
36	0x3d42	0.04736328
37	0x3e12	0.14257812
38	0xbd13	-0.035888672
39	0xba42	-0.00074005127
40	0xbc92	-0.017822266
41	0xbcfb	-0.030639648
42	0x3d97	0.07373047
43	0xbcca	-0.024658203
44	0xbd71	-0.05883789
45	0xbdac	-0.083984375
46	0x3d13	0.035888672
47	0xbdb6	-0.08886719
48	0x3cc5	0.024047852
49	0x3d0c	0.034179688
50	0xbcd7	-0.026245117
51	0xbd75	-0.059814453
52	0x3d0e	0.03466797
53	0x3d0a	0.033691406
54	0x3cfe	0.03100586
55	0xbce3	-0.027709961
56	0x3d31	0.04321289
57	0x3d9e	0.07714844
58	0x3d1a	0.037597656
59	0x3d68	0.056640625
60	0xbe5e	-0.21679688
61	0xbe2d	-0.16894531
62	0xbe0e	-0.13867188
63	0xbdd6	-0.10449219

onnx::Add_159 bf16 [64]
0	0xba82	-0.0009918213
1	0xba6f	-0.00091171265
2	0x3921	0.00015354156
3	0x38e1	0.00010728836
4	0xba26	-0.00063323975
5	0xba4b	-0.00077438354
6	0xba8f	-0.0010910034
7	0x390e	0.00013542175
8	0x3b37	0.0027923584
9	0x3bfd	0.0077209473
10	0x3ad4	0.0016174316
11	0xbb46	-0.0030212402
12	0x3ba1	0.00491333
13	0x3bcf	0.0063171387
14	0xbae6	-0.0017547607
15	0xbb8c	-0.004272461
16	0xba46	-0.00075531006
17	0x3606	1.9967556e-06
18	0xb984	-0.00025177002
19	0xb816	-3.5762787e-05
20	0x38b8	8.773804e-05
21	0xb93e	-0.00018119812
22	0x3915	0.00014209747
23	0xb899	-7.2956085e-05
24	0x38aa	8.106232e-05
25	0x3953	0.00020122528
26	0x39f0	0.00045776367
27	0x3855	5.0783157e-05
28	0x3838	4.386902e-05
29	0xb7df	-2.6583672e-05
30	0x38d6	0.00010204315
31	0x399a	0.0002937317
32	0x37b8	2.193451e-05
33	0xb9a1	-0.00030708313
34	0xb8e2	-0.0001077652
35	0xb875	-5.8412552e-05
36	0xb7a0	-1.9073486e-05
37	0x398c	0.0002670288
38	0x39ab	0.00032615662
39	0x383d	4.506111e-05
40	0x3791	1.7285347e-05
41	0xb892	-6.9618225e-05
42	0xb89a	-7.343292e-05
43	0xb998	-0.000289917
44	0x38a9	8.058548e-05
45	0x3967	0.00022029877
46	0x39e7	0.00044059753
47	0x38e0	0.00010681152
48	0xb827	-3.9815903e-05
49	0x382d	4.1246414e-05
50	0x3941	0.00018405914
51	0x3a08	0.0005187988
52	0x3914	0.0001411438
53	0xb8bf	-9.10759e-05
54	0x38ff	0.000121593475
55	0x3933	0.0001707077
56	0xb88c	-6.67572e-05
57	0xb9c2	-0.00037002563
58	0xb814	-3.528595e-05
59	0xb970	-0.00022888184
60	0x391b	0.00014781952
61	0x3998	0.000289917
62	0xb9b3	-0.0003414154
63	0x3993	0.00028038025

onnx::Add_161 bf16 [64]
0	0xbca4	-0.020019531
1	0xbda6	-0.08105469
2	0x3d32	0.04345703
3	0xbc93	-0.017944336
4	0xbd64	-0.055664062
5	0xbd63	-0.055419922
6	0xbd39	-0.045166016
7	0x3d75	0.059814453
8	0xbd0c	-0.034179688
9	0xbdbb	-0.091308594
10	0x3daa	0.08300781
11	0x3d4d	0.050048828
12	0x3e11	0.14160156
13	0xbd86	-0.06542969
14	0xbd70	-0.05859375
15	0x3b9d	0.0047912598
16	0xbcbf	-0.02331543
17	0xbcf9	-0.030395508
18	0x3b19	0.0023345947
19	0x3c35	0.011047363
20	0xbc8d	-0.017211914
21	0xbc70	-0.0146484375
22	0xbd2f	-0.04272461
23	0x3d74	0.059570312
24	0xbd54	-0.051757812
25	0xbc49	-0.012268066
26	0x3c26	0.010131836
27	0x3c06	0.008178711
28	0xbc86	-0.016357422
29	0x3caf	0.021362305
30	0x3c9c	0.019042969
31	0xbbaa	-0.0051879883
32	0xbcbb	-0.022827148
33	0x3c40	0.01171875
34	0x3c43	0.0119018555
35	0x3c2f	0.010681152
36	0x3aed	0.0018081665
37	0xbbf6	-0.007507324
38	0xbabf	-0.0014572144
39	0xbb6f	-0.0036468506
40	0x3a27	0.00063705444
41	0xbd1c	-0.038085938
42	0xbd12	-0.03564453
43	0xbc14	-0.009033203
44	0xbc9a	-0.018798828
45	0x3a9c	0.0011901855
46	0x3cd9	0.026489258
47	0x3d31	0.04321289
48	0xbd4c	-0.049804688
49	0x3d1d	0.038330078
50	0x3ceb	0.028686523
51	0x3d98	0.07421875
52	0x3c18	0.009277344
53	0x3cd2	0.025634766
54	0x3d09	0.033447266
55	0x398a	0.0002632141
56	0x3c47	0.012145996
57	0xbcfa	-0.030517578
58	0xbc23	-0.0099487305
59	0xbd02	-0.03173828
60	0xbc5f	-0.01361084
61	0xbc07	-0.008239746
62	0xbc37	-0.011169434
63	0x3d31	0.04321289

onnx::MatMul_162 bf16 [64, 64]
0	0x3d93	0.071777344
1	0x3d81	0.06298828
2	0xbdf8	-0.12109375
3	0x3e19	0.14941406
4	0xbd9c	-0.076171875
5	0x3ce7	0.028198242
6	0x3c2c	0.010498047
7	0xbdff	-0.12451172
8	0x3e35	0.17675781
9	0x3e5e	0.21679688
10	0x3df9	0.12158203
11	0xbdc2	-0.09472656
12	0x3c3a	0.011352539
13	0x3c75	0.014953613
14	0x3cf4	0.029785156
15	0xbc86	-0.016357422
16	0xbdbb	-0.091308594
17	0xbde5	-0.111816406
18	0x3d83	0.063964844
19	0xbd24	-0.040039062
20	0x3dde	0.10839844
21	0xbab2	-0.0013580322
22	0x3d98	0.07421875
23	0x3caa	0.020751953
24	0xbcdf	-0.02722168
25	0x3d1a	0.037597656
26	0xbe31	-0.17285156
27	0x3e21	0.15722656
28	0xbe12	-0.14257812
29	0xbdff	-0.12451172
30	0xbe0d	-0.13769531
31	0xbd90	-0.0703125
32	0x3cc5	0.024047852
33	0x3e09	0.13378906
34	0x3e2e	0.16992188
35	0x3e35	0.17675781
36	0x3d9f	0.07763672
37	0x3df1	0.11767578
38	0xbd97	-0.07373047
39	0xbdc1	-0.09423828
40	0xbe00	-0.125
41	0xbe01	-0.12597656
42	0x3dd4	0.103515625
43	0x3d21	0.03930664
44	0xbe0e	-0.13867188
45	0xbd81	-0.06298828
46	0x3dc4	0.095703125
47	0xbddd	-0.107910156
48	0x3d4e	0.05029297
49	0x3d25	0.040283203
50	0xbd7c	-0.061523438
51	0x3de3	0.110839844
52	0xbe21	-0.15722656
53	0xbe1d	-0.15332031
54	0xbe28	-0.1640625
55	0x3e0b	0.13574219
56	0x3dbe	0.09277344
57	0x3d2e	0.04248047
58	0x3d86	0.06542969
59	0x3d9d	0.076660156
60	0x3d07	0.032958984
61	0xbc91	-0.017700195
62	0xbcc1	-0.02355957
63	0x3e10	0.140625
64	0x3c13	0.008972168
65	0xbe44	-0.19140625
66	0xbdd1	-0.10205078
67	0xbce2	-0.02758789
68	0xbdbf	-0.09326172
69	0x3d87	0.06591797
70	0x3af9	0.0018997192
71	0x3d57	0.052490234
72	0x3d58	0.052734375
73	0xbdd4	-0.103515625
74	0x3daf	0.08544922
75	0xbb8e	-0.004333496
76	0xbe1e	-0.15429688
77	0xbd91	-0.07080078
78	0x3da8	0.08203125
79	0xb99e	-0.00030136108
80	0xbd63	-0.055419922
81	0xbd40	-0.046875
82	0xbd78	-0.060546875
83	0xbd6b	-0.057373047
84	0xbd65	-0.055908203
85	0x3d98	0.07421875
86	0xbe1c	-0.15234375
87	0x3e07	0.13183594
88	0xbd4d	-0.050048828
89	0x3df3	0.118652344
90	0x3dc1	0.09423828
91	0xbd34	-0.043945312
92	0x3ce6	0.028076172
93	0xbda0	-0.078125
94	0x3e00	0.125
95	0x3daa	0.08300781
96	0xbdd6	-0.10449219
97	0x3dc8	0.09765625
98	0x3c05	0.008117676
99	0xbd93	-0.071777344
100	0xbd16	-0.036621094
101	0xbdd6	-0.10449219
102	0x3d46	0.048339844
103	0x3e1b	0.15136719
104	0x3e02	0.12695312
105	0xbe0e	-0.13867188
106	0x3cff	0.03112793
107	0x3db1	0.08642578
108	0x3c62	0.013793945
109	0x3e45	0.19238281
110	0xbd48	-0.048828125
111	0xba9e	-0.0012054443
112	0x3df0	0.1171875
113	0xbc5b	-0.013366699
114	0xbcbc	-0.022949219
115	0x3ca0	0.01953125
116	0xbdee	-0.11621094
117	0x3c7a	0.015258789
118	0x3e10	0.140625
119	0x3d2e	0.04248047
120	0xbe02	-0.12695312
121	0xbcfb	-0.030639648
122	0x3dd2	0.10253906
123	0x3def	0.11669922
124	0xbbaf	-0.005340576
125	0x3e05	0.12988281
126	0xbb9c	-0.004760742
127	0xba54	-0.0008087158
128	0xbd90	-0.0703125
129	0xbde1	-0.10986328
130	0x3e4c	0.19921875
131	0x3dc4	0.095703125
132	0x3dbf	0.09326172
133	0x3d37	0.044677734
134	0x3dc6	0.09667969
135	0xbd18	-0.037109375
136	0x3db5	0.088378906
137	0xbd1a	-0.037597656
138	0x3be7	0.0070495605
139	0xbc82	-0.01586914
140	0xbe65	-0.22363281
141	0xbe07	-0.13183594
142	0x3de2	0.11035156
143	0x3d9f	0.07763672
144	0xbd8c	-0.068359375
145	0xbd03	-0.031982422
146	0xbd85	-0.064941406
147	0x3e20	0.15625
148	0xbe24	-0.16015625
149	0x3d09	0.033447266
150	0x3e06	0.13085938
151	0x3cf8	0.030273438
152	0xbdf2	-0.11816406
153	0x3e3a	0.18164062
154	0x3e12	0.14257812
155	0xbd1f	-0.03881836
156	0xbc04	-0.008056641
157	0xbd20	-0.0390625
158	0x3e33	0.17480469
159	0x3e86	0.26171875
160	0x3ddc	0.107421875
161	0x3d9f	0.07763672
162	0x3d21	0.03930664
163	0x3dde	0.10839844
164	0x3d87	0.06591797
165	0xbd57	-0.052490234
166	0xbd2c	-0.041992188
167	0x3d6e	0.05810547
168	0x3e0b	0.13574219
169	0xbca8	-0.020507812
170	0xbe0a	-0.13476562
171	0xbcdc	-0.026855469
172	0xbe08	-0.1328125
173	0x3d53	0.051513672
174	0x3e04	0.12890625
175	0xbde1	-0.10986328
176	0x3ba5	0.0050354004
177	0x3a04	0.00050354004
178	0xbe2d	-0.16894531
179	0x3b52	0.0032043457
180	0xbc76	-0.015014648
181	0x3e04	0.12890625
182	0x3e27	0.16308594
183	0xbe3c	-0.18359375
184	0x3d66	0.056152344
185	0xbdfb	-0.122558594
186	0xbd82	-0.06347656
187	0xbdb5	-0.088378906
188	0x3dd1	0.10205078
189	0xbd37	-0.044677734
190	0x3d81	0.06298828
191	0x3d8b	0.067871094
192	0xbe09	-0.13378906
193	0xbb5f	-0.00340271
194	0x3e04	0.12890625
195	0xbd8c	-0.068359375
196	0xbe1d	-0.15332031
197	0x3c9c	0.019042969
198	0xbe1f	-0.15527344
199	0x3da6	0.08105469
200	0xbda6	-0.08105469
201	0xbe67	-0.22558594
202	0x3ddd	0.107910156
203	0xbcab	-0.020874023
204	0xbda0	-0.078125
205	0x3cee	0.029052734
206	0x3dfb	0.122558594
207	0xbd48	-0.048828125
208	0xbb7b	-0.003829956
209	0xbdba	-0.09082031
210	0x3ce7	0.028198242
211	0x3d93	0.071777344
212	0x3df8	0.12109375
213	0xbca9	-0.020629883
214	0xbd54	-0.051757812
215	0xbd19	-0.037353516
216	0x3e15	0.14550781
217	0xbdb0	-0.0859375
218	0x3e35	0.17675781
219	0xbd5c	-0.053710938
220	0x3e29	0.16503906
221	0xbd7a	-0.061035156
222	0x3db0	0.0859375
223	0x3de6	0.11230469
224	0xbd92	-0.07128906
225	0xbc98	-0.018554688
226	0xbd13	-0.035888672
227	0xbd50	-0.05078125
228	0xbdd3	-0.103027344
229	0x3dd4	0.103515625
230	0xbcd0	-0.025390625
231	0xbd33	-0.043701172
232	0x3de7	0.11279297
233	0xbe20	-0.15625
234	0xbdb8	-0.08984375
235	0x3d1a	0.037597656
236	0x3da1	0.07861328
237	0x3c56	0.013061523
238	0x3c38	0.011230469
239	0x3d89	0.06689453
240	0xbb8a	-0.004211426
241	0xbd14	-0.036132812
242	0x3e13	0.14355469
243	0x3e32	0.17382812
244	0x3dd3	0.103027344
245	0xbdab	-0.083496094
246	0xbdf1	-0.11767578
247	0xbc96	-0.018310547
248	0x3dfd	0.123535156
249	0x3db1	0.08642578
250	0x3de9	0.11376953
251	0x3cc4	0.023925781
252	0xbc37	-0.011169434
253	0x3d66	0.056152344
254	0x3e01	0.12597656
255	0x3cf1	0.029418945

onnx::MatMul_163 bf16 [64, 64]
0	0xbe01	-0.12597656
1	0xbd53	-0.051513672
2	0x3cf8	0.030273438
3	0xbcb9	-0.022583008
4	0xbe21	-0.15722656
5	0x3da0	0.078125
6	0xbda1	-0.07861328
7	0x3cf7	0.030151367
8	0xbd83	-0.063964844
9	0xbcff	-0.03112793
10	0xbccd	-0.025024414
11	0xbddc	-0.107421875
12	0x3df8	0.12109375
13	0xbde6	-0.11230469
14	0x3cbe	0.02319336
15	0xbdb4	-0.087890625
16	0xbd4b	-0.049560547
17	0x3dff	0.12451172
18	0x3d31	0.04321289
19	0xbd2a	-0.041503906
20	0xbcb2	-0.021728516
21	0x3db8	0.08984375
22	0x3cd2	0.025634766
23	0x3d54	0.051757812
24	0xbc3b	-0.011413574
25	0xbe21	-0.15722656
26	0xbe32	-0.17382812
27	0x3da0	0.078125
28	0xbd96	-0.07324219
29	0x3c1e	0.009643555
30	0xbe15	-0.14550781
31	0xbbbf	-0.0058288574
32	0x3dac	0.083984375
33	0x3e18	0.1484375
34	0xbd1d	-0.038330078
35	0x3dc0	0.09375
36	0xbc99	-0.018676758
37	0xbe2c	-0.16796875
38	0x3e12	0.14257812
39	0x3d60	0.0546875
40	0xbe50	-0.203125
41	0xbe6f	-0.23339844
42	0xbc5b	-0.013366699
43	0x3ba9	0.0051574707
44	0x3bf0	0.0073242188
45	0xbc91	-0.017700195
46	0x3d90	0.0703125
47	0x3da3	0.079589844
48	0xbdaa	-0.08300781
49	0xbe0b	-0.13574219
50	0x3c6b	0.014343262
51	0x3de7	0.11279297
52	0xbe39	-0.18066406
53	0xbe1b	-0.15136719
54	0xbd9c	-0.076171875
55	0x3c2b	0.010437012
56	0x3d97	0.07373047
57	0xbb82	-0.003967285
58	0xbc5d	-0.0134887695
59	0xbdca	-0.09863281
60	0x3d64	0.055664062
61	0x3df9	0.12158203
62	0x3e4d	0.20019531
63	0x3cb2	0.021728516
64	0x3dce	0.10058594
65	0xbdcc	-0.099609375
66	0xbe5d	-0.21582031
67	0x3e06	0.13085938
68	0xbda6	-0.08105469
69	0x3c96	0.018310547
70	0xbde5	-0.111816406
71	0xbd74	-0.059570312
72	0x3da4	0.080078125
73	0x3d86	0.06542969
74	0xbde5	-0.111816406
75	0x3d67	0.056396484
76	0xbdf6	-0.12011719
77	0xbe30	-0.171875
78	0x3da5	0.080566406
79	0x3e1b	0.15136719
80	0x3db5	0.088378906
81	0x3db6	0.08886719
82	0x3d5c	0.053710938
83	0x3d33	0.043701172
84	0x3e0c	0.13671875
85	0xbe41	-0.18847656
86	0xbdf1	-0.11767578
87	0x3d88	0.06640625
88	0x3e1d	0.15332031
89	0x3cc3	0.023803711
90	0x3e4e	0.20117188
91	0xbc07	-0.008239746
92	0x3d8c	0.068359375
93	0x3d03	0.031982422
94	0x3e89	0.26757812
95	0xbd99	-0.07470703
96	0xbcbd	-0.023071289
97	0x3e15	0.14550781
98	0x3ca7	0.020385742
99	0xbc54	-0.012939453
100	0x3e15	0.14550781
101	0xbdb8	-0.08984375
102	0xbdf6	-0.12011719
103	0x3d78	0.060546875
104	0x3e6f	0.23339844
105	0x3d71	0.05883789
106	0xbd45	-0.048095703
107	0x3dd5	0.104003906
108	0x3d89	0.06689453
109	0x3d73	0.059326172
110	0xbba1	-0.00491333
111	0xbe3e	-0.18554688
112	0xbdfa	-0.12207031
113	0x3d99	0.07470703
114	0xbd2e	-0.04248047
115	0x3c39	0.011291504
116	0x3c0c	0.008544922
117	0xbe06	-0.13085938
118	0x3e23	0.15917969
119	0x3e35	0.17675781
120	0xbc28	-0.010253906
121	0xbdef	-0.11669922
122	0xbded	-0.115722656
123	0x3e22	0.15820312
124	0x3bb3	0.0054626465
125	0x3db7	0.08935547
126	0x3dc8	0.09765625
127	0xbdf9	-0.12158203
128	0x3e35	0.17675781
129	0x3d51	0.05102539
130	0xbcf0	-0.029296875
131	0x3daa	0.08300781
132	0xbdc1	-0.09423828
133	0x3da5	0.080566406
134	0xbdcb	-0.099121094
135	0xbe0e	-0.13867188
136	0x3d95	0.072753906
137	0xbdf6	-0.12011719
138	0x3dba	0.09082031
139	0x3d8d	0.068847656
140	0xbd51	-0.05102539
141	0xbe0f	-0.13964844
142	0x3e03	0.12792969
143	0xbdc2	-0.09472656
144	0xbdce	-0.10058594
145	0xbd04	-0.032226562
146	0xbdf9	-0.12158203
147	0x3dc2	0.09472656
148	0x3d2b	0.041748047
149	0xbdb0	-0.0859375
150	0xbdb4	-0.087890625
151	0xbda7	-0.08154297
152	0xbe10	-0.140625
153	0xbdb7	-0.08935547
154	0x3e09	0.13378906
155	0xbc76	-0.015014648
156	0x3ddf	0.10888672
157	0x3d9f	0.07763672
158	0x3e82	0.25390625
159	0xbd8e	-0.06933594
160	0x3db5	0.088378906
161	0xbda4	-0.080078125
162	0xbdb2	-0.08691406
163	0x3dc4	0.095703125
164	0x3d2e	0.04248047
165	0x3dc5	0.096191406
166	0x3cb0	0.021484375
167	0x3c28	0.010253906
168	0x3e28	0.1640625
169	0x3e2e	0.16992188
170	0xbdc8	-0.09765625
171	0x3e16	0.14648438
172	0xbd10	-0.03515625
173	0xbe3c	-0.18359375
174	0x3d8e	0.06933594
175	0xbd3c	-0.045898438
176	0x3ca7	0.020385742
177	0x3c90	0.017578125
178	0xbc2d	-0.010559082
179	0xbdca	-0.09863281
180	0x3c82	0.01586914
181	0xbd94	-0.072265625
182	0x3dab	0.083496094
183	0x3d56	0.052246094
184	0xbde0	-0.109375
185	0x3d86	0.06542969
186	0xbdd6	-0.10449219
187	0x3cd6	0.026123047
188	0xbe39	-0.18066406
189	0x3d2d	0.042236328
190	0xbe22	-0.15820312
191	0xbdae	-0.08496094
192	0x3dac	0.083984375
193	0xbd8e	-0.06933594
194	0x3d78	0.060546875
195	0x3dcd	0.100097656
196	0x3d94	0.072265625
197	0xbe04	-0.12890625
198	0xbd07	-0.032958984
199	0x3df0	0.1171875
200	0x3e09	0.13378906
201	0x3e04	0.12890625
202	0x3dcb	0.099121094
203	0x3daa	0.08300781
204	0x3cd2	0.025634766
205	0x3c87	0.016479492
206	0x3d55	0.052001953
207	0xbde8	-0.11328125
208	0x3d46	0.048339844
209	0x3dc5	0.096191406
210	0xbd8e	-0.06933594
211	0xbd6a	-0.057128906
212	0xbe1c	-0.15234375
213	0xbd85	-0.064941406
214	0x3da2	0.07910156
215	0x3d85	0.064941406
216	0xbe35	-0.17675781
217	0x3d97	0.07373047
218	0xbe03	-0.12792969
219	0x3c8e	0.017333984
220	0xbd72	-0.05908203
221	0xbe1d	-0.15332031
222	0x3e4e	0.20117188
223	0x3daf	0.08544922
224	0x3d10	0.03515625
225	0xbd8e	-0.06933594
226	0xbd1b	-0.037841797
227	0x3e35	0.17675781
228	0x3bad	0.005279541
229	0xbd81	-0.06298828
230	0xbe0e	-0.13867188
231	0xbe0c	-0.13671875
232	0x3e80	0.25
233	0xbb27	-0.0025482178
234	0xbe7d	-0.24707031
235	0x3de6	0.11230469
236	0x3da3	0.079589844
237	0xbe02	-0.12695312
238	0xbd4b	-0.049560547
239	0x3d2f	0.04272461
240	0xbe7b	-0.24511719
241	0xbd7a	-0.061035156
242	0x3d95	0.072753906
243	0xbe09	-0.13378906
244	0xbdb7	-0.08935547
245	0xbd21	-0.03930664
246	0xbe52	-0.20507812
247	0x3da2	0.07910156
248	0xbcf3	-0.029663086
249	0xb9a8	-0.00032043457
250	0xbe06	-0.13085938
251	0x3ccc	0.024902344
252	0xbd3e	-0.04638672
253	0xbd4a	-0.049316406
254	0xbb62	-0.0034484863
255	0x3d0c	0.034179688

onnx::MatMul_164 bf16 [64, 64]
0	0x3dd0	0.1015625
1	0x3e12	0.14257812
2	0xbdf9	-0.12158203
3	0x3e10	0.140625
4	0xbdd9	-0.10595703
5	0x3d83	0.063964844
6	0x3da3	0.079589844
7	0xbda6	-0.08105469
8	0x3ca5	0.020141602
9	0xbbeb	-0.007171631
10	0xbd9e	-0.07714844
11	0xbbdd	-0.0067443848
12	0xbd84	-0.064453125
13	0xbdcf	-0.10107422
14	0x3db8	0.08984375
15	0x3e1d	0.15332031
16	0x3cc2	0.02368164
17	0xbda7	-0.08154297
18	0xbd27	-0.040771484
19	0xbd9c	-0.076171875
20	0xbd8e	-0.06933594
21	0x3dd4	0.103515625
22	0x3cc0	0.0234375
23	0x3d18	0.037109375
24	0x3d8a	0.06738281
25	0x3d00	0.03125
26	0x3e05	0.12988281
27	0x3e16	0.14648438
28	0xbdd2	-0.10253906
29	0xbbc7	-0.006072998
30	0x3dfb	0.122558594
31	0xbd13	-0.035888672
32	0xbb8c	-0.004272461
33	0x3c36	0.011108398
34	0xbce6	-0.028076172
35	0xbc70	-0.0146484375
36	0xbd9f	-0.07763672
37	0x3d2f	0.04272461
38	0xbd45	-0.048095703
39	0x3a5d	0.0008430481
40	0x3d07	0.032958984
41	0x3de3	0.110839844
42	0xbe1b	-0.15136719
43	0x3d5c	0.053710938
44	0xbe33	-0.17480469
45	0x3da9	0.08251953
46	0x3c52	0.012817383
47	0xbd14	-0.036132812
48	0x3db3	0.087402344
49	0xbc18	-0.009277344
50	0x3d15	0.036376953
51	0xbd69	-0.056884766
52	0xbb8b	-0.0042419434
53	0x3d4b	0.049560547
54	0xbc93	-0.017944336
55	0x3dbb	0.091308594
56	0xbde4	-0.111328125
57	0xbd8d	-0.068847656
58	0xbe39	-0.18066406
59	0x3c26	0.010131836
60	0x3cd3	0.025756836
61	0x3d90	0.0703125
62	0xbd21	-0.03930664
63	0xbdcd	-0.100097656
64	0x3df0	0.1171875
65	0x3db4	0.087890625
66	0xbdb9	-0.09033203
67	0xbc8e	-0.017333984
68	0x3aae	0.0013275146
69	0x3d41	0.04711914
70	0x3d91	0.07080078
71	0xbd9d	-0.076660156
72	0xbe27	-0.16308594
73	0x3e14	0.14453125
74	0x3dcc	0.099609375
75	0xbdf1	-0.11767578
76	0xbcba	-0.022705078
77	0xbde2	-0.11035156
78	0xbe3e	-0.18554688
79	0xbdb3	-0.087402344
80	0x3da5	0.080566406
81	0xbe12	-0.14257812
82	0x3dbc	0.091796875
83	0x3d83	0.063964844
84	0x3c30	0.0107421875
85	0x3c87	0.016479492
86	0xbddd	-0.107910156
87	0xbd81	-0.06298828
88	0xbd05	-0.032470703
89	0xbe42	-0.18945312
90	0xbe2d	-0.16894531
91	0x3c7d	0.0154418945
92	0x3ceb	0.028686523
93	0x3dde	0.10839844
94	0x3dc6	0.09667969
95	0x3d0a	0.033691406
96	0xbdf1	-0.11767578
97	0xbe20	-0.15625
98	0xbe21	-0.15722656
99	0x3dcd	0.100097656
100	0x3e24	0.16015625
101	0x3da0	0.078125
102	0xbd5e	-0.05419922
103	0x3ba9	0.0051574707
104	0xbe4c	-0.19921875
105	0xbdb5	-0.088378906
106	0x3e2e	0.16992188
107	0x3d2d	0.042236328
108	0xbdbd	-0.092285156
109	0xbd0c	-0.034179688
110	0x3dbd	0.092285156
111	0xbd89	-0.06689453
112	0xbde7	-0.11279297
113	0x3d21	0.03930664
114	0xbd5b	-0.053466797
115	0x3b09	0.002090454
116	0x3e10	0.140625
117	0x3cb4	0.021972656
118	0x3d18	0.037109375
119	0xbdf5	-0.119628906
120	0xbd04	-0.032226562
121	0x3d54	0.051757812
122	0xbd77	-0.060302734
123	0x3cb2	0.021728516
124	0x3e86	0.26171875
125	0xbe4d	-0.20019531
126	0x3cbe	0.02319336
127	0x3da5	0.080566406
128	0x3d19	0.037353516
129	0xbd1f	-0.03881836
130	0x3d11	0.03540039
131	0x3c90	0.017578125
132	0x3e04	0.12890625
133	0x3df6	0.12011719
134	0xbde4	-0.111328125
135	0x3cab	0.020874023
136	0xbd52	-0.05126953
137	0x3dc9	0.09814453
138	0x3e0c	0.13671875
139	0x3e66	0.22460938
140	0xbdce	-0.10058594
141	0xbd1c	-0.038085938
142	0xbe0f	-0.13964844
143	0xbe43	-0.19042969
144	0x3e4b	0.19824219
145	0x3d9c	0.076171875
146	0xbd2a	-0.041503906
147	0x3dec	0.115234375
148	0xbd87	-0.06591797
149	0x3cf2	0.029541016
150	0x3e27	0.16308594
151	0xbbe6	-0.007019043
152	0xbe04	-0.12890625
153	0xbe32	-0.17382812
154	0xbdc6	-0.09667969
155	0xbd78	-0.060546875
156	0x3de7	0.11279297
157	0x3d83	0.063964844
158	0xbdd9	-0.10595703
159	0xbdb9	-0.09033203
160	0x3dd9	0.10595703
161	0x3d8e	0.06933594
162	0xbde8	-0.11328125
163	0xbd5b	-0.053466797
164	0xbdfd	-0.123535156
165	0x3c22	0.009887695
166	0x3dc9	0.09814453
167	0x3c46	0.012084961
168	0xbe49	-0.19628906
169	0x3dc7	0.09716797
170	0x3d1c	0.038085938
171	0x3d30	0.04296875
172	0x3d8d	0.068847656
173	0xbce0	-0.02734375
174	0x3ca6	0.020263672
175	0x3c81	0.01574707
176	0xbd50	-0.05078125
177	0x3c43	0.0119018555
178	0xbc18	-0.009277344
179	0x3e1f	0.15527344
180	0x3dd3	0.103027344
181	0xbdf7	-0.12060547
182	0x3dec	0.115234375
183	0x3e23	0.15917969
184	0x3e0a	0.13476562
185	0x3ddd	0.107910156
186	0x3e00	0.125
187	0xbd80	-0.0625
188	0xbd30	-0.04296875
189	0xbe21	-0.15722656
190	0xbd76	-0.060058594
191	0x3cde	0.02709961
192	0x3dba	0.09082031
193	0xbe38	-0.1796875
194	0xbdc5	-0.096191406
195	0xbd05	-0.032470703
196	0x3dc7	0.09716797
197	0xbd87	-0.06591797
198	0xbe00	-0.125
199	0xbdde	-0.10839844
200	0x3dc6	0.09667969
201	0xbb49	-0.0030670166
202	0x3d66	0.056152344
203	0xbdce	-0.10058594
204	0x3de3	0.110839844
205	0x3b52	0.0032043457
206	0x3ccd	0.025024414
207	0x3c94	0.018066406
208	0xbdbe	-0.09277344
209	0x3d04	0.032226562
210	0x3e0a	0.13476562
211	0xbda5	-0.080566406
212	0xbe0d	-0.13769531
213	0x3de6	0.11230469
214	0xbc02	-0.00793457
215	0x3d12	0.03564453
216	0xbc01	-0.007873535
217	0x3d26	0.040527344
218	0x3cab	0.020874023
219	0x3df2	0.11816406
220	0x3d7d	0.061767578
221	0x3e15	0.14550781
222	0xbdba	-0.09082031
223	0xbd29	-0.041259766
224	0xbcdd	-0.026977539
225	0x3b08	0.0020751953
226	0x3cee	0.029052734
227	0xbd53	-0.051513672
228	0x3dbe	0.09277344
229	0x3dee	0.11621094
230	0x3e09	0.13378906
231	0xbbba	-0.0056762695
232	0x3dd8	0.10546875
233	0xbe0c	-0.13671875
234	0xbde0	-0.109375
235	0xbbc1	-0.0058898926
236	0xbc91	-0.017700195
237	0x3e12	0.14257812
238	0x3dad	0.084472656
239	0x3df2	0.11816406
240	0xbd8c	-0.068359375
241	0x3db0	0.0859375
242	0xbd75	-0.059814453
243	0xbdb5	-0.088378906
244	0x3c00	0.0078125
245	0x3de4	0.111328125
246	0xbcbf	-0.02331543
247	0x3e05	0.12988281
248	0x3b27	0.0025482178
249	0x3d16	0.036621094
250	0xbdb0	-0.0859375
251	0x3e11	0.14160156
252	0xbe0a	-0.13476562
253	0x3e07	0.13183594
254	0xbd8f	-0.06982422
255	0xbce5	-0.027954102

onnx::MatMul_184 bf16 [64, 64]
0	0xbea3	-0.31835938
1	0xbe43	-0.19042969
2	0x3d44	0.047851562
3	0x3d05	0.032470703
4	0xbdbb	-0.091308594
5	0x3dc1	0.09423828
6	0xbdc7	-0.09716797
7	0xbe26	-0.16210938
8	0x3ece	0.40234375
9	0x3c96	0.018310547
10	0xbe18	-0.1484375
11	0xbeee	-0.46484375
12	0xbe50	-0.203125
13	0xbd23	-0.039794922
14	0x3e8f	0.27929688
15	0xbe43	-0.19042969
16	0xbe8d	-0.27539062
17	0x3dc5	0.096191406
18	0xbc87	-0.016479492
19	0xbe07	-0.13183594
20	0x3e80	0.25
21	0x3e23	0.15917969
22	0xbbab	-0.005218506
23	0x3dd9	0.10595703
24	0x3dd4	0.103515625
25	0x3de3	0.110839844
26	0x3ddc	0.107421875
27	0xbd95	-0.072753906
28	0xbe60	-0.21875
29	0x3e22	0.15820312
30	0xbd3e	-0.04638672
31	0x3d1c	0.038085938
32	0xbe04	-0.12890625
33	0x3e1f	0.15527344
34	0xbd29	-0.041259766
35	0x3d87	0.06591797
36	0xbe39	-0.18066406
37	0xbcd9	-0.026489258
38	0x3ec4	0.3828125
39	0xbe1f	-0.15527344
40	0xbd8e	-0.06933594
41	0xbe4c	-0.19921875
42	0xbec6	-0.38671875
43	0x3e72	0.23632812
44	0xbea4	-0.3203125
45	0xbe47	-0.19433594
46	0x3e4d	0.20019531
47	0xbe95	-0.29101562
48	0x3d39	0.045166016
49	0xbe77	-0.24121094
50	0xbd02	-0.03173828
51	0xbde0	-0.109375
52	0xbe30	-0.171875
53	0xbd05	-0.032470703
54	0x3ec5	0.38476562
55	0xbdf8	-0.12109375
56	0x3d4d	0.050048828
57	0xbe46	-0.19335938
58	0x3d43	0.047607422
59	0xbdc7	-0.09716797
60	0x3def	0.11669922
61	0x3ea4	0.3203125
62	0xbd09	-0.033447266
63	0x3e47	0.19433594
64	0xbc69	-0.014221191
65	0xbd78	-0.060546875
66	0xbe14	-0.14453125
67	0xbe48	-0.1953125
68	0xbe23	-0.15917969
69	0x3e6e	0.23242188
70	0xbd04	-0.032226562
71	0xbdcb	-0.099121094
72	0xbde7	-0.11279297
73	0xbd8b	-0.067871094
74	0xbd8a	-0.06738281
75	0xbe23	-0.15917969
76	0x3d81	0.06298828
77	0x3dce	0.10058594
78	0xbcef	-0.029174805
79	0xbe2f	-0.17089844
80	0x3d6f	0.05834961
81	0x3bed	0.007232666
82	0x3ca6	0.020263672
83	0x3de1	0.10986328
84	0xbd5a	-0.053222656
85	0x3e66	0.22460938
86	0x3d90	0.0703125
87	0x3c9b	0.018920898
88	0x3e2c	0.16796875
89	0xbd39	-0.045166016
90	0x3cfe	0.03100586
91	0xba6f	-0.00091171265
92	0xbdb6	-0.08886719
93	0x3e7b	0.24511719
94	0xbe3b	-0.18261719
95	0x3e19	0.14941406
96	0xbe70	-0.234375
97	0x3ddc	0.107421875
98	0xbd88	-0.06640625
99	0x3e7c	0.24609375
100	0xbe1f	-0.15527344
101	0x3d9b	0.075683594
102	0xbda1	-0.07861328
103	0xbd1d	-0.038330078
104	0x3d44	0.047851562
105	0x3e5a	0.21289062
106	0x3db3	0.087402344
107	0xbe07	-0.13183594
108	0x3e43	0.19042969
109	0x3e3c	0.18359375
110	0x3ddc	0.107421875
111	0x3c5d	0.0134887695
112	0xbdbe	-0.09277344
113	0x3e58	0.2109375
114	0x3e7e	0.24804688
115	0x3df3	0.118652344
116	0xbe25	-0.16113281
117	0xbe50	-0.203125
118	0x3cac	0.020996094
119	0x3e1e	0.15429688
120	0x3e75	0.23925781
121	0x3cd7	0.026245117
122	0xbc6e	-0.014526367
123	0x3da2	0.07910156
124	0xbdf4	-0.119140625
125	0x3e0d	0.13769531
126	0x3c29	0.010314941
127	0xbe4a	-0.19726562
128	0x3e0f	0.13964844
129	0x3e80	0.25
130	0xbddc	-0.107421875
131	0x3b20	0.0024414062
132	0xbdcb	-0.099121094
133	0xbdbc	-0.091796875
134	0x3ead	0.33789062
135	0xbdbc	-0.091796875
136	0xbe81	-0.25195312
137	0x3e37	0.17871094
138	0xbe53	-0.20605469
139	0xbc57	-0.013122559
140	0xba48	-0.00076293945
141	0x3bae	0.0053100586
142	0x3e23	0.15917969
143	0x3e06	0.13085938
144	0x3e87	0.26367188
145	0xbd3a	-0.045410156
146	0x3dd2	0.10253906
147	0x3eb2	0.34765625
148	0xbdda	-0.10644531
149	0x3e4b	0.19824219
150	0x3dda	0.10644531
151	0x3e38	0.1796875
152	0x3dfb	0.122558594
153	0x3da4	0.080078125
154	0x3e44	0.19140625
155	0xbe17	-0.14746094
156	0x3d37	0.044677734
157	0xbdb4	-0.087890625
158	0x3e72	0.23632812
159	0x3d10	0.03515625
160	0x3efc	0.4921875
161	0xbe3a	-0.18164062
162	0xbe33	-0.17480469
163	0xbd74	-0.059570312
164	0x3c82	0.01586914
165	0xbd54	-0.051757812
166	0x3e4e	0.20117188
167	0xbddb	-0.106933594
168	0x3d3f	0.04663086
169	0x3d10	0.03515625
170	0x3e35	0.17675781
171	0xbe27	-0.16308594
172	0x3f0c	0.546875
173	0x3d91	0.07080078
174	0xbea3	-0.31835938
175	0x3e65	0.22363281
176	0x3c07	0.008239746
177	0x3e0b	0.13574219
178	0xbda7	-0.08154297
179	0xbd8f	-0.06982422
180	0x3e04	0.12890625
181	0x3e99	0.29882812
182	0xbd09	-0.033447266
183	0xbd95	-0.072753906
184	0x3e17	0.14746094
185	0xbe62	-0.22070312
186	0xbda0	-0.078125
187	0x3efb	0.49023438
188	0x3cf7	0.030151367
189	0xbd80	-0.0625
190	0xbcf6	-0.030029297
191	0xbd3f	-0.04663086
192	0x3ec8	0.390625
193	0x3d57	0.052490234
194	0xbe7a	-0.24414062
195	0x3d89	0.06689453
196	0x3ce1	0.02746582
197	0xbe3f	-0.18652344
198	0x3e63	0.22167969
199	0x3e0a	0.13476562
200	0xbefb	-0.49023438
201	0x3e25	0.16113281
202	0xbdf3	-0.118652344
203	0x3e35	0.17675781
204	0xbd08	-0.033203125
205	0x3d6d	0.057861328
206	0x3d91	0.07080078
207	0xbe5c	-0.21484375
208	0x3e0d	0.13769531
209	0x3dc2	0.09472656
210	0x3eeb	0.45898438
211	0x3ec5	0.38476562
212	0xbd21	-0.03930664
213	0x3e4b	0.19824219
214	0x3d1e	0.03857422
215	0xbd70	-0.05859375
216	0x3dd6	0.10449219
217	0xbe0a	-0.13476562
218	0xbc8a	-0.016845703
219	0xbd5e	-0.05419922
220	0xbe4a	-0.19726562
221	0xbdb0	-0.0859375
222	0x3dab	0.083496094
223	0x3e85	0.25976562
224	0x3d2f	0.04272461
225	0x3cd5	0.026000977
226	0xbdf6	-0.12011719
227	0xbe54	-0.20703125
228	0xbe18	-0.1484375
229	0xbc90	-0.017578125
230	0xbe75	-0.23925781
231	0xbd69	-0.056884766
232	0xbe03	-0.12792969
233	0x3dc8	0.09765625
234	0x3e50	0.203125
235	0x3e06	0.13085938
236	0x3e0c	0.13671875
237	0xbe18	-0.1484375
238	0x3d8d	0.068847656
239	0x3cbe	0.02319336
240	0x3d02	0.03173828
241	0xbe77	-0.24121094
242	0x3e63	0.22167969
243	0x3cd5	0.026000977
244	0x3d77	0.060302734
245	0x3e0a	0.13476562
246	0x3d15	0.036376953
247	0x3e13	0.14355469
248	0xbc78	-0.015136719
249	0xbe34	-0.17578125
250	0xbd6a	-0.057128906
251	0xbd01	-0.03149414
252	0xbe47	-0.19433594
253	0x3d84	0.064453125
254	0x3e64	0.22265625
255	0xbde3	-0.110839844
