spectf_cloud/weights/v0.0.1/weights.pt (torch, 107782 bytes, 16 tensors)

spectral_embed.linear.weight f4 [64, 2]
0	0x3e45b4f7	0.19307314
1	0x3db606b3	0.088879965
2	0xbe8eebc9	-0.27914265
3	0xbd84ec46	-0.06490378
4	0xbebd166a	-0.36931163
5	0xbde1b3fc	-0.110206574
6	0x3e04c77b	0.12966721
7	0xbe980db4	-0.29697955
8	0xbd43815b	-0.047730785
9	0x3e34b1cb	0.17645948
10	0x3d2f886f	0.042854723
11	0x3e8a66c1	0.2703152
12	0xbde690ba	-0.11258073
13	0xb911d8c0	-0.00013909023
14	0xbe67cac4	-0.22635943
15	0xbdccaa5a	-0.099934295
16	0x3e0ceb88	0.13761723
17	0x3e3f9a99	0.18711318
18	0x3e9e0f09	0.30870846
19	0xbcb39ddd	-0.021925861
20	0x3ec44f1a	0.383416
21	0x3d554d54	0.0520757
22	0x3e78e6fc	0.24306864
23	0x3de9be4d	0.1141325
24	0xbe571877	-0.21005426
25	0x3e945a2d	0.2897505
26	0x3d1a4452	0.03766281
27	0xbe0244a0	-0.12721491
28	0xbeae6331	-0.34060052
29	0x3ccfe4fe	0.025377747
30	0xbe75c659	-0.24001445
31	0x3ec3979c	0.38201606
32	0x3db19d0c	0.086725324
33	0xbe052ae6	-0.13004646
34	0x3d6b00d2	0.05737383
35	0xbe1d3d81	-0.15355493
36	0x3e9f6da9	0.31138352
37	0x3e24757c	0.16060442
38	0x3e182969	0.14859547
39	0x3e072ac5	0.13199909
40	0x3cf843c0	0.030305743
41	0xbdd19d5c	-0.10235092
42	0x3e4570d7	0.19281326
43	0xbee75230	-0.45179892
44	0xbe0e0961	-0.13870765
45	0x3d010941	0.031502966
46	0x3e9d27da	0.30694467
47	0x3c55f80c	0.013059627
48	0xbd7464d4	-0.05966647
49	0x3e1e75c4	0.15474612
50	0x3d87cf3b	0.06631323
51	0xbe258e93	-0.16167669
52	0x3e4c5c63	0.19957118
53	0x3da884f7	0.08228486
54	0xbe849a3f	-0.2589893
55	0x3d75f3f8	0.06004712
56	0xbe7ed723	-0.24886756
57	0x3ea7c1e6	0.3276512
58	0xbe61211b	-0.21985285
59	0xbd84894f	-0.06471502
60	0xbe4d8c27	-0.20072995
61	0x3c6da46d	0.014504534
62	0x3e8ce3d7	0.27517578
63	0xbdf26b0d	-0.118368246
64	0x3dc22d8a	0.09481342
65	0xbd7ee36f	-0.062228616
66	0xbdf8f365	-0.12155799
67	0xbba97637	-0.005171563
68	0x3ed18bfb	0.4092711
69	0xbeeef13f	-0.4666843
70	0xbe1534d2	-0.1457093
71	0x3e815803	0.2526246
72	0xbe1058c2	-0.14096358
73	0x3da5e0bd	0.08099506
74	0x3e084d06	0.13310632
75	0x3d5a3d11	0.053280894
76	0x3a2cf89c	0.0006598325
77	0xbe394c14	-0.18095428
78	0xbe06f7ea	-0.13180509
79	0xbd9efd34	-0.077631384
80	0x3c928d84	0.017889746
81	0xbd84e0ea	-0.064882115
82	0xbdcdaf9b	-0.1004326
83	0xbe1e1062	-0.15435937
84	0x3e9a2061	0.30102828
85	0x3d109051	0.03529388
86	0x3daf4b05	0.08559231
87	0x3e0a1407	0.13484202
88	0x3d4065a9	0.04697195
89	0x3e2d071a	0.1689724
90	0x3d9e5ffa	0.0773315
91	0xbda98508	-0.08277327
92	0x3d3a73ef	0.04552072
93	0xbe948b08	-0.29012322
94	0xbe311b0f	-0.17295478
95	0x3e9dbfa5	0.30810276
96	0x3e9d4ef7	0.30724308
97	0xbe4a05b4	-0.19728738
98	0xbdea1e6c	-0.11431584
99	0x3dfe3f45	0.124144115
100	0xbebfd1b7	-0.37464687
101	0xbd51fcf1	-0.051266614
102	0xbeaa708a	-0.33288985
103	0xbe01a51d	-0.12660642
104	0xbe2981f2	-0.16553476
105	0xbd19679b	-0.03745232
106	0xbd40a4ee	-0.04703229
107	0xbe1b3e35	-0.15160449
108	0x3e430751	0.1904576
109	0xbdecaad6	-0.11556022
110	0xbe92c682	-0.28667074
111	0x3dde6410	0.10858929
112	0x3e5f298f	0.21793197
113	0xbd47b74c	-0.04875879
114	0x3b1cd0fd	0.0023928278
115	0x3d1bf0ab	0.038071316
116	0xbd80d636	-0.062908575
117	0xbda73582	-0.08164503
118	0xbea7eae6	-0.327964
119	0x3df56ffc	0.1198425
120	0xbd12abe9	-0.035808478
121	0x3e1dfde8	0.15428889
122	0xbd919670	-0.07108772
123	0xbdd5a54c	-0.104319185
124	0xbe1c635a	-0.15272275
125	0x3d29deb9	0.04147217
126	0x3e0ab4c9	0.13545527
127	0x3e75608e	0.23962614

spectral_embed.linear.bias f4 [64]
0	0x3bf0733a	0.007337955
1	0x3c9f091b	0.019413522
2	0xbabef72f	-0.0014569516
3	0xbc121b6f	-0.0089176735
4	0xbc02f745	-0.007993524
5	0x3bdc85c4	0.0067298133
6	0xbc56e78c	-0.0131167285
7	0xbb8450af	-0.0040379385
8	0x3c8a5121	0.016884388
9	0xbbe4373e	-0.006964593
10	0xbbab0aac	-0.005219778
11	0xbc7c2695	-0.015390058
12	0x3c20ea50	0.009821489
13	0x3ccc41cc	0.024933718
14	0xbab7b808	-0.0014016638
15	0xbab545bb	-0.0013829985
16	0xbc0f36e0	-0.008741111
17	0x3c923efb	0.017852297
18	0xbbf1fc2e	-0.0073847985
19	0xbcd2f3ce	-0.02575102
20	0x3ccee74c	0.025256775
21	0x3b3ccc4a	0.002880829
22	0xbd9569b9	-0.072955556
23	0x3c04e304	0.008110765
24	0xbc1b45bc	-0.009477075
25	0x3cc7021a	0.024292994
26	0xbc69e2b5	-0.014275243
27	0x3b86a5e8	0.004109133
28	0x3b15fdbe	0.0022886838
29	0xbb830827	-0.0039987746
30	0x3c5271ab	0.012844483
31	0xbc4de30e	-0.012566341
32	0x3bb822b2	0.0056193704
33	0x3bd7ad0c	0.006581908
34	0x3c7efabb	0.0155627085
35	0xba8c39ca	-0.0010698375
36	0xbca2a756	-0.019855183
37	0xb89c74ef	-7.46044e-05
38	0xbcf95cc3	-0.03043974
39	0x3b99affa	0.0046901675
40	0x3cc9271a	0.024554778
41	0x3b28b433	0.0025742173
42	0xbc179b58	-0.009253345
43	0x3d02f4c6	0.031971715
44	0xba183cc9	-0.00058073975
45	0x3c467fc8	0.012115426
46	0xbc508d62	-0.012729021
47	0xbc8b27b5	-0.016986707
48	0x3c7a2d3a	0.015269572
49	0x3c087041	0.008327545
50	0xbb2d01ad	-0.0026398704
51	0x3b9197e8	0.0044431575
52	0x3c5d4fb8	0.013507776
53	0xbc15c986	-0.009142285
54	0xbc9351e0	-0.017983377
55	0x3c85c238	0.016327962
56	0xbb927158	-0.004469078
57	0xbb00c850	-0.0019650646
58	0x3cbee05a	0.023300339
59	0x39306330	0.00016821618
60	0xba34de8d	-0.0006899618
61	0x3b603e6b	0.0034216892
62	0x3c097355	0.008389314
63	0xbc035f0e	-0.008018268

layers.0.attention.attention.in_proj_weight f4 [192, 64]
0	0x3d93238d	0.07184515
1	0x3c13353d	0.008984861
2	0xbd8ffc54	-0.0703055
3	0xbe08cc13	-0.13359098
4	0x3dbd47bf	0.092422
5	0x3df2241b	0.11823293
6	0xbda3266a	-0.07966311
7	0xbe448d90	-0.19194627
8	0xbd8df324	-0.06931141
9	0xbc872a06	-0.01649953
10	0x3dfa4026	0.122192666
11	0x3da00c7f	0.078148834
12	0x3c211fdb	0.009834255
13	0xbd81fa90	-0.06346619
14	0x3d6450e5	0.05574121
15	0x3cebf68f	0.028804092
16	0xbdd330e6	-0.10312061
17	0xbd81728f	-0.063206784
18	0xbcd9c08b	-0.02658107
19	0xbc92ea36	-0.017933946
20	0xbe2b6524	-0.16737801
21	0x3baa91ad	0.005205354
22	0xbde2083d	-0.110367276
23	0x3e144aed	0.14481707
24	0x3e03fea3	0.12890105
25	0xbe12a8db	-0.14322226
26	0xbc94642e	-0.018114176
27	0xbe1174f6	-0.14204773
28	0x3d75a240	0.059969187
29	0xbd44b9b2	-0.048028655
30	0xbe13fa8d	-0.14451046
31	0x3dc1cdde	0.09463094
32	0x3d666811	0.05625159
33	0xbe8717b0	-0.2638526
34	0xbcbc180a	-0.022960681
35	0xbd2d39bd	-0.04229139
36	0xbc869774	-0.01642964
37	0x3e348873	0.17630176
38	0xbcc2b7c8	-0.023769274
39	0xbe15e2ba	-0.1463727
40	0x3dab17d1	0.08354152
41	0xbe34ac18	-0.17643774
42	0x3cfb92b8	0.03070961
43	0x3d8c4fce	0.06851159
44	0x3e2e8d5d	0.17046113
45	0x3e0843a8	0.13307059
46	0xbd7aee11	-0.061262194
47	0x3d936406	0.07196812
48	0xbe148171	-0.14502503
49	0xbc38cb57	-0.011278949
50	0xbe4dec25	-0.20109613
51	0xbc9d6737	-0.019214256
52	0xbe1f9387	-0.15583621
53	0xba40586d	-0.0007337395
54	0x3da2aa1b	0.07942601
55	0x3db80fcd	0.08987389
56	0xbc7e6a83	-0.015528324
57	0x3e25789b	0.16159289
58	0xbe2d89a0	-0.16947031
59	0xbd1fc34c	-0.03900461
60	0x3db536a0	0.088483095
61	0x3c314601	0.010819913
62	0x3d2c9924	0.042138234
63	0xbd80fac4	-0.0629783
64	0x3d8147b3	0.06312504
65	0xbe442385	-0.19154175
66	0xbde0cfba	-0.10977121
67	0xbb5ec827	-0.0033993812
68	0xbe07c6cf	-0.13259433
69	0xbe1618ec	-0.14657944
70	0xbd82b98c	-0.063830465
71	0x3e082864	0.13296658
72	0x3c7db69a	0.01548543
73	0xbcf30164	-0.029663749
74	0x3b0012f0	0.0019542538
75	0xbde0b542	-0.10972072
76	0xbe23320f	-0.15937065
77	0xbe111e20	-0.14171648
78	0xbdf59aa1	-0.11992384
79	0x3dd68718	0.10474986
80	0xbd222bf1	-0.039592687
81	0xbd970cbc	-0.07375476
82	0xbdd1d6ba	-0.10246034
83	0x3d861dec	0.06548676
84	0xbd7b3e94	-0.061338976
85	0xbddc1214	-0.10745636
86	0x3e1c7f4e	0.15282938
87	0x3d83ed3f	0.064417355
88	0xbdb5989f	-0.08867001
89	0x3d881bd2	0.06645931
90	0x3cf1c40e	0.029512431
91	0xba812671	-0.0009853375
92	0x3d884eec	0.06655678
93	0x3a6fda56	0.0009149661
94	0x3da66ff9	0.08126826
95	0x3dd4695b	0.103716575
96	0xbe052973	-0.13004093
97	0xbe10939f	-0.14118813
98	0xbe1fc639	-0.1560296
99	0x3d4b559b	0.049642187
100	0xbd990028	-0.07470733
101	0xbdda9f82	-0.10674955
102	0xbd83290b	-0.06404313
103	0xbe2f22ec	-0.17103165
104	0xbe347e10	-0.17626214
105	0x3e0785c8	0.13234627
106	0x3deac8a3	0.1146405
107	0x3dbd4d01	0.09243203
108	0xbd9645cc	-0.073375314
109	0xbdb8e674	-0.090283304
110	0xbd3666b5	-0.044531543
111	0x3c4cba31	0.012495563
112	0xbdf6964a	-0.12040384
113	0x3c8ad82b	0.01694878
114	0xbdaff64a	-0.08591898
115	0x3b713afe	0.0036808844
116	0x3dc56299	0.09637947
117	0x3d1c914e	0.03822451
118	0x3e04066c	0.12893075
119	0xbe14b7d9	-0.14523257
120	0xbce7e0ea	-0.02830549
121	0xbd84259c	-0.06452486
122	0xbd80b2ee	-0.06284128
123	0xbd752a7a	-0.059854962
124	0xbd8a918f	-0.06766044
125	0xbe1faeec	-0.15594071
126	0xbda35770	-0.07975662
127	0x3d0a8661	0.03381956
128	0xbdf79187	-0.12088304
129	0xbdd0ef54	-0.10201898
130	0x3e4c7281	0.19965555
131	0x3e046439	0.12928857
132	0xbddcc889	-0.107804365
133	0xbafa8d04	-0.0019115512
134	0x3dfd48e7	0.12367421
135	0xbd31fdb7	-0.043454852
136	0xbe30bc8c	-0.17259425
137	0x3d0900a2	0.03344787
138	0xbe05e400	-0.13075256
139	0x3a444a4f	0.00074878795
140	0xbd8f06bd	-0.06983707
141	0x3cfc147c	0.030771486
142	0x3e1f2556	0.15541586
143	0xbd310e1c	-0.043226346
144	0xbd0e04da	-0.034672596
145	0xbe10da5e	-0.141458
146	0xbd88cbb9	-0.06679482
147	0x3da473a7	0.080298714
148	0xbe0d2a9e	-0.13785788
149	0xbbd5342a	-0.0065064626
150	0x3dfd16d3	0.12357869
151	0xbe19442c	-0.14967412
152	0xbd81b6a9	-0.06333668
153	0xbd0a5791	-0.033774916
154	0xbdca35f4	-0.09873572
155	0x3d466a3b	0.048441153
156	0xbe1ba7d3	-0.15200739
157	0x3e20b125	0.15692575
158	0x3c25a778	0.010110728
159	0xbcbcae28	-0.023032263
160	0xbc9be5d5	-0.01903049
161	0x3e462cb2	0.19352987
162	0xbdca4c56	-0.09877841
163	0xbe1c33b7	-0.15254103
164	0xbdd2744d	-0.10276089
165	0xbe421dc6	-0.1895667
166	0xbd65e2d6	-0.05612453
167	0x3e13c97b	0.14432327
168	0xbde99a1e	-0.11406349
169	0xbd82dec6	-0.06390147
170	0xbe3d8e3d	-0.18511291
171	0xbdd450d2	-0.10366978
172	0xbcf5fa4e	-0.030026581
173	0xbdc0036d	-0.093756534
174	0x3cbf4770	0.023349494
175	0x3d438622	0.04773534
176	0xbd00c838	-0.031440943
177	0x3d61df9f	0.055144902
178	0x3e44e177	0.19226633
179	0x3e44d569	0.19222035
180	0x3cddcc7f	0.02707505
181	0x3e2bc48f	0.167742
182	0x3df41a64	0.11919096
183	0x3dba7633	0.09104576
184	0x3d8b5424	0.06803158
185	0xbde452fd	-0.11148641
186	0xbdc6db16	-0.09709756
187	0x3d8aebf6	0.06783287
188	0x3d2cefe1	0.042220954
189	0x3e1eeb91	0.15519549
190	0x3ac16e6f	0.0014757643
191	0xbd5077dd	-0.05089556
192	0x3e1970f4	0.14984494
193	0xbce1c9ea	-0.0275621
194	0x3dc44091	0.095826276
195	0xbd8bc1d7	-0.068240814
196	0xbd369916	-0.044579588
197	0x3b27272c	0.0025505526
198	0x3d95a45e	0.07306741
199	0xbe459104	-0.192936
200	0xbd1ed309	-0.038775478
201	0x3e2a03e8	0.16603053
202	0x3dd116c2	0.10209419
203	0x3e0a2657	0.13491188
204	0xbd98feba	-0.0747046
205	0xbdc4b77b	-0.096053086
206	0xbe160799	-0.14651336
207	0xbdc7ad87	-0.097498946
208	0xbdd713a3	-0.10501792
209	0x3d9ac0a4	0.075562745
210	0x3d9074af	0.07053506
211	0xbdaf2247	-0.0855146
212	0x3e0a79ce	0.13523027
213	0x3d67f2a4	0.056627885
214	0x3d3ef390	0.046618998
215	0xbba03717	-0.0048893797
216	0x3dd40f91	0.103545316
217	0xbdde061f	-0.10841011
218	0x3e0fbb1e	0.14036223
219	0xbdf25481	-0.11832524
220	0x3d4c90bf	0.049942728
221	0xbdcae606	-0.09907155
222	0x3d65ad6d	0.056073595
223	0xbdda67fb	-0.10664364
224	0xbc9ccb2d	-0.01913985
225	0xbe000c57	-0.12504707
226	0xbd92b1a4	-0.071627885
227	0xbda8c14a	-0.08239992
228	0xbd51b823	-0.051200997
229	0x3d8ee241	0.06976748
230	0x3de68b96	0.11257093
231	0xbd113cae	-0.03545826
232	0x3e12debf	0.14342783
233	0xbda06d43	-0.0783334
234	0xbd33676f	-0.043799814
235	0x3a5430d4	0.0008094434
236	0xbcc5f2ee	-0.02416369
237	0x3d5a5c2d	0.053310562
238	0x3e16c0c8	0.14721978
239	0x3d2bc001	0.041931156
240	0xbde36137	-0.11102527
241	0xbd78e3a1	-0.06076396
242	0xbdddb03b	-0.10824629
243	0xbe29cf99	-0.16583098
244	0x3cbcb000	0.023033142
245	0x3e03b957	0.1286367
246	0x3db54760	0.08851504
247	0xbcb8ba8b	-0.022549888
248	0x3c1c30c4	0.009533111
249	0xbd84725d	-0.064671256
250	0xbcae76b4	-0.021296836
251	0x3df1a31c	0.11798689
252	0xbd9a57d1	-0.07536281
253	0x3cbf04c0	0.023317695
254	0xbe1130b2	-0.14178732
255	0xbd0f0e9c	-0.034926042

layers.0.attention.attention.in_proj_bias f4 [192]
0	0x3d03e9f6	0.032205544
1	0x3c4d59a9	0.012533584
2	0xbc83c340	-0.016084313
3	0x3cde828f	0.027161865
4	0xbc7752f1	-0.015095458
5	0x3b69ec52	0.0035693836
6	0xbc8894ad	-0.016672457
7	0x3c022c88	0.007945187
8	0xbcaf3bdd	-0.02139085
9	0x3d0e2a70	0.03470844
10	0x3d327a34	0.043573573
11	0x3c569466	0.013096904
12	0x3de80551	0.11329139
13	0x3c1818b7	0.009283236
14	0xbd8d9e25	-0.06914929
15	0xbd7f0b51	-0.06226665
16	0xbda61c62	-0.08110882
17	0xbcfe9e88	-0.031081453
18	0xbd9bb510	-0.07602894
19	0x3ca0d927	0.019634796
20	0xbd647b08	-0.055781394
21	0xbd9abf7e	-0.075560555
22	0x3d72ad6f	0.05924743
23	0x3e1458c6	0.1448699
24	0xbc15407a	-0.009109611
25	0xbc155ec4	-0.009116832
26	0xbd5dff3e	-0.054198496
27	0xbc24ce01	-0.010058881
28	0xbcd567d6	-0.02605049
29	0xbd1549d4	-0.03644736
30	0x3b27998b	0.0025573696
31	0xbccc3e87	-0.02493216
32	0x3c937e0b	0.018004438
33	0x3d2662ec	0.040621683
34	0x3a0ee090	0.00054503325
35	0x3becbef5	0.0072249123
36	0x3d424958	0.047433227
37	0x3e121cba	0.14268771
38	0xbd1312bf	-0.03590655
39	0xba427617	-0.00074181095
40	0xbc920d9f	-0.01782876
41	0xbcfb30b5	-0.030662874
42	0x3d97568e	0.07389556
43	0xbcc9a4d5	-0.02461473
44	0xbd70c0da	-0.058777668
45	0xbdabb62b	-0.08384355
46	0x3d131a0b	0.03591351
47	0xbdb5ccb7	-0.08876937
48	0x3cc4b9fe	0.02401447
49	0x3d0c2444	0.034214273
50	0xbcd73b4e	-0.026273396
51	0xbd75147a	-0.05983398
52	0x3d0db77b	0.03459881
53	0x3d0a154f	0.033711728
54	0x3cfdfc0d	0.031003976
55	0xbce33fed	-0.027740443
56	0x3d315fe6	0.043304347
57	0x3d9de005	0.07708744
58	0x3d19c72d	0.037543464
59	0x3d67cea8	0.056593567
60	0xbe5e6fd4	-0.21722347
61	0xbe2d26a0	-0.16909266
62	0xbe0d94e8	-0.13826334
63	0xbdd5eaa4	-0.10445145
64	0xba81d2b4	-0.0009904713
65	0xba6e9659	-0.0009101383
66	0x3921761f	0.0001539816
67	0x38e09ea7	0.00010710704
68	0xba259ad2	-0.00063173205
69	0xba4ac09f	-0.0007734391
70	0xba8f2d9b	-0.0010923626
71	0x390e7f26	0.00013589542
72	0x3b36f519	0.0027917086
73	0x3bfd1c34	0.0077243093
74	0x3ad420e4	0.0016184119
75	0xbb464b06	-0.003025712
76	0x3ba08ddb	0.004899723
77	0x3bcf5c84	0.0063281674
78	0xbae626a9	-0.0017559129
79	0xbb8c7563	-0.0042864545
80	0xba4672bc	-0.00075701973
81	0x36063fc1	2.0004666e-06
82	0xb9842858	-0.0002520706
83	0xb815a0eb	-3.5674235e-05
84	0x38b7de25	8.767498e-05
85	0xb93e05a1	-0.00018121909
86	0x3915362f	0.00014229932
87	0xb898e595	-7.290688e-05
88	0x38aa5ac6	8.1231396e-05
89	0x39529ac3	0.00020084814
90	0x39f07446	0.00045862998
91	0x3854947a	5.068302e-05
92	0x383793eb	4.376836e-05
93	0xb7df52d8	-2.6622249e-05
94	0x38d5ad64	0.00010188928
95	0x3999ba9b	0.00029321466
96	0x37b85f9c	2.197903e-05
97	0xb9a16c02	-0.00030788785
98	0xb8e2333a	-0.000107860615
99	0xb874c205	-5.8354828e-05
100	0xb79f8257	-1.9014971e-05
101	0x398ba080	0.00026631728
102	0x39aaf0fb	0.0003260447
103	0x383d6f59	4.5164812e-05
104	0x3791153e	1.7295239e-05
105	0xb8922d73	-6.970288e-05
106	0xb899f330	-7.340906e-05
107	0xb997f389	-0.00028982412
108	0x38a9770f	8.0807244e-05
109	0x396744ac	0.00022055459
110	0x39e6c130	0.00044012954
111	0x38e034b6	0.000106909705
112	0xb8268f49	-3.971093e-05
113	0x382cd9b1	4.1210737e-05
114	0x3940ea11	0.00018397743
115	0x3a07ee11	0.0005185316
116	0x3913e314	0.00014103606
117	0xb8be8b09	-9.085803e-05
118	0x38ff43e6	0.000121719946
119	0x3932c5fc	0.00017049158
120	0xb88b94d1	-6.655756e-05
121	0xb9c19a5d	-0.00036926838
122	0xb813eee9	-3.5270034e-05
123	0xb96f81d8	-0.00022841187
124	0x391aa301	0.00014747308
125	0x39985cf7	0.00029060963
126	0xb9b35400	-0.00034204125
127	0x3992ac17	0.00027975507
128	0xbca39a91	-0.019971164
129	0xbda593b7	-0.08084815
130	0x3d31fb07	0.04345229
131	0xbc92ea5d	-0.017934019
132	0xbd63bfd7	-0.055602875
133	0xbd631abf	-0.05544543
134	0xbd38ace6	-0.045086764
135	0x3d754bfc	0.059886917
136	0xbd0c3f86	-0.03424027
137	0xbdbb49d4	-0.09144941
138	0x3da9ccdd	0.08291028
139	0x3d4ca3b4	0.049960807
140	0x3e10f984	0.14157683
141	0xbd867920	-0.065660715
142	0xbd7031ed	-0.058641363
143	0x3b9d72c4	0.004804941
144	0xbcbf710f	-0.02336934
145	0xbcf8d315	-0.03037409
146	0x3b18ed42	0.0023334776
147	0x3c34cb9c	0.011034872
148	0xbc8d16b8	-0.017222747
149	0xbc6fc924	-0.014635358
150	0xbd2ec09f	-0.042664167
151	0x3d742362	0.059604056
152	0xbd545f3a	-0.051848628
153	0xbc49564c	-0.012288641
154	0x3c26160b	0.010137091
155	0x3c060ee7	0.008182264
156	0xbc85c1fb	-0.016327849
157	0x3caeff1c	0.02136188
158	0x3c9bc8b7	0.019016607
159	0xbba9f51e	-0.005186691
160	0xbcbac189	-0.022797363
161	0x3c4076c0	0.011747062
162	0x3c431339	0.0119064385
163	0x3c2f7d34	0.010711003
164	0x3aec8b2c	0.0018046848
165	0xbbf62a1b	-0.0075123436
166	0xbabf5ea9	-0.0014600354
167	0xbb6f6d1c	-0.003653354
168	0x3a270ca5	0.00063724286
169	0xbd1c3146	-0.03813293
170	0xbd11e841	-0.035621885
171	0xbc144ae0	-0.009051055
172	0xbc9a4eaf	-0.018836347
173	0x3a9bf26d	0.001189781
174	0x3cd92474	0.02650664
175	0x3d31005f	0.043213245
176	0xbd4c3555	-0.04985555
177	0x3d1ced03	0.03831197
178	0x3ceb6a81	0.028737308
179	0x3d978477	0.073983125
180	0x3c1857d5	0.009298285
181	0x3cd21904	0.025646694
182	0x3d091ad8	0.033472866
183	0x398a08f6	0.00026328088
184	0x3c47007e	0.012146113
185	0xbcfa5a97	-0.030560775
186	0xbc23662d	-0.009973091
187	0xbd01bcd7	-0.031674232
188	0xbc5f5d79	-0.013633125
189	0xbc06ffc4	-0.00823969
190	0xbc36dcdb	-0.0111610545
191	0x3d30d072	0.04316754

layers.0.attention.attention.out_proj.weight f4 [64, 64]
0	0x3dd4949e	0.10379909
1	0x3e6706ff	0.22561263
2	0xbe43ba0a	-0.19113937
3	0x3dbd9a2e	0.09257923
4	0x3e35bff9	0.17749013
5	0x3d08d8f1	0.033410016
6	0x3d29c8ad	0.041451145
7	0x3e7c7b3a	0.24656382
8	0xbd192f37	-0.037398543
9	0x3dc0c816	0.09413163
10	0x3dd86578	0.10566229
11	0xbd4f09f7	-0.050546613
12	0xbdee4502	-0.11634256
13	0x3d893396	0.06699292
14	0x3e6b1f89	0.22961248
15	0x3d9d39aa	0.07677014
16	0x3c90d67b	0.017680397
17	0xbcd02a81	-0.025410892
18	0x3e1e0e60	0.15435171
19	0x3e2ac7c5	0.16677769
20	0x3ba8c5cd	0.005150533
21	0x3d529e93	0.05142076
22	0xbe0d36b3	-0.13790397
23	0x3dfe1576	0.12406437
24	0xbe6d10d6	-0.23150954
25	0xbca3ab8f	-0.019979266
26	0x3e1b4536	0.1516312
27	0xbe2d3271	-0.16913773
28	0x3d7f0ad5	0.06226619
29	0xbbda5866	-0.00666337
30	0xbe155d2f	-0.14586328
31	0x3da6169c	0.08109781
32	0x3cc6aa30	0.024251074
33	0xbdbff2d6	-0.09372489
34	0x3e03e2fe	0.1287956
35	0x3d3dd518	0.0463458
36	0xbe45d170	-0.19318175
37	0xbcc8eef1	-0.024527999
38	0xbd9adfb8	-0.07562202
39	0xbdea6f52	-0.11447014
40	0x3e0ef4cb	0.13960569
41	0xbaa3daa7	-0.0012501077
42	0x3d88662f	0.06660115
43	0x3c83e3d4	0.016099848
44	0xbae8dff7	-0.0017766942
45	0xbe72469e	-0.23659751
46	0x3c9b1b9a	0.01893406
47	0xbdc235a6	-0.09482889
48	0x3dff2c58	0.1245963
49	0xbb9d9f18	-0.004810225
50	0xbe59bc30	-0.21263194
51	0xbe123777	-0.1427897
52	0xbe42df38	-0.19030464
53	0x3cf58d5e	0.029974636
54	0x3dba25ba	0.09089227
55	0x3d4ec437	0.050480094
56	0x3e2448d5	0.16043408
57	0x3e1154f7	0.14192568
58	0x3dffc972	0.124895945
59	0x3e3adcb9	0.18248262
60	0xbdc163b8	-0.09442848
61	0xbded5667	-0.115887456
62	0xbdba91ec	-0.09109864
63	0xbe9bf718	-0.30461955
64	0x3e2761bf	0.16345881
65	0x3d936a6d	0.071980335
66	0xbddf61b0	-0.10907304
67	0xbb8e1167	-0.0043355706
68	0x3e907632	0.28215176
69	0x3e2dcf66	0.16973647
70	0x3e13b19c	0.14423221
71	0xbdeb37cb	-0.11485251
72	0xbdedb12c	-0.116060585
73	0xbdd2bfb6	-0.10290472
74	0xbddd6b4f	-0.10811483
75	0x3e0f4872	0.1399248
76	0xbe27b2df	-0.16376828
77	0x3dcce763	0.10005071
78	0x3dbbeada	0.09175654
79	0x3e65ebad	0.22453184
80	0x3e5f9ac9	0.2183639
81	0xbe3c4649	-0.18386187
82	0xbe057715	-0.13033707
83	0x3e49ff23	0.19726233
84	0xbdafc7e9	-0.08583052
85	0xbd98a522	-0.074533716
86	0x3e239bc5	0.1597739
87	0x3d9423fd	0.07233427
88	0xbdc250fc	-0.09488103
89	0xbde86ad9	-0.113485046
90	0xbcb69591	-0.022288116
91	0x3dbd91c0	0.09256315
92	0x3d956ca2	0.07296111
93	0xbdf85a02	-0.12126543
94	0x3d31f2cf	0.04344445
95	0x3ddcb87f	0.10777377
96	0xbe0edd8b	-0.139517
97	0x3cc764e0	0.024340093
98	0xbe7e7de8	-0.24852717
99	0xbdb74ba3	-0.089499734
100	0xbea54662	-0.3228026
101	0x3e50c9f0	0.20389533
102	0xbd7d02b6	-0.061770163
103	0xbd67f832	-0.056633182
104	0x3bfc701b	0.0077037937
105	0xbd9f8c97	-0.07790487
106	0xbe0c5289	-0.1370336
107	0xbd9dc694	-0.077038914
108	0x3c8f6740	0.017505288
109	0xbe164342	-0.14674094
110	0xbe4ea195	-0.20178826
111	0x3d00b655	0.031423885
112	0x3e080d72	0.13286379
113	0xbcc44a60	-0.023961246
114	0x3e1ad14e	0.15118906
115	0x3e03a668	0.12856448
116	0xbe0f6d90	-0.14006639
117	0x3da47181	0.08029462
118	0xbe1455cd	-0.14485855
119	0x3e69cbc4	0.22831637
120	0x3d964953	0.07338204
121	0x3e0ed8c5	0.13949879
122	0xbd865a4c	-0.065601915
123	0x3ba6289e	0.00507076
124	0xbdfb1995	-0.12260739
125	0x3e7a947f	0.2447071
126	0xbe042b75	-0.12907203
127	0xbe31531d	-0.17316861
128	0xbdcf6668	-0.10126954
129	0xbe670376	-0.22559914
130	0xbd5220f2	-0.05130095
131	0x3e2dda72	0.16977862
132	0x3dba98ba	0.091111615
133	0x3c9fdfec	0.019515954
134	0xbdf98076	-0.12182705
135	0x3dae6950	0.085161805
136	0xbd0099bf	-0.031396624
137	0xbe256074	-0.16150075
138	0x3df648d7	0.12025612
139	0x3e00527d	0.12531467
140	0x3e1dac71	0.15397812
141	0xbe424abb	-0.1897382
142	0x3cf3b7be	0.029750701
143	0x3e161404	0.14656073
144	0xbda93a13	-0.0826303
145	0x3e16a413	0.14711027
146	0x3d9ba33b	0.07599493
147	0xbe07ee4c	-0.13274497
148	0x3dddfd35	0.10839311
149	0x38b6b3db	8.711937e-05
150	0x3a983756	0.0011613171
151	0x3d56e71c	0.052466497
152	0x3df5f1d5	0.120090164
153	0x3da6cc7f	0.08144473
154	0x3e1af9bb	0.15134327
155	0xbe426f52	-0.18987778
156	0xbd23111e	-0.039811246
157	0xbcee1b89	-0.029065864
158	0x3dba89fa	0.09108348
159	0x3de56585	0.11201004
160	0xbdacba12	-0.084339276
161	0xbd00c391	-0.031436507
162	0xbd83b622	-0.064312235
163	0xbd89e09a	-0.067322925
164	0x3e05d4ae	0.13069412
165	0x3e1f5354	0.15559131
166	0x3e140322	0.1445432
167	0xbc1f27c4	-0.009714071
168	0x3cee505c	0.029091053
169	0xbe2fcd9c	-0.17168278
170	0x3da3f7b3	0.08006229
171	0xbe27df58	-0.16393793
172	0xbdc5bf1d	-0.096555926
173	0xbda08213	-0.0783731
174	0x3c2f7a03	0.010710242
175	0x3de4a24a	0.11163767
176	0xbe70ba30	-0.23508525
177	0x3e221f78	0.15832317
178	0x3d142f7f	0.03617811
179	0x3e0068e4	0.12540013
180	0xbe3013e5	-0.17195089
181	0x3ce1f42e	0.027582254
182	0x3e668608	0.22512066
183	0x3e28ff1d	0.16503568
184	0xbdf5c81d	-0.12001059
185	0x3c93acb4	0.018026687
186	0xbde538a0	-0.11192441
187	0x3dad8696	0.08472936
188	0x3dc4185e	0.0957496
189	0x3daf13ca	0.08548696
190	0xbe179e85	-0.14806564
191	0x3d0b5f84	0.034026638
192	0x3da06e24	0.07833508
193	0xbe67b205	-0.22626503
194	0xbdc98949	-0.09840638
195	0x3e0648a0	0.13113642
196	0xbe321a78	-0.1739291
197	0x3e236b52	0.15958908
198	0x3e8b0911	0.27155355
199	0xbe2c82a2	-0.16846707
200	0xbe56d741	-0.2098055
201	0xbe3ac93a	-0.18240824
202	0x3ce2e520	0.027697146
203	0xbe1c2995	-0.15250237
204	0x3e3432ac	0.17597455
205	0x3e2d3a71	0.16916825
206	0xbdb101d3	-0.08642926
207	0x3d4068bb	0.04697488
208	0x3e33f9a0	0.17575693
209	0x3e0232cd	0.12714691
210	0xbe21ba29	-0.1579367
211	0xbcf9a283	-0.030473
212	0x3dd20c07	0.102562
213	0xbc9fffbd	-0.019531125
214	0x3dd7cdd5	0.10537306
215	0xbc8c3845	-0.017116675
216	0xbdf68703	-0.1203747
217	0x3d0a5ccd	0.033779908
218	0xbde3be60	-0.111202955
219	0xbe076e6a	-0.13225713
220	0x3e8648df	0.2622747
221	0xbcd6a2bc	-0.026200645
222	0xbdb3bd3a	-0.087763265
223	0x3e0be231	0.13660504
224	0x3d517641	0.051138166
225	0xbe89c4ee	-0.26908058
226	0xbe2889c0	-0.16458797
227	0x3cafdc10	0.021467239
228	0xbe2f5fae	-0.17126343
229	0xbddb5851	-0.107102044
230	0x3d9b670e	0.075880155
231	0x3e12bc3e	0.14329621
232	0xbe382ef5	-0.17986663
233	0x3e5b0bc1	0.21391203
234	0x3dddcffe	0.10830687
235	0x3e44bf32	0.1921356
236	0xbe240654	-0.16018039
237	0x3d5faeb6	0.054609977
238	0x3e0c3f85	0.13696106
239	0x3e0386a8	0.12844336
240	0xbd0af7b4	-0.033927634
241	0x3dbda260	0.09259486
242	0x3de3fbf4	0.111320406
243	0xbe5c2ba6	-0.21501026
244	0x3dda3b18	0.106558025
245	0xbdef6de5	-0.116908826
246	0x3e1192a0	0.14216089
247	0xbd9b6d27	-0.075891785
248	0xbe10c96d	-0.14139338
249	0x3e0a77fa	0.1352233
250	0xbe1ea29b	-0.15491717
251	0x3b0cfe53	0.0021513894
252	0x3d5a3bae	0.05327957
253	0x3e963c39	0.2934282
254	0x3dbff745	0.09373335
255	0x3e3c6a08	0.18399823

layers.0.attention.attention.out_proj.bias f4 [64]
0	0xb8804b9c	-6.117599e-05
1	0xbcdb4ce4	-0.026770063
2	0x3c59ee4c	0.013301443
3	0x3cf35a4c	0.029706143
4	0xbabb7817	-0.0014302757
5	0x3d83d75e	0.064375624
6	0xbc4dc765	-0.012559746
7	0xbc2f95bb	-0.010716851
8	0xbca70fa4	-0.0203932
9	0x3bb352ef	0.005472533
10	0x3b75105b	0.0037393782
11	0xbd42b10b	-0.047532123
12	0x3c117825	0.008878742
13	0xbb00843a	-0.0019610063
14	0x3d2c1195	0.042008955
15	0x3cc0d565	0.023539254
16	0x3d81b5b9	0.06333489
17	0x3b987a92	0.0046532834
18	0xbc85967f	-0.016307114
19	0x3c6ef8aa	0.014585653
20	0xbd786519	-0.06064329
21	0x3bc07179	0.005872902
22	0xbd2c7f8e	-0.042113833
23	0x3b2aef5f	0.0026082618
24	0xbb2b19a3	-0.002610781
25	0x3d1a8bf2	0.03773112
26	0xbc595173	-0.013264048
27	0x3d09dc29	0.033657227
28	0xbd182a3f	-0.037149664
29	0x3d1a6239	0.03769133
30	0x3d361e7c	0.044462666
31	0xbc6a9bb6	-0.014319351
32	0xbc8ebd84	-0.017424352
33	0x3d2cad48	0.04215744
34	0x3d0568df	0.032570716
35	0xbd857b2a	-0.06517632
36	0x3afdf127	0.0019374237
37	0x3cd2900a	0.025703449
38	0xbd1e8f11	-0.038710658
39	0x3c852a13	0.016255414
40	0x3d076e9f	0.03306448
41	0xbd05fccc	-0.03271179
42	0x3c507921	0.012724192
43	0x3c230ffb	0.0099525405
44	0xbbb36f15	-0.0054758885
45	0x3d1ed843	0.038780462
46	0xbcd403ab	-0.025880655
47	0x3c9e451f	0.019320069
48	0x3d226c51	0.03965408
49	0x3c73f238	0.014889292
50	0xbbf82acc	-0.007573461
51	0xbcad0967	-0.021122647
52	0xbc8aca8c	-0.016942285
53	0x3c85a2b2	0.01631293
54	0x3d45f5e7	0.048330214
55	0x3c73ea24	0.014887366
56	0x3c5948ea	0.013262013
57	0x3baebca2	0.0053325454
58	0x3b7031c3	0.0036650754
59	0x3a3001c0	0.0006714128
60	0xbd436ce2	-0.04771126
61	0x3ceced28	0.028921679
62	0x3c7884e6	0.015168404
63	0x3b5192cb	0.0031978365

layers.0.ff.linear1.weight f4 [64, 64]
0	0xbea2c8b4	-0.3179375
1	0xbc68a6e6	-0.014199948
2	0x3e0f77f7	0.14010607
3	0x3ec7d593	0.39030132
4	0x3f087744	0.53306985
5	0x3e0a67b7	0.13516127
6	0x3e28a338	0.16468513
7	0xbe0145c7	-0.12624274
8	0x3e6da6b5	0.23208125
9	0xbcb72511	-0.022356542
10	0x3e2924ec	0.16517991
11	0x3d0fff82	0.03515578
12	0xbe902bdd	-0.28158465
13	0xbee89a94	-0.45430434
14	0xbdf18d33	-0.1179451
15	0xbdcb2de3	-0.099208616
16	0x3e6633e7	0.22480737
17	0x3ee01890	0.4376874
18	0xbd418b9b	-0.04725228
19	0x3e96ced3	0.2945467
20	0xbd111f62	-0.03543032
21	0xbdda3f5b	-0.10656615
22	0xbe45aa9e	-0.19303367
23	0x3e445d22	0.19176152
24	0x3de57276	0.11203472
25	0x3e7c77d2	0.24655083
26	0x3c951cde	0.018202242
27	0xbe1efe39	-0.15526666
28	0xbe15b315	-0.14619096
29	0x3e3966c2	0.18105605
30	0xb7bbf99c	-2.240837e-05
31	0xbecbbfac	-0.39794672
32	0x3d5eb8c1	0.054375414
33	0x3e3c4119	0.18384208
34	0x3e831eba	0.2560938
35	0xbe9066a2	-0.28203303
36	0x3de6a0ca	0.11261137
37	0xbe518689	-0.20461477
38	0xbe1b626b	-0.15174262
39	0xbe6d2921	-0.2316022
40	0x3e0e5480	0.13899422
41	0xbe8de9b9	-0.2771738
42	0x3e962ec5	0.29332557
43	0x3e0f0410	0.13966393
44	0xbd9d14d7	-0.076699905
45	0x3e12a0bd	0.1431913
46	0xbd64f9d6	-0.055902325
47	0x3ec4eb9a	0.38461
48	0xbe15dab2	-0.14634207
49	0x3ef401e3	0.4765769
50	0xbe836384	-0.25661862
51	0xbe5e7729	-0.21725143
52	0x3db1be42	0.08678867
53	0x3beb81de	0.0071871122
54	0xbe6ed373	-0.23322849
55	0x3d1a310f	0.037644442
56	0xbe1d1684	-0.1534062
57	0xbf0b0eac	-0.5431926
58	0x3e77da20	0.24204302
59	0x3e8a4032	0.27002102
60	0xbe6fa01a	-0.23400918
61	0x3e99d3af	0.30044314
62	0xbe95a5fa	-0.29228193
63	0xbcc8e1c4	-0.024521716
64	0xbe42f651	-0.19039275
65	0xbd781436	-0.06056615
66	0x3e803fc1	0.2504864
67	0x3d56f2c1	0.052477602
68	0x3e0ebcf8	0.13939273
69	0x3d70d382	0.05879546
70	0x3ea535cb	0.32267603
71	0xbec06f1c	-0.3758477
72	0xbdcae710	-0.09907353
73	0xbdb25bb3	-0.087088965
74	0xbd10a52e	-0.035313778
75	0x3e8ba91c	0.27277458
76	0x3b96cd8a	0.004602139
77	0x3b2b83d6	0.002617111
78	0x3c261c78	0.010138623
79	0x3db6e7db	0.08930942
80	0xbe35e115	-0.17761643
81	0x3ec28f22	0.37999827
82	0xbe573145	-0.21014889
83	0x3ef297d7	0.4738147
84	0x3e047603	0.12935643
85	0xbe66b9cd	-0.22531815
86	0xbd97e93d	-0.074175335
87	0x3da90bac	0.08254179
88	0xbd51e5a2	-0.051244386
89	0xbcec0c63	-0.0288145
90	0x3db78d5b	0.08962508
91	0x3dd2be51	0.10290206
92	0x3e63b765	0.22237928
93	0xbe322021	-0.17395069
94	0xbe70e33e	-0.23524186
95	0xbe45895d	-0.19290681
96	0x3b76ba1c	0.003764755
97	0x3d8b5653	0.068035744
98	0xbe6c8cfd	-0.23100658
99	0x3d4dba60	0.05022657
100	0x3e73cd3f	0.23808764
101	0xbd8fd667	-0.07023316
102	0x3dce6f2c	0.10079798
103	0x3ded727f	0.11594104
104	0xbe532afb	-0.20621864
105	0x3cbfe3fe	0.023424145
106	0x3d661b67	0.056178477
107	0x3e633b21	0.22190525
108	0xbdcdba32	-0.100452796
109	0xbe89e3fe	-0.26931757
110	0x3cfd4d27	0.030920578
111	0xbdeb9470	-0.115029216
112	0x3da82b30	0.08211362
113	0x3e12be19	0.14330329
114	0x3dcb2a69	0.099201985
115	0x3dcd46d4	0.10023275
116	0x3e8c1f64	0.273677
117	0xbdec627d	-0.11542223
118	0x3dc88155	0.09790293
119	0x3e45be9a	0.1931099
120	0x3eacf32f	0.33779284
121	0x3de8b0a2	0.11361815
122	0xbb1aa8b6	-0.0023599095
123	0xbe6cc577	-0.23122202
124	0x3e900456	0.28128308
125	0x3e23ea9b	0.16007464
126	0xbe85100b	-0.25988802
127	0x3c241c0d	0.010016453
128	0x3d440fbc	0.047866568
129	0xbe13cffd	-0.1443481
130	0xbddbea69	-0.107380696
131	0xbe7a792b	-0.24460284
132	0xbdc6388d	-0.09678755
133	0xbdcc4fd9	-0.09976167
134	0xbe0281fd	-0.12744899
135	0x3d6b872a	0.05750195
136	0xbe255f66	-0.16149673
137	0x3e6fd38d	0.23420544
138	0xbc997fe8	-0.018737748
139	0xbdcb2762	-0.09919621
140	0xbdd98a1f	-0.10622048
141	0x3e8734ac	0.26407373
142	0xbe7b4610	-0.24538445
143	0x3def04ae	0.116708145
144	0x3d77dcd1	0.06051332
145	0xbe7c3660	-0.24630117
146	0x3b411fc0	0.0029468387
147	0xbe2d240b	-0.1690828
148	0xbc5dbcca	-0.01353378
149	0x3e1e778c	0.15475291
150	0xbdf1d5e7	-0.11808377
151	0x3dd5cb0b	0.10439118
152	0xbe7378cb	-0.23776548
153	0x3c5d4768	0.013505794
154	0x3ceaf370	0.028680533
155	0xbd6dc1b2	-0.05804605
156	0x3ce58bda	0.028020788
157	0x3dd533f4	0.104103
158	0x3ea643ad	0.32473508
159	0x3eaff202	0.34364325
160	0xbd5cca71	-0.053904
161	0xbd63a076	-0.05557295
162	0xbc9f8499	-0.019472407
163	0xbe6c0e91	-0.23052432
164	0xbb3be312	-0.002866928
165	0xbd63e261	-0.055635814
166	0xbe5a0acc	-0.21293181
167	0xbddb9b0f	-0.107229345
168	0x3ef46d04	0.47739422
169	0x3d6f6a98	0.058451265
170	0xbe14766c	-0.144983
171	0xba95aa4d	-0.0011418551
172	0xbc2290ef	-0.00992225
173	0x3e15ff8f	0.14648269
174	0xbe2f1c68	-0.1710068
175	0x3ea544ac	0.32278955
176	0xbe99826d	-0.2998232
177	0x3dde17e8	0.108444035
178	0xbe8185c0	-0.25297356
179	0x3dca2a50	0.09871352
180	0xbe8908b7	-0.2676446
181	0x3da02092	0.07818712
182	0xbe041146	-0.12897214
183	0x3e070b97	0.13188015
184	0x3db3196b	0.087450825
185	0x3e333d3c	0.17503828
186	0x3db4b661	0.088238485
187	0x3eae79aa	0.34077197
188	0x3e219900	0.15781021
189	0x3e2b792f	0.16745447
190	0x3e32e845	0.17471416
191	0xbe34928b	-0.17634027
192	0x3d055146	0.03254821
193	0xbe478849	-0.19485582
194	0x3b1fcbd9	0.0024382977
195	0x3d88bf7a	0.06677146
196	0x3d83d4b6	0.06437056
197	0xbeb8a441	-0.36062816
198	0xbe23a89f	-0.15982293
199	0x3e012ede	0.12615535
200	0xbe88b058	-0.2669704
201	0x3ea9a107	0.33130667
202	0x3d00a6ac	0.03140895
203	0x3c2ff3ab	0.010739247
204	0xbd940ddd	-0.07229207
205	0xbdf7ec21	-0.12105585
206	0xbdbb3bb0	-0.09142244
207	0xbd962d64	-0.07332876
208	0xbdc2a248	-0.09503609
209	0x3d0c9f28	0.03433147
210	0x3c8184bd	0.015810365
211	0xbd09d316	-0.033648573
212	0x3d7743c8	0.060367376
213	0x3e513d29	0.20433487
214	0xbd572079	-0.052521203
215	0xbe0c70cf	-0.13714908
216	0xbcd28dd1	-0.025702389
217	0x3e23e21a	0.1600422
218	0x3c16b477	0.0091983
219	0xbd5151f0	-0.051103532
220	0xbe42530c	-0.18976992
221	0xbe2b8620	-0.16750383
222	0xbe3f672d	-0.18691702
223	0xbdd09f11	-0.101865895
224	0xbe04b596	-0.12959895
225	0xbd6ecaa2	-0.058298714
226	0xbde593d6	-0.11209838
227	0xbd472081	-0.048614983
228	0x3da65c63	0.0812309
229	0x3c7ec427	0.015549696
230	0x3e4fde44	0.20299631
231	0x3dad3be5	0.084586896
232	0x3db984d5	0.09058539
233	0x3e20bbc6	0.1569663
234	0x3e929e60	0.28636456
235	0xbd647461	-0.05577505
236	0xbe1f3dfc	-0.15550989
237	0x3e0163ca	0.12635723
238	0x3e88048f	0.26565978
239	0x3bac1c7f	0.0052524204
240	0x3dab4900	0.08363533
241	0xbd0027d2	-0.031287976
242	0x3e10dbd6	0.14146361
243	0x3e0f99ef	0.14023565
244	0x3e65c9fe	0.22440335
245	0x3b672a51	0.0035273025
246	0xbe255a62	-0.1614776
247	0xbe4a60fd	-0.1976356
248	0x3d84e381	0.064887054
249	0xbd161ce4	-0.036648646
250	0xbeaf6a1e	-0.34260648
251	0x3e71827f	0.23584937
252	0xbc4764fa	-0.012170071
253	0xbe0efc39	-0.13963403
254	0x3e54b0ae	0.20770523
255	0x3e0adc37	0.13560568

layers.0.ff.linear1.bias f4 [64]
0	0xbe036f3d	-0.12835403
1	0xbde12996	-0.1099426
2	0xbca8ec96	-0.020620625
3	0xbd0f1f03	-0.034941684
4	0xbd54e89e	-0.051979654
5	0xbe81d099	-0.2535446
6	0xbe42187b	-0.18954651
7	0xbe1f0f06	-0.15533075
8	0x3c6c6814	0.014429111
9	0xbe252fce	-0.16131517
10	0xbddb581a	-0.107101634
11	0x3c35c278	0.011093728
12	0xbda91daa	-0.08257611
13	0xbdf899b5	-0.12138692
14	0xbe0415b4	-0.12898904
15	0x3d60f7e1	0.054923896
16	0xbe2a5959	-0.16635646
17	0xbe372a71	-0.17887284
18	0xbd90c01c	-0.07067892
19	0xbd999e2d	-0.07500873
20	0xbdfdeb62	-0.12398411
21	0xbe87b179	-0.26502588
22	0x3c169e8e	0.009193076
23	0xbd9b2b26	-0.07576589
24	0xbd329c80	-0.04360628
25	0xbe158302	-0.14600757
26	0x3d31b225	0.043382782
27	0xbe423bd7	-0.1896814
28	0xbe1ec9b4	-0.15506631
29	0xbe04946b	-0.12947242
30	0xbde8413e	-0.11340569
31	0xbc3774c1	-0.01119727
32	0xbdcc5645	-0.09977392
33	0xbdc87327	-0.097875886
34	0xbd09009f	-0.033447858
35	0xbd0c5d65	-0.034268755
36	0xbdbbd33c	-0.09171149
37	0xbd31217e	-0.04324483
38	0xbec3ea00	-0.38264465
39	0xbeb0e6c5	-0.34551063
40	0xbe3b0920	-0.182652
41	0xbe41a9d2	-0.18912438
42	0xbe283ad4	-0.16428691
43	0xbe3148e6	-0.17312965
44	0xbda1c162	-0.07898213
45	0xbc03088a	-0.007997641
46	0xbd6cc438	-0.057804316
47	0xbe2532b5	-0.16132624
48	0xbdaf2624	-0.085521966
49	0x38a7832b	7.9876125e-05
50	0xbe5770e8	-0.21039164
51	0xbd2c8a68	-0.042124182
52	0xbd944207	-0.07239156
53	0xbd507148	-0.050889283
54	0xbe10bd69	-0.14134754
55	0xbe474e9a	-0.19463578
56	0xbe1f25a2	-0.155417
57	0x3c01ac51	0.007914619
58	0xbd461f1d	-0.048369516
59	0xbd8f2b43	-0.069906734
60	0xbcd9ee3b	-0.026602855
61	0xbd813e7c	-0.06310746
62	0xbdba5d04	-0.090997726
63	0xbc9f0e58	-0.01941602

layers.0.ff.linear2.weight f4 [64, 64]
0	0x3eb9c16d	0.36280385
1	0xbf38e767	-0.7222809
2	0x3de672d4	0.112523705
3	0x3e8a799b	0.27045903
4	0xbd098137	-0.033570495
5	0x3e66bbc9	0.22532572
6	0x3cd2ddbf	0.025740502
7	0x3baac37e	0.0052112928
8	0xbc742788	-0.014902003
9	0xbeac5a37	-0.33662578
10	0x3e5eff85	0.2177716
11	0x3de8b60b	0.11362847
12	0xbead4559	-0.3384197
13	0xbd8eac55	-0.069664635
14	0xbde47c95	-0.11156575
15	0xbd2a10bc	-0.041519865
16	0x3e9e0c10	0.30868578
17	0x3ea16838	0.31524825
18	0x3e44b041	0.1920786
19	0xbecb65e4	-0.39726174
20	0x3da3e968	0.08003503
21	0xbe70518b	-0.23468606
22	0xbc6a64eb	-0.014306287
23	0xbeb5a029	-0.35473755
24	0xbec9ec4c	-0.39438093
25	0x3d3d69d1	0.046243493
26	0xbd948f17	-0.07253855
27	0xbd340687	-0.043951537
28	0x3e723e20	0.23656511
29	0x3e84077a	0.25786954
30	0x3ddc6065	0.10760573
31	0xbd5ae3e3	-0.053439986
32	0xbdf8e2fe	-0.1215267
33	0xbc0c6a42	-0.008570256
34	0x3e6a0922	0.22855046
35	0xbc967c03	-0.01836968
36	0xbf3d6c6d	-0.7399357
37	0x3e8ba4fd	0.27274314
38	0x3ef7a262	0.48366076
39	0x3e60082e	0.2187812
40	0x3e00df2f	0.12585138
41	0xbe7776c5	-0.241664
42	0xbdd0db5e	-0.10198091
43	0xbe342e83	-0.17595868
44	0x3eab57bb	0.3346537
45	0xbda6726b	-0.08127292
46	0x3c5dbed8	0.01353427
47	0x3de56221	0.11200357
48	0xbe27654a	-0.16347232
49	0xbd743457	-0.059620228
50	0xbeebb877	-0.46039173
51	0xbcc026ef	-0.023456065
52	0x3e0acfc2	0.13555816
53	0xbe285276	-0.16437706
54	0xbe8a4275	-0.27003828
55	0x3e61fd6a	0.22069326
56	0xbe9cf225	-0.30653492
57	0x3e1d532d	0.1536376
58	0x3eb0d5fe	0.34538263
59	0xbe04a28a	-0.12952629
60	0x3cd3417a	0.025788058
61	0x3ecb9b25	0.39766803
62	0x3c981ce7	0.01856847
63	0xbcb46da6	-0.02202494
64	0x3e111b11	0.14170481
65	0xbc7094c2	-0.014683904
66	0xbea43886	-0.32074374
67	0xbef75918	-0.4831016
68	0x3d390378	0.045169324
69	0x3cd95e70	0.02653429
70	0xbe3719e2	-0.17880967
71	0x3e2f0bc9	0.1709434
72	0x3e2fe6dd	0.17177911
73	0xbc0ae4d6	-0.00847741
74	0x3e1fad79	0.15593518
75	0x3e995564	0.2994796
76	0x3e2d9e32	0.16954878
77	0xbe0dd987	-0.13852511
78	0x3a28da00	0.0006441176
79	0xbe353546	-0.17696103
80	0xbdd7f6fa	-0.10545154
81	0xbe898406	-0.26858538
82	0x3e577766	0.2104164
83	0x3e89074d	0.26763383
84	0xbec8cbce	-0.3921799
85	0x3e07fc4c	0.13279837
86	0xbc0413be	-0.0080613475
87	0xbd2919a0	-0.041284204
88	0x3e4f448b	0.20240991
89	0xbc9fab66	-0.019490909
90	0x3f08dab5	0.5345872
91	0xbd1ec4bb	-0.038761836
92	0x3e301e5d	0.17199083
93	0xbcd67a09	-0.026181238
94	0x3e6b5f4f	0.22985576
95	0x3e0c6bca	0.13712993
96	0xbdf017b7	-0.11723273
97	0xbdc1566f	-0.09440314
98	0xbd969439	-0.0735249
99	0xbe05e2d7	-0.13074814
100	0xbe09b6ee	-0.13448688
101	0xbdfa3ba2	-0.12218405
102	0xbea0b8d8	-0.31391025
103	0x3dee3807	0.1163178
104	0xbd89b79b	-0.06724473
105	0x3e9804d4	0.29691184
106	0x3ec21c7c	0.37912357
107	0x3e873ae5	0.2641212
108	0x3dc8ea2a	0.09810288
109	0xbdc68be6	-0.09694652
110	0xbd5d8e18	-0.05409059
111	0x3e72b49f	0.23701714
112	0xbdaeb013	-0.08529677
113	0xbd8fce74	-0.070218
114	0xbb8cd9e5	-0.004298436
115	0x3d1e2b9e	0.038615815
116	0x3df1afaa	0.118010834
117	0xbdf747d1	-0.12074245
118	0x3ec0a497	0.37625572
119	0xbdb602ec	-0.08887276
120	0xbd8d3447	-0.06894737
121	0x3db40d3b	0.08791586
122	0xbf39c788	-0.72570086
123	0x3e84b7f1	0.25921586
124	0x3d8c8ecf	0.06863176
125	0xbe80a5a1	-0.25126365
126	0x3c051534	0.008122731
127	0xbd1581c3	-0.036500704
128	0xbd6cdf42	-0.057830103
129	0x3e2a04f8	0.16603458
130	0xbd7bf16e	-0.061509542
131	0x3d14d793	0.0363384
132	0xbd66d207	-0.05635264
133	0x3e86c045	0.26318565
134	0x3d1e441e	0.03863918
135	0xbecd015a	-0.40040094
136	0x3def5557	0.11686199
137	0x3d223282	0.03959895
138	0x3dae3b4e	0.08507405
139	0xbe2f5435	-0.17121966
140	0xbcb7a78a	-0.022418756
141	0xbd2a0dcc	-0.041517064
142	0x3e7e1417	0.24812351
143	0xbc8cc81e	-0.017185267
144	0x3d5013be	0.050800078
145	0x3e0e9d0a	0.13927093
146	0x3dd0f5e2	0.102031484
147	0x3eb605ab	0.355512
148	0x3dca20ea	0.09869559
149	0x3bc7753c	0.0060869735
150	0xbccddd9c	-0.025130086
151	0xbd841604	-0.06449512
152	0xbd97aae0	-0.07405639
153	0xbd456b10	-0.048197806
154	0x3e94c487	0.29056188
155	0x3d2357df	0.039878722
156	0x3dc2831c	0.094976634
157	0x3c9a56b0	0.018840164
158	0xbec44cb7	-0.3833978
159	0x3da5de5a	0.08099051
160	0x3ba509de	0.0050365767
161	0x3e9fcc3c	0.31210506
162	0x3e7bfa0f	0.24607109
163	0x3e29c3b9	0.16578569
164	0x3ec2d2e0	0.3805151
165	0x3d3f7423	0.046741616
166	0x3db6e5b4	0.08930531
167	0xbbaa0fdf	-0.0051898803
168	0x3d319a63	0.043360125
169	0xbf11a436	-0.5689119
170	0x3c66126a	0.014042476
171	0x3dfb4b18	0.12270182
172	0x3ee19cb8	0.4406488
173	0xbcfb4ef4	-0.030677296
174	0x3d0007a3	0.031257283
175	0x3e475619	0.19466437
176	0x3e38dc6a	0.18052831
177	0x3d8c19b0	0.06840837
178	0xbc98b5e3	-0.018641418
179	0x3cb90cb3	0.022589063
180	0x3e68320f	0.22675346
181	0x3e0390c0	0.12848186
182	0x3eaea70d	0.34111825
183	0xbd8a70f9	-0.06759829
184	0x3ea8f64f	0.3300042
185	0x3da4692d	0.08027873
186	0x3e27bda1	0.16380931
187	0xbe2963f8	-0.16542041
188	0x3eb97949	0.36225346
189	0x3e75f375	0.24018653
190	0xbdbed3a4	-0.09317711
191	0x3e1fdc92	0.15611485
192	0xbf42f93a	-0.7616154
193	0xbd4c7d60	-0.049924254
194	0x3ed62ba5	0.41830173
195	0xbe42c7ed	-0.19021578
196	0x3e918da5	0.2842838
197	0x3d8c1adc	0.068410605
198	0x3eddf5b5	0.43351522
199	0xbeb56f6c	-0.3543657
200	0x3e820a04	0.25398266
201	0xbe07f9dc	-0.13278908
202	0x3dcd7933	0.100328825
203	0x3da29c52	0.07939972
204	0x3d7f01ef	0.062257703
205	0x3c681059	0.014164054
206	0xba653327	-0.0008743279
207	0xbca4aa47	-0.020100726
208	0xbeb39cbe	-0.35080522
209	0x3d812df9	0.06307597
210	0xbedaba8f	-0.42720458
211	0xbdb09f38	-0.086241186
212	0x3e8364e9	0.25662926
213	0xbe9297c1	-0.28631404
214	0xbea02f56	-0.31286114
215	0x3ddf2624	0.108959466
216	0xbd997bd3	-0.07494321
217	0x3e3e5eb8	0.1859082
218	0x3dad1097	0.0845043
219	0x3e7d0fd7	0.24713074
220	0xbf437f48	-0.7636609
221	0xbb79f74a	-0.003814178
222	0xbd6abee3	-0.05731095
223	0xbdb657f1	-0.08903492
224	0x3edb184d	0.42791978
225	0x3d953d03	0.07287028
226	0x3bf23c4d	0.0073924423
227	0x3d017ad6	0.031611286
228	0xbda716b5	-0.08158628
229	0x3d3ad4c9	0.045613084
230	0x3ea1752f	0.31534716
231	0x3e649256	0.22321448
232	0x3e195937	0.14975439
233	0x3e09710c	0.1342203
234	0xbf67d83d	-0.9056433
235	0xbdfd2414	-0.12360397
236	0x3e924756	0.2857005
237	0xbd0d1ffb	-0.034454327
238	0x3de867fe	0.1134796
239	0x3e0c4fea	0.1370236
240	0xbd616f46	-0.05503776
241	0xbc9bc205	-0.019013414
242	0xbee9d3d0	-0.45669413
243	0x3ccd1410	0.02503398
244	0x3db9190c	0.090379804
245	0x3edb0ac1	0.42781642
246	0x3c969495	0.018381396
247	0x3daf244e	0.085518464
248	0xbe832f96	-0.25622243
249	0x3e749451	0.23884703
250	0x3c19553f	0.009358703
251	0xbf51db9e	-0.81975734
252	0x3dd89321	0.105749376
253	0xbd011cd4	-0.031521633
254	0x3dadc04b	0.084839426
255	0x3dc556fb	0.09635731

layers.0.ff.linear2.bias f4 [64]
0	0xbb95cff0	-0.004571907
1	0x3bc4c16d	0.0060045035
2	0xbc0eec63	-0.008723351
3	0x3ca85d13	0.020552194
4	0x3c04cbf8	0.008105271
5	0x3d30b6f0	0.043143213
6	0xbd3fcdc2	-0.046827085
7	0xbc0b9efa	-0.00852179
8	0xbe195571	-0.14974
9	0xbc04670c	-0.008081209
10	0xbc51e41f	-0.012810736
11	0x3b9a1d1f	0.0047031785
12	0xbbece4b0	-0.00722941
13	0xbc0d9b80	-0.008643031
14	0x3cbb1e77	0.022841675
15	0xbcde27be	-0.02711856
16	0x3cd17bc0	0.025571704
17	0xbc0895df	-0.008336513
18	0x3bd6ab82	0.006551207
19	0x3bf05da0	0.0073353797
20	0x3ce30010	0.02770999
21	0x3be8b901	0.0071021323
22	0x3c321517	0.010869286
23	0xbc070632	-0.008241223
24	0xbc0a36bf	-0.008435904
25	0xbde08d08	-0.109643996
26	0xbbd9fa06	-0.0066521196
27	0xbbf145df	-0.0073630656
28	0x3be50355	0.0069889226
29	0xbe26c772	-0.1628702
30	0x3bf6c428	0.007530708
31	0x3bf301df	0.0074159945
32	0x3d9ae635	0.0756344
33	0xbcb4f60a	-0.022089977
34	0x3cb350b6	0.021889072
35	0xbc607d78	-0.013701789
36	0x3bfcf55e	0.0077196797
37	0xbd0d9e19	-0.0345746
38	0xbbfda00b	-0.007740026
39	0x3c04bce1	0.008101673
40	0xbcc07aed	-0.023496116
41	0xbc1138c0	-0.008863628
42	0x3bef2d30	0.007299088
43	0x3d5a6092	0.053314753
44	0xbcaaca55	-0.020848433
45	0xbc0a1040	-0.008426726
46	0xbd0432c7	-0.032274988
47	0xbc10af35	-0.008830835
48	0xbc0bd7ec	-0.0085353665
49	0xbc062e9c	-0.0081898235
50	0x3c3857f8	0.011251442
51	0x3cdc660f	0.026904134
52	0xbcd12bb4	-0.025533535
53	0x3bf82992	0.007573315
54	0x3c0af599	0.008481407
55	0x3bb5fb98	0.005553674
56	0xbd9a7d92	-0.07543482
57	0xbc0aa6b3	-0.008462596
58	0xbb3685a2	-0.0027850647
59	0xbc0ae8ca	-0.008478353
60	0xbc0cc259	-0.008591258
61	0xbbf3b3c5	-0.0074372017
62	0x3c12206f	0.008918866
63	0x3d0e9d1f	0.03481781

layers.0.norm1.weight f4 [64]
0	0x3f84567b	1.0338892
1	0x3f81e01b	1.0146517
2	0x3f8450a3	1.0337108
3	0x3f834fca	1.0258725
4	0x3f81eb39	1.0149909
5	0x3f816048	1.0107508
6	0x3f83496a	1.0256779
7	0x3f83327b	1.024978
8	0x3f82dcb3	1.0223602
9	0x3f86bea1	1.0526925
10	0x3f925393	1.1431755
11	0x3f7cae06	0.9870304
12	0x3f8344cc	1.025537
13	0x3f7ea9a4	0.994776
14	0x3f8c6482	1.0968173
15	0x3f856fdb	1.042476
16	0x3f820a0e	1.0159318
17	0x3f838a61	1.0276605
18	0x3f87dd2c	1.0614371
19	0x3f820fe1	1.0161096
20	0x3f84f1fa	1.0386345
21	0x3f836c88	1.0267496
22	0x3f85d9aa	1.0457051
23	0x3f89d496	1.0768001
24	0x3f7de355	0.99175006
25	0x3f83414f	1.0254306
26	0x3f8536c4	1.0407338
27	0x3f8434b8	1.0328588
28	0x3f85232e	1.0401361
29	0x3f84e631	1.0382749
30	0x3f855b22	1.0418437
31	0x3f88d04f	1.0688571
32	0x3f820862	1.0158808
33	0x3f7e8a4f	0.9942979
34	0x3f88d7b3	1.0690826
35	0x3f80a57b	1.0050501
36	0x3f84dfa6	1.0380752
37	0x3f851e2a	1.039983
38	0x3f83c4cb	1.0294431
39	0x3f82ef53	1.0229286
40	0x3f835d53	1.0262855
41	0x3f812bce	1.0091493
42	0x3f85eda3	1.0463146
43	0x3f85ae92	1.04439
44	0x3f811bab	1.0086569
45	0x3f80d2ca	1.0064328
46	0x3f81ec8e	1.0150316
47	0x3f824511	1.0177327
48	0x3f7d01e6	0.9883102
49	0x3f80e012	1.0068381
50	0x3f8a969b	1.0827211
51	0x3f808030	1.003912
52	0x3f8028ed	1.001249
53	0x3f82a66b	1.0207037
54	0x3f81f120	1.015171
55	0x3f820397	1.0157346
56	0x3f7c9d8d	0.98677903
57	0x3f7b4b17	0.98161453
58	0x3f8568e3	1.0422634
59	0x3f836e7f	1.0268096
60	0x3f83c9d3	1.0295967
61	0x3f7dfc9d	0.9921358
62	0x3f82c608	1.0216684
63	0x3f825959	1.0183517

layers.0.norm1.bias f4 [64]
0	0xbc986387	-0.018602146
1	0xbba6f35e	-0.0050949296
2	0x3cac2e59	0.021018194
3	0xbd1ed331	-0.038775627
4	0x3d19fe88	0.037596256
5	0x3aa00c8d	0.0012210772
6	0x3d28c60d	0.0412045
7	0x39815068	0.00024664705
8	0xbcac4f61	-0.021033945
9	0x3d747e68	0.059690863
10	0xbd24a0d9	-0.04019246
11	0xbabffce6	-0.0014647513
12	0xbd1860da	-0.03720174
13	0xbd92bf49	-0.07165391
14	0x3a26555b	0.00063451164
15	0xbc880d09	-0.016607778
16	0x3c9e91b0	0.019356579
17	0xbd7b116a	-0.061295904
18	0x3d017656	0.031606995
19	0x3cdb0a04	0.026738174
20	0x3d099811	0.033592287
21	0x3cace334	0.021104433
22	0x3c50a624	0.0127349235
23	0xbda04da0	-0.07827306
24	0x3d54557b	0.051839333
25	0xbd319ec7	-0.043364312
26	0x3d8c3030	0.068451285
27	0x3d48bb48	0.04900673
28	0x3d16cf59	0.036818836
29	0x3d0f2419	0.034946535
30	0xbd56a121	-0.05239976
31	0x3cbb9625	0.022898743
32	0x3c13662b	0.008996527
33	0xbdd09ed0	-0.10186541
34	0xbb57c188	-0.003292175
35	0x3ccee180	0.025254011
36	0x3cfb7aca	0.030698199
37	0xbcaae227	-0.020859791
38	0x3d8cdd73	0.068781756
39	0x3cc7328b	0.024316093
40	0xbd3233b7	-0.04350635
41	0x3cc2be3d	0.023772353
42	0xbcbe58f0	-0.023235768
43	0x3c812892	0.015766416
44	0xbd0c7ebc	-0.03430055
45	0x3c9ec53e	0.019381162
46	0x3b0c43c2	0.0021402691
47	0x3cfc2e50	0.030783802
48	0x3cb8ec34	0.022573568
49	0x3d16bf57	0.03680357
50	0x3d144fc8	0.036208898
51	0x3c113a36	0.008863976
52	0x3c98d801	0.018657686
53	0x3c9b1670	0.018931597
54	0xbd6b3ca7	-0.05743089
55	0x3ca0722c	0.019585691
56	0xbd2cd5b5	-0.042195994
57	0xbd46d913	-0.04854686
58	0xbcde1c16	-0.027113002
59	0x3d3ebf4d	0.046569157
60	0x3d58569f	0.052816983
61	0x3d11e576	0.03561922
62	0xbc96f6cb	-0.018428227
63	0xbd75546c	-0.059894964

layers.0.norm2.weight f4 [64]
0	0x3f8de8ca	1.1086667
1	0x3f7a513e	0.97780216
2	0x3f8c9709	1.0983592
3	0x3f95e980	1.1711884
4	0x3f93729f	1.1519355
5	0x3f9192aa	1.1372883
6	0x3f954efb	1.1664728
7	0x3f9b7b58	1.2147017
8	0x3f8b6cbd	1.0892559
9	0x3f940d54	1.1566567
10	0x3f8e0c81	1.1097566
11	0x3f8afa1f	1.0857581
12	0x3f918138	1.136756
13	0x3fa044d7	1.2521008
14	0x3f8c4673	1.0958999
15	0x3f8375db	1.0270342
16	0x3f8632fb	1.0484308
17	0x3f9fdd8b	1.2489485
18	0x3f869eb0	1.0517178
19	0x3f91efba	1.1401284
20	0x3fa0acca	1.2552731
21	0x3f8bdc36	1.0926578
22	0x3f879f08	1.0595407
23	0x3fa48cc1	1.2855455
24	0x3f8e0581	1.109543
25	0x3f82bc23	1.0213665
26	0x3f734215	0.9502271
27	0x3f9e5216	1.2368801
28	0x3f869b50	1.0516148
29	0x3f95170d	1.164766
30	0x3f916166	1.1357849
31	0x3f9607c2	1.1721117
32	0x3f98e3bc	1.1944499
33	0x3f8c4f96	1.0961788
34	0x3f89fcc0	1.0780258
35	0x3f983b25	1.189305
36	0x3f8f18b3	1.1179413
37	0x3f8b187a	1.0866845
38	0x3f934fed	1.1508766
39	0x3f859e00	1.0438843
40	0x3f92c7c5	1.1467215
41	0x3f85783d	1.0427319
42	0x3f91160c	1.1334853
43	0x3f880d73	1.0629104
44	0x3f8df444	1.1090169
45	0x3f8eda80	1.1160431
46	0x3f92c85a	1.1467392
47	0x3f9fd3bf	1.2486495
48	0x3fa55b8d	1.2918564
49	0x3f87aea3	1.060017
50	0x3f8c0cea	1.0941441
51	0x3f86fb96	1.0545528
52	0x3f975ec0	1.182579
53	0x3f8d2a73	1.102858
54	0x3f9df300	1.2339783
55	0x3f7d4f47	0.9894909
56	0x3f7a05c2	0.97665036
57	0x3f8ffb52	1.1248572
58	0x3f91fe5d	1.140575
59	0x3f988e76	1.1918476
60	0x3f8fa147	1.1221093
61	0x3f8f8c3e	1.1214674
62	0x3f8d8b86	1.1058204
63	0x3f9c1a75	1.2195574

layers.0.norm2.bias f4 [64]
0	0x3c123f07	0.00892616
1	0xbe0499a2	-0.12949231
2	0xbd1b0624	-0.037847653
3	0xbe28e7a2	-0.16494611
4	0x3ce974f9	0.02849816
5	0xbbbc02e0	-0.0057376474
6	0xbd90b3b8	-0.07065529
7	0x3dba1ff3	0.09088125
8	0x3cc75214	0.02433113
9	0xbd816a48	-0.063191
10	0xbbe72daa	-0.007055004
11	0xbe2d1369	-0.16901936
12	0x3d91c6a5	0.071179666
13	0x3dc4af6a	0.0960377
14	0xbd7c3b01	-0.061579708
15	0x3d9aedb1	0.07564867
16	0xbd45b74a	-0.0482705
17	0xbe25d0fb	-0.16193001
18	0xbd46fe4f	-0.04858237
19	0xbd6b9040	-0.057510614
20	0x3db5da5b	0.088795386
21	0x3a4b2f55	0.00077508885
22	0x3dcd23e6	0.10016613
23	0x3da2bdd9	0.07946367
24	0xbdfe23ea	-0.12409194
25	0x3ddda8fd	0.108232476
26	0x3ce3a7fd	0.027790064
27	0xbc49cdfe	-0.012317179
28	0xbe285777	-0.16439615
29	0x3d92994f	0.071581475
30	0x3db6510d	0.08902178
31	0xbcba6a60	-0.022755802
32	0x3daf4318	0.08557719
33	0xbd47a53a	-0.048741557
34	0x3d1677cf	0.036735352
35	0xbd4f4dd8	-0.050611347
36	0x3c66cfd1	0.014087633
37	0x3d727a40	0.059198618
38	0x3b14f2e8	0.0022727791
39	0x3d5f6a27	0.054544594
40	0x3c9fe5e4	0.0195188
41	0x3d5490b6	0.05189582
42	0xbd903b28	-0.07042533
43	0x3d8d9fb6	0.06915228
44	0xbb9fabe8	-0.0048727877
45	0xbd0c5e09	-0.034269366
46	0x3c8958a7	0.016765906
47	0xbb05db91	-0.0020425061
48	0x3e0f6e8a	0.14007011
49	0xbdc1b85c	-0.09458992
50	0xbde59324	-0.112097055
51	0x3d60766a	0.05480043
52	0xbe5350ea	-0.20636335
53	0x3c3f3cd7	0.01167222
54	0x3dcffa58	0.10155171
55	0x3d5f817d	0.05456685
56	0x3c582447	0.013192243
57	0x3e40d5c9	0.18831553
58	0xbcc492f6	-0.023995858
59	0xbda15c12	-0.07878889
60	0x3d0197f6	0.031639062
61	0xbda740da	-0.08166666
62	0x3e07468a	0.13210502
63	0x3d693e67	0.056944277
