spectf_cloud/weights.pt (torch, 109290 bytes, 16 tensors)

spectral_embed.linear.weight f4 [64, 2]
00000000: 6f45 883e dc48 cb3d 7239 91be 63fd b8bd
00000010: 16c8 01bf 5c78 04be 4736 a13d 2550 a3be
00000020: c9b7 bdbc aa55 2f3e 71a1 603e d475 853e
00000030: b1bd 23be 88c9 f13b 4897 7fbe 5232 ddbd
00000040: 7461 553e d04b 3f3e 50ad c83e c012 0cbc
00000050: c686 ef3e 4ef5 8c3d f458 9b3e f426 ec3d
00000060: 0496 a5bc 7f84 933e 5209 b93c 696a 01be
00000070: 5f72 dabe 6c70 753c 956d 1ebe e6e5 f13e
00000080: 7809 4c3d b462 09be 0bc8 983c 970a 18be
00000090: 04e6 8e3e c684 253e 7723 473e db2c 083e
000000a0: 4ed6 503d db1f d5bd a8b9 b23d f3a3 19bf
000000b0: 70b3 39be 65a6 073d 8e1b c23e 53bf 473c
000000c0: 37ea 7b3c 4483 043e 9869 2ebc e3e7 23be
000000d0: 427e 533e 59c0 d53d 385d 85be d0a0 0c3d
000000e0: 56ae 37be 356c ca3e ee8d 93be 4b43 90bd
000000f0: efd9 3cbe faf4 98bc 9b24 4b3e 0696 8fbd
00000100: 17bb fe3c 1c55 51bb cf14 56be ad98 8439
00000110: 32a9 2c3f f031 1fbf b0b7 7dbc 0c0a 813e
00000120: 5a0b c8bd 68c8 9e3d d748 573e a502 533d
00000130: d944 43bd edbf 30be e4f7 1cbe 6500 b1bd
00000140: 5800 323d 5d53 98bd 28dd 56be 4f87 1cbe
00000150: 7f48 c13e 2dc2 1a3d a7bc e03d 9720 0c3e
00000160: e2d1 c63d d114 2b3e 0278 4b3d 5365 58bd
00000170: d5b6 b9bd c449 9abe 616c 40bd 5d2f 9f3e
00000180: f2b0 9a3e 8d72 61be d99d 69bd 06b1 c33d
00000190: a772 02bf e081 88bd 3e9e c7be 4392 19be
000001a0: b682 3bbe 07c8 5fbd c87f d2bd f206 1bbe
000001b0: 19ee 053e 1bd4 eebd 31e8 4bbe 681a bb3d
000001c0: 73a7 603e 6e84 28bd 1527 ec3b 6b3f f93c
000001d0: 4f32 98bd e264 8ebd a128 b2be 67ad c93d
000001e0: 8791 183b 1d02 113e 43e9 14be 2dfa a5bd
000001f0: b1ab 2cbe 418d a73c ef75 363e 6e84 623e
0.26615474 0.09926006 -0.2836414 -0.09032705 -0.5069593 -0.12936538 0.07871681 -0.31897083
-0.023158925 0.17122522 0.21936585 0.26066458 -0.1599033 0.0073787607 -0.24960053 -0.108006135
0.20837957 0.18681264 0.39194727 -0.008549392 0.4678251 0.06882726 0.30341303 0.11530867
-0.020213135 0.28812024 0.022587452 -0.12638249 -0.42665383 0.014980417 -0.1547149 0.4724571
0.049813718 -0.13416559 0.018650075 -0.1484779 0.27909863 0.1616393 0.19447123 0.13298361
0.050985627 -0.104064666 0.08726817 -0.6001579 -0.18134856 0.03311767 0.37911648 0.012191611
0.015375665 0.12940699 -0.010645293 -0.16006427 0.20653632 0.10437078 -0.26047683 0.03433305
-0.17937598 0.3953568 -0.2881922 -0.07044085 -0.1844251 -0.018671501 0.19838183 -0.070110366
0.03109507 -0.0031941598 -0.20906375 0.00025290754 0.6744567 -0.62185574 -0.015485689 0.25202978
-0.0976779 0.07753068 0.2102388 0.051516194 -0.04767308 -0.17260714 -0.15328938 -0.086426534
0.04345736 -0.07437775 -0.20982802 -0.15285991 0.37750623 0.037782837 0.109734826 0.13684307
0.09708001 0.1670716 0.049674995 -0.052831005 -0.090680756 -0.30134404 -0.04697836 0.31090823
0.30213124 -0.22016354 -0.0570353 0.09555249 -0.50956196 -0.06665397 -0.38987917 -0.149972
-0.18311581 -0.05463412 -0.102782786 -0.15139368 0.13079108 -0.1166155 -0.19912793 0.09135896
0.21938877 -0.04114192 0.0072068074 0.030425748 -0.074314706 -0.069528356 -0.34796622 0.09847527
0.00232801 0.14160962 -0.14542107 -0.08104358 -0.1686237 0.020453097 0.17818426 0.2212083

spectral_embed.linear.bias f4 [64]
00000000: 9cfa 353c cc66 ec3c 8022 43ba 2dd1 2dbb
00000010: 6d01 7abc c59b 85bc f526 03bd 3ce8 39bc
00000020: b2aa 823c 4cd5 4bbc 6716 10bc e66f 48bc
00000030: 0421 c53a c30e c63c d1af 23bb bef0 93bb
00000040: d8b9 a8bb 0950 a73c 4a0e e4bb a90d bfbc
00000050: 3701 a53c 1636 023b cfb7 c4bd 79b6 a43c
00000060: 09bd 31bc 5e41 cb3c ec75 c7bc d7cc 173b
00000070: 3b06 bebb 836b cdbb 5e69 0b3d a148 0abc
00000080: 6f21 dab9 a535 3a3c def8 033d 4419 32bc
00000090: bd34 9cbc 1e0a 6d3b c4f3 14bd 27db b438
000000a0: c389 e93c 04df 2c3c 93a5 8fbb 7823 133d
000000b0: 3a10 f1bb 41c8 093c 23da e13a 80b0 ddbc
000000c0: ddb3 c83c cc6e 5bbb 38ec 98bb e43f 42ba
000000d0: 383f b63c f3b8 2ebb da9b 19bc 1041 1b3c
000000e0: 3c26 f0ba 1590 c53b 4972 9b3c 3206 cfbb
000000f0: 842b 60ba 3cdf a7b9 5cde 183c 0402 50bc
0.011107113 0.028857611 -0.00074438006 -0.0026522384 -0.015259129 -0.016309628 -0.032019574 -0.011346873
0.015950534 -0.012440991 -0.008794404 -0.01223371 0.0015039747 0.02417696 -0.002497662 -0.0045147827
-0.0051491074 0.020423906 -0.006959711 -0.023321943 0.02014218 0.0019868664 -0.09605371 0.020106541
-0.010848292 0.024811443 -0.024348222 0.0023162866 -0.0057990826 -0.00626892 0.034036033 -0.008440168
-0.0004160511 0.011365329 0.03221976 -0.010870282 -0.019068116 0.003616936 -0.036365286 8.623889e-05
0.028508073 0.010551218 -0.0043837517 0.035922498 -0.0073566707 0.008409561 0.0017231148 -0.0270617
0.024499828 -0.0033482788 -0.0046668313 -0.0007410033 0.022246942 -0.0026660531 -0.009375537 0.009475961
-0.0018321942 0.006029139 0.018975394 -0.006317877 -0.0008551406 -0.00032019045 0.009330358 -0.012695793

layers.0.attention.attention.in_proj_weight f4 [192, 64]
00000000: d1de bd3d 89e6 0abc f994 b9bd 5b7b 15be
00000010: 914e db3d 7ad5 033e 3305 91bd 518a 58be
00000020: 29a3 4cbd f10d 87bd 019c 093e 54f1 c13d
00000030: 3721 ec3c 5652 94bd 6775 b63d 223c 1e3d
00000040: dd65 03be 90c2 99bd 7c92 86bb ddf9 a2bb
00000050: bc9a 4dbe 80f6 a13b c99a b9bd 8453 1b3e
00000060: 51dd 063e c496 22be c3ab 093a 46d9 01be
00000070: a39e 943d 0d2f b0bd 1cc9 03be 7b62 623d
00000080: 4ef2 0a3d 07c1 5cbe f59c 04bd 8db8 fbbc
00000090: 7548 61b9 2d36 573e e8fe 6fbd 5e09 33be
000000a0: b566 823d 8e0e 49be b7a6 2d3d b172 a73d
000000b0: 0023 3f3e 43e6 d13d bd31 9abd 803e a03d
000000c0: f56e 2fbe 402c 48bc 0e4f 5dbe e552 24bd
000000d0: 2d80 36be f1bf a1bc ad5f 803d 0aa6 f33d
000000e0: 8de8 febc 7dd9 5c3e ac2d 40be 4a87 49bc
000000f0: 8f5d cd3d 757d 27bd d877 8a3d e478 36bd
00000100: 5835 173d d0a4 75be a0ed c9bd 4c2b 48ba
00000110: 3b48 01be 6eb2 16be 36cd 5d3d dbff 143e
00000120: a1d4 d7ba 42ab 5e3c 669f 9d3a cd17 c2bd
00000130: fdd1 24be 8725 2cbe 1fe2 debd ba8b d93d
00000140: 3df3 c2bc 5479 bfbd 05fc c7bd cb94 c83d
00000150: 2700 b2bd b473 e4bd 2408 863e afff 0cbd
00000160: a4c6 95bd 362a 273d 13ca 883d 8afc 02bc
00000170: 2759 8b3d 1e78 093d 5be0 66bd a475 fc3d
00000180: 29b1 fdbd cee4 54be 84e8 24be ba24 593d
00000190: 162e 0abd dd07 03be ae19 03bd 4ce6 30be
000001a0: 7276 6fbe 9aa5 063e 9ee5 fe3d fdef 693d
000001b0: 3375 95bd 7193 fdbd 6f2f 29bd 457d ad3c
000001c0: 1596 02be 4011 1f3c 753e 6cbd 0f27 b13b
000001d0: eb40 353d e291 433d bc66 153e 9e2c 29be
000001e0: cd3e 91bc a061 91bd cc42 cfbd bcc4 7ebd
000001f0: 19f6 89bd 2b1d 1ebe 80a4 fdbd bef5 1b3d
00000200: 5f42 1fbe 1677 dabd a3b8 6c3e 23ae 093e
00000210: aa23 dfbd 877a 2dba d3e2 233e ad17 84bc
00000220: fe8c 3fbe 164b 503d 4577 2bbe 3a36 fb3a
00000230: ee3b 9dbd de39 6c3c 29dd 293e 2b50 4ebd
00000240: baad ccbc 6178 16be f47b a0bd f7f1 b63d
00000250: 5d1c 13be a406 75bb 3a13 0f3e 2dd5 64be
00000260: dd5d 38bd d31c 2ebd 1815 c6bd 3bbe 433d
00000270: d272 20be 32fd 523e 6329 8abc 6ff7 eabb
00000280: f8f2 f6bc 69a5 fc3d c1b3 b7bd 6da6 1ebe
00000290: 090f b1bd c41d 7ebe 7020 b4bc 1291 193e
000002a0: f887 febd bfb9 71bd 6867 60be a27a 0cbe
000002b0: 3e4b 03bd ae49 cbbd 51fe f13c d050 513d
000002c0: 47e5 dfbc 3968 923d 4643 8b3e 4e4b 4f3e
000002d0: 0ce0 9c3c c083 313e 0cc2 013e fb1c 9d3d
000002e0: 2052 893d eedc 09be 6e29 d6bd d45d 853d
000002f0: 0821 393d fae2 383e 1703 47bc 6daa 68bd
00000300: 1b52 193e 40ce 5bbd 2864 983d 1a3f 8ebd
00000310: 8678 2cbd 086c f63a b34c a23d 8bb7 4cbe
00000320: 1345 28bd 06d4 953e 76dc 273e 6d07 153e
00000330: 12c6 a1bd 1eb9 b6bd 0b45 67be 910f bbbd
00000340: 93de 9fbd 6660 9d3d b7d2 c43d fa59 8abd
00000350: 4e95 1f3e a943 1f3d 8287 653d 9dd7 bd3c
00000360: 313c cf3d 6c90 d5bd 4229 303e 6190 21be
00000370: e2f6 533d a859 cbbd dac9 663c c1b4 74bd
00000380: a0df 1d3d 3962 52be b85f adbd e24d bcbd
00000390: 7142 79bd 830e bc3d 0b4d ff3d 31f6 16bd
000003a0: 1f77 0a3e 143f a0bd 43d6 883c dbb6 3dbb
000003b0: 55dd 0bbd 68e7 8b3d a23b 163e 94dc 2c3d
000003c0: a8f8 aabd fceb 9abd 72dd 0fbe d7e0 38be
000003d0: 1d5a 443c 6421 133e d34d df3d ee3f 7cbd
000003e0: 5cb7 6d3d f6cb b5bd ae3b cfbc 1365 a83d
000003f0: 22e6 a0bd 205b 8a3c d1d6 44be 629d f6bc
0.092710145 -0.008477815 -0.090616174 -0.14597838 0.10708345 0.12874404 -0.0708107 -0.21146514
-0.04996029 -0.06594456 0.13438417 0.09469858 0.028824432 -0.07242267 0.089091115 0.038631566
-0.12831827 -0.07507813 -0.0041068178 -0.0049736337 -0.20078558 0.004942715 -0.09062726 0.15168577
0.13170363 -0.15877825 0.000525173 -0.1268054 0.0725682 -0.08602724 -0.12869686 0.0552697
0.033922486 -0.21558009 -0.03237625 -0.03072765 -0.00021484664 0.2101676 -0.058592707 -0.17484042
0.06367246 -0.19634458 0.04239532 0.081761725 0.18665695 0.10248997 -0.07529018 0.07824421
-0.1713217 -0.012217581 -0.21612188 -0.040118117 -0.17822333 -0.019744845 0.06268249 0.11896904
-0.031116748 0.2156734 -0.18767422 -0.012300322 0.100276105 -0.04089113 0.0676114 -0.044548884
0.036916107 -0.23988652 -0.098597765 -0.0007635846 -0.1262521 -0.14716503 0.054150783 0.14550726
-0.0016466567 0.013590636 0.0012025654 -0.09477196 -0.16095729 -0.1681119 -0.10882973 0.10622354
-0.023797626 -0.093493134 -0.09764866 0.09794005 -0.08691435 -0.11154881 0.26178086 -0.034423526
-0.07313278 0.04081174 0.066791676 -0.00799478 0.06804114 0.03356182 -0.056366306 0.12327126
-0.12387306 -0.20790407 -0.16104323 0.05301354 -0.033735357 -0.12795968 -0.032006912 -0.17275351
-0.23385027 0.1314911 0.1244614 0.057113636 -0.072977446 -0.12381638 -0.041305 0.021177897
-0.12752564 0.009708703 -0.05767675 0.0054062675 0.044251364 0.047746547 0.14589971 -0.16520926
-0.017730141 -0.070986986 -0.10120162 -0.06219934 -0.067363925 -0.15440814 -0.123848915 0.038076155
-0.15552662 -0.10667245 0.23117308 0.13445334 -0.10895474 -0.0006617684 0.16004495 -0.01612457
-0.18706128 0.050852858 -0.16744716 0.0019165941 -0.07677446 0.0144180935 0.16588272 -0.050369423
-0.024985183 -0.14694358 -0.07836142 0.0893287 -0.14366288 -0.0037387991 0.13972178 -0.22346945
-0.04501139 -0.042507958 -0.09671992 0.04778884 -0.156688 0.20604399 -0.016865438 -0.0071706097
-0.030145153 0.12336237 -0.08969832 -0.15493174 -0.08645446 -0.24816042 -0.021988124 0.14996746
-0.12428278 -0.059015032 -0.21914446 -0.13718656 -0.03205418 -0.09926163 0.029540213 0.05110246
-0.027331008 0.07148785 0.27199763 0.2024357 0.019149803 0.17335415 0.1267168 0.07671543
0.06705117 -0.13463184 -0.10457121 0.06512037 0.045197517 0.18055335 -0.012146733 -0.056803156
0.14972727 -0.053663492 0.07440978 -0.069456294 -0.042107128 0.0018800506 0.079247855 -0.19991891
-0.0410815 0.29263324 0.16392693 0.14553614 -0.07899107 -0.08922027 -0.22584932 -0.091338284
-0.078061245 0.07684402 0.09610503 -0.06755443 0.15584299 0.038882885 0.056037433 0.023174101
0.101189025 -0.10427937 0.17203239 -0.15777732 0.051749118 -0.0992921 0.014086211 -0.059742693
0.038543344 -0.20545281 -0.084655225 -0.091945425 -0.06085438 0.091824554 0.12465867 -0.03685588
0.13522004 -0.07824531 0.01670373 -0.0028948102 -0.034146626 0.068312466 0.14671186 0.042202547
-0.08348209 -0.07564542 -0.14049318 -0.1805452 0.011984375 0.14368206 0.10903516 -0.061584406
0.058036193 -0.08876793 -0.025297012 0.082224034 -0.07856394 0.016889155 -0.19222571 -0.030104343

layers.0.attention.attention.in_proj_bias f4 [192]
00000000: e91a dcbc 37aa 4f3d 38e9 063d 42a7 893d
00000010: 0e71 6cbd 14b0 26bd 1066 84bd d443 ba3d
00000020: 3f8a f3bd aaac 0c3d 4623 fabd 0222 333d
00000030: aaf4 5f3e 1fde 8c3d d695 a0bc a1c4 a73d
00000040: d5a3 79bd 98a0 26bc 4787 1fbe 2a5d 7e3d
00000050: 1c8e c9bd 8588 95bd cf58 2d3e 9ecc 7a3e
00000060: 6125 66bc e2f8 2e3c 0f2b 56be 23eb 4bbd
00000070: cb5d 93be fa97 32be 3850 c43c e68f 97bd
00000080: 5402 a5bc 601d 27be 356a 313d 352c 0e3d
00000090: 65dc 083b 82a3 5c3e 603f 45bd 6afd 27bd
000000a0: 806c 95bc 3e71 5fbc baae d03d d938 d93c
000000b0: fae5 a3bd 3ec5 b2bd 37d6 c73c 924d 96be
000000c0: a57b a3bc 1291 853c 5f88 383b e9a9 abbe
000000d0: 4ef1 7e3e a8bd 1a3d 8a6c 9a3c bfb1 c43c
000000e0: bde3 8b3d 0fe9 943d 97b1 7e3d ec52 b13d
000000f0: a211 14bf 6ea4 60be 45ee 3abe 865d 13be
00000100: 8f91 a5bd a631 71bd e088 a7ba ad34 9c3b
00000110: fce7 32bd 659b 2abd 8e60 6cbd 830b 1f3c
00000120: 9b16 833c 3066 be3d d65d cf3c de3a 00bd
00000130: ea4c 4e3d 3e08 5e3d 5de5 9fbb 1c06 8ebc
00000140: 7954 c2bd 24bf 223b 8a58 953d 41fa efbc
00000150: 559c 153d c4ab 7b3c 3424 84bd 5c2c 2fbc
00000160: 923b 86bd 8c28 a6bd 3243 36be 2f6a 42bd
00000170: 6351 fdbd 5212 28bd cb1b 10bd 564d 9abd
00000180: 468e 793c 354c f8ba 4d77 51bc 9dd2 cebb
00000190: c07a d73c 5f54 843c f0bd 1fbb fd9a 1c3c
000001a0: 9c92 d1bb c147 913c 5bdb eb3c 3207 e83c
000001b0: 9227 34bc 9ae8 0bbd 761d e7ba 4756 afbb
000001c0: 9ce5 cdbb bfec 88bb 4083 cf39 b297 5dbc
000001d0: 80f1 023b 7d6d 143c 4ea2 1eba 0e07 733c
000001e0: 6dc6 383d 8aaa 8f3c f901 9dbc 47a2 cc3d
000001f0: b056 debb b536 e9bc c02c 12bd 3b0e 143c
00000200: b018 80bd db59 9fbe 6630 6f3e def4 92bd
00000210: c261 9fbd 8674 08be b013 91bd 0ac2 e73d
00000220: 16ae 3b3d 92a5 2ebe 2990 2e3e cc3c e8bc
00000230: 9947 d33e 8468 eebd 4e84 a0bd d2dc 9e3d
00000240: d7bc 94bd 8607 f93c 604c 3bbd 8e00 a63d
00000250: 4ca7 0f3d 588a cc3c 6876 a3bd e131 2d3e
00000260: f265 37be 38fb ddbd 9f8f 1e3e 1c5f 7b3e
00000270: 1898 03be 1a4e a3bd 89e5 1a3e f980 b6bd
00000280: 8cd0 febd ab9b 32bd db54 933d 988c c93d
00000290: 5639 74bd 9620 4fbd 7cc1 c2bd a796 e0bb
000002a0: 1f7d 05be f448 28be 79f5 1dbd ded4 093e
000002b0: 7307 873d 0ca9 19be 0cf7 5c3d 8ce4 5c3c
000002c0: 677f e6bd 9889 d33d 1a03 b63d 898a d73d
000002d0: eaec df3b b30d aa3d 69d1 eb3d 0be2 6ebd
000002e0: 7325 403d 3fa4 24be 0efb 9fbc 4ee2 0bbe
000002f0: 13c2 473d 167a fdbd b33b 72bc 8a2d f93d
-0.0268683 0.05069944 0.03293726 0.06721355 -0.057725005 -0.040695265 -0.064647794 0.090949684
-0.11891603 0.034344353 -0.12213759 0.043733604 0.21870676 0.06878304 -0.019602697 0.08191801
-0.060947258 -0.0101701245 -0.15578948 0.062100567 -0.09841558 -0.0730143 0.16928409 0.24492118
-0.014046998 0.0106794555 -0.20914863 -0.04978479 -0.28782496 -0.17440787 0.023964033 -0.07400493
-0.020142712 -0.163198 0.043314178 0.034710128 0.0020883319 0.21546748 -0.048156142 -0.04101316
-0.018240213 -0.013637839 0.101895764 0.026516365 -0.08002849 -0.08729027 0.024394138 -0.29356056
-0.01995642 0.016304526 0.0028157455 -0.3352807 0.24896738 0.037778527 0.018850584 0.024010537
0.06830547 0.07271015 0.06218108 0.08658394 -0.57839406 -0.21937725 -0.18254955 -0.14391145
-0.08084404 -0.05888524 -0.0012781881 0.0047670216 -0.04367827 -0.041652102 -0.05770927 0.009707334
0.01600199 0.092968345 0.0253133 -0.03130614 0.05036632 0.05420708 -0.004879637 -0.017336898
-0.09488768 0.0024833167 0.07292278 -0.029294135 0.036526043 0.015360776 -0.06452218 -0.010691728
-0.06554331 -0.081132025 -0.1779907 -0.047464546 -0.12369039 -0.041033097 -0.035182755 -0.07534282
0.015231675 -0.001894361 -0.012784791 -0.006311728 0.026303649 0.016153513 -0.0024374686 0.009558436
-0.006395651 0.01773441 0.02879112 0.028323743 -0.010995762 -0.034157373 -0.0017632681 -0.005350861
-0.006283475 -0.004178613 0.00039579906 -0.0135249365 0.001998037 0.009059307 -0.0006051407 0.014833225
0.04511111 0.017537374 -0.01916598 0.099918894 -0.0067852363 -0.02846847 -0.03568721 0.009036596
-0.06254709 -0.31123242 0.23358306 -0.07175611 -0.07782318 -0.133257 -0.07083833 0.11316307
0.04582032 -0.17055348 0.1704718 -0.028349303 0.41265562 -0.116410285 -0.07837735 0.07756962
-0.07262581 0.030399095 -0.045727134 0.081055745 0.035071656 0.024968311 -0.079815686 0.16913559
-0.17909983 -0.10838932 0.15484475 0.24548 -0.12850988 -0.07973881 0.15126623 -0.08911318
-0.12442121 -0.043605488 0.07193919 0.09841269 -0.059624992 -0.050568186 -0.095095605 -0.0068538967
-0.13036011 -0.1643408 -0.03856418 0.13460109 0.06593218 -0.15005893 0.05394654 0.013482224
-0.11254769 0.10328978 0.0888731 0.1052447 0.0068336623 0.08303394 0.11514551 -0.05832104
0.046910714 -0.1607828 -0.019528892 -0.13660547 0.048769068 -0.12376802 -0.014784741 0.12166889

layers.0.attention.attention.out_proj.weight f4 [64, 64]
00000000: 7c03 6c3d 8310 4a3e 75a3 1ebe 25f6 743d
00000010: af16 0c3e 02c5 ed3b cb01 793c b644 943e
00000020: 7422 43bd 1aa2 853c df5a 1a3e 5e67 bfbd
00000030: faca 303c f625 783d 9058 703e 2bc2 d33d
00000040: 66a9 d93c 492c 38bd 16aa 453e e2a4 733e
00000050: 35ec 613d 6e95 d23c 3b2c 21be 6bc6 713e
00000060: efe7 89be 2333 b5bd e901 413e f7b9 13be
00000070: 0ddb 103d 32f6 31bd 5bd3 44be b51b 1d3d
00000080: dae3 343c 5741 28be 5a75 633d 7013 353d
00000090: ba1c f1bd 30d0 953d 37be 31bc b99e 8cbd
000000a0: 5c09 243e 1ca0 4f3d d93c a6bc 7726 b6bd
000000b0: 20dd 2b3d fa1f 28be a2c5 833d c7b1 51bc
000000c0: 5845 8e3d e667 393c 1b00 61be 0e47 0fbe
000000d0: af0a 48be fd24 9cbc 3f8a 0c3e cf5e b93d
000000e0: 69c6 013e 26e1 3bbd b226 eebc b3a2 ae3d
000000f0: a650 00bd 89dc 01be 33cc a03d 2bc3 12be
00000100: 7de2 983d 5d7a 2c3c 6cfb ea3c bed0 78bd
00000110: a953 723e 5f25 1abd 1eea 3a3d 1791 913d
00000120: 5ecb 75be 402a 09bd c6fa 0abe 1e43 5a3e
00000130: b4bc b4be 1ba1 0d3e b675 b83d bed1 673d
00000140: f0cc 303e 2766 52be 4148 19be 7152 f73d
00000150: 1815 1dbe 086c 5dbd 356f 2e3e fc2e dfbc
00000160: 045e 8fbe 9f41 eabc 8943 673d 8494 0b3e
00000170: d9d4 aab8 ff6b 34be b0e3 ed3d 558b 6d3e
00000180: 4029 02be fa85 28be 57df c4be 38d4 76bd
00000190: b007 7fbe 4e84 cf3e 1508 18bd 43cd f9bc
000001a0: 61ea ee3b acf6 8ebd 1b23 05be 98cf 24bd
000001b0: ba54 24b9 ea7b 1fbe 3aa1 60be e67c e83c
000001c0: 7cee 203e 19c2 54bd 4a47 223e 0a6d 4f3e
000001d0: 642f 16be d414 953d 1c53 30be 3fb7 603e
000001e0: 569c 453d e1e4 9d3e 8bc1 8a3c dc02 a5bc
000001f0: 50d5 ebbd bde7 553e e8ad 27be 5625 5dbe
00000200: 574c 8bbd 4ddb 6bbe 7d89 98bd da68 053e
00000210: 2bcd 5e3d 200e 963d e07a d3bd 3a43 993d
00000220: 3fd2 883b e652 0cbe 98da ba3d 7323 163e
00000230: e4b9 083e be03 57be 05e4 013c 9cf4 3e3e
00000240: 5f67 a3bd 5df6 483e c979 723c af34 13be
00000250: 16cf a93d 1cb8 423d 31d6 733d 8037 803d
00000260: aa81 663d 7237 913d ed7b cb3d 097c 2abe
00000270: 7ff3 46bd 1957 a0ba d29e e73d 2dfd 793d
00000280: 7266 d3bd ba28 bdbd 96b5 bebd f1f6 bcbd
00000290: ee34 093e 92e4 1e3e 66b7 f63d 27ed 30bd
000002a0: 7f2f b23b a665 20be d203 1d3e 611b 81bd
000002b0: d44d ccbd 8665 c2bd 8fa6 203c 5808 603d
000002c0: 1b1e 58be bc4e 0d3e 49d2 54bc f0c1 a03d
000002d0: 35e6 08be 2567 b33b f3e9 433e f5e6 703e
000002e0: 6758 d3bd 99ed 45bd 042b 4abd ceaa 99bc
000002f0: 4e52 223e fc4b bbbc a762 39be c979 653d
00000300: 067f 8b3d e7b8 4fbe 31ca f0bd 76bc 083e
00000310: 607b 34be 7c09 343e 9363 853e f3e6 2bbe
00000320: a32a 7abe e2bd 5fbe e2ba 8f3d acd9 94bd
00000330: d7ce 793d 000f 223e fa59 10be c2cd f2bc
00000340: 49ad 893e acec a63d 2a26 dfbd 5a96 94bc
00000350: 9def 013e f443 643d 8245 163e 9827 04ba
00000360: ecde 5dbc 846d 7b3b 2112 13be a494 2ebe
00000370: 7965 7a3e 549a 10bc 31bf 1dbe 0fd2 a13d
00000380: 3e32 d33c 01a5 3dbe f0df 04bd acd3 3dbb
00000390: 82b8 41be f689 50be 2d65 4e3c 9dec e33d
000003a0: 524f 38be e71d 653e b7bf 413d 7b90 6f3e
000003b0: c954 0ebe 3c53 5c3d dc04 153e 4324 f43d
000003c0: 3b10 ce3b 70d0 b33d f046 153e cc98 cfbd
000003d0: d9d4 b13d e622 a6bd 4556 003e 6525 dfbd
000003e0: 26df e5bd 3074 723e f1cb 87be 0449 df3d
000003f0: 8f97 473c 4b6b ce3e 7dda 3a3e c40f 9d3d
0.05762051 0.19732861 -0.15492041 0.059805054 0.13680528 0.007256151 0.015198181 0.28958672
-0.04764028 0.016312648 0.15073727 -0.093458876 0.010790581 0.060583077 0.23471284 0.10339769
0.026570033 -0.04496411 0.19303164 0.23793367 0.055156905 0.02570602 -0.15739529 0.23610847
-0.26934764 -0.08847644 0.18848385 -0.14426409 0.035365153 -0.04344768 -0.1922125 0.0383565
0.011040652 -0.16431175 0.055531837 0.04420799 -0.11773057 0.07315099 -0.010848573 -0.068662114
0.16019195 0.0506898 -0.020292686 -0.08894055 0.041958928 -0.16418448 0.0643418 -0.012798733
0.0694682 0.011316275 -0.21972696 -0.13991949 -0.19535325 -0.019060606 0.13724612 0.090512864
0.12673344 -0.045869015 -0.029071186 0.08527126 -0.031326912 -0.12681784 0.07851448 -0.14332263
0.07465074 0.010527221 0.02868434 -0.060745947 0.23664726 -0.037633296 0.045633428 0.07107752
-0.2400336 -0.03348756 -0.13572225 0.21314666 -0.3530022 0.13830988 0.090068266 0.05659651
0.17265677 -0.2054678 -0.14968969 0.12076271 -0.15340078 -0.054058105 0.1703461 -0.027244084
-0.28001416 -0.028595744 0.05646089 0.13630873 -8.145878e-05 -0.17619322 0.116156936 0.23197682
-0.12711048 -0.16457358 -0.38451645 -0.06026098 -0.24905276 0.40530628 -0.037117083 -0.030493384
0.0072911237 -0.06980643 -0.13001673 -0.04023704 -0.00015671822 -0.15574613 -0.21936503 0.028379869
0.15715975 -0.05194292 0.15847507 0.20256439 -0.14666516 0.07279363 -0.17219204 0.21944903
0.048244797 0.30838683 0.016937992 -0.020142965 -0.115152955 0.20889182 -0.16374934 -0.21596274
-0.0680167 -0.23032875 -0.07448099 0.13028279 0.054394882 0.07326913 -0.10326171 0.074835256
0.004175454 -0.13703498 0.09123725 0.1466196 0.13352162 -0.20997521 0.007927899 0.18647999
-0.07978701 0.1962523 0.014799544 -0.14375566 0.08291452 0.04753886 0.05953044 0.06260586
0.056276 0.070906535 0.09935746 -0.16648878 -0.04857206 -0.0012232988 0.113095894 0.061032463
-0.10322274 -0.092362836 -0.093119785 -0.09226788 0.13399097 0.1551688 0.12046699 -0.043194916
0.005437791 -0.15663776 0.15333489 -0.0630405 -0.09975782 -0.0949202 0.009805336 0.054695457
-0.21105234 0.13799566 -0.012989589 0.07849491 -0.13369067 0.0054749423 0.19132213 0.23525603
-0.10319596 -0.048322294 -0.04935743 -0.018758204 0.15851709 -0.02286338 -0.18104039 0.056024347
0.06811337 -0.20285378 -0.11757315 0.13353142 -0.17625189 0.17581743 0.26052532 -0.16787319
-0.24430327 -0.21849778 0.07018067 -0.0726808 0.060988273 0.15826035 -0.14096823 -0.029639129
0.2689002 0.0815061 -0.10895951 -0.0181381 0.12689061 0.055728868 0.14674953 -0.00050413003
-0.013541918 0.0038364837 -0.14362384 -0.1704889 0.24452771 -0.008825857 -0.15404965 0.079013936
0.025780793 -0.18519975 -0.032440126 -0.0028965278 -0.1891804 -0.20365128 0.012597364 0.11129115
-0.17999008 0.22374688 0.047301974 0.23394959 -0.1389953 0.053790316 0.14552635 0.11920979
0.006288556 0.08779991 0.14577842 -0.101365656 0.086831756 -0.08112125 0.12532909 -0.10895804
-0.11224203 0.23677135 -0.26522782 0.109025985 0.0121821305 0.40316233 0.18247409 0.07669023

layers.0.attention.attention.out_proj.bias f4 [64]
00000000: dc46 4c3d e1bf ffbc fdf7 5cbd ecf8 1b3d
00000010: a742 e03c b764 d4bc 69a0 18bd 4464 813c
00000020: 3ead aebc e285 d23d ab79 5e3d 7b2b a7bd
00000030: 18c3 f13b 5ea4 59bd 0904 d73c b8ef c03d
00000040: fb41 0e3e a723 503d 1e4f 52be c503 f03a
00000050: 1bff 89bb 8d9a 6e3d cdaa b5bc 9c32 f13c
00000060: 8467 06bc a89c 223e b2e4 22bd 0ba9 69bc
00000070: ba90 1cbc 4ae0 38bb 6687 16bb 4224 023b
00000080: 5095 cfbb 04c0 98bb 536f c53c 21ab a2bd
00000090: 40c6 2a3d ed97 b23b 2002 5cbc 02cb d7bd
000000a0: 105c bfbb 3098 c9bd 1dc4 523d bbc2 4cbd
000000b0: 74cc 1d3c 82c7 343d 8860 e33c c864 723d
000000c0: dcee db3d 2f06 513d f4e8 523d 24f1 bd3c
000000d0: 035d 26bc 1391 1d3d 907d 753d 1cc5 16be
000000e0: a16c bbb9 af86 4cbd c518 9ebd 0401 97bc
000000f0: 0cb3 64bd a302 9d3d ff2b ae3d ce62 7dbc
0.049872264 -0.031219425 -0.053947438 0.038079187 0.027375532 -0.02592693 -0.037262354 0.01579488
-0.021322843 0.10279442 0.05431525 -0.0816259 0.0073779933 -0.05313527 0.026247041 0.09420723
0.13892357 0.05081525 -0.20537993 0.001831167 -0.004211319 0.05825286 -0.02217617 0.029443078
-0.008203391 0.15880072 -0.039768882 -0.014261494 -0.00955599 -0.0028209859 -0.0022968887 0.0019858037
-0.006334938 -0.004661562 0.024100935 -0.079427965 0.041692972 0.00545024 -0.013428241 -0.105367675
-0.005839832 -0.098434806 0.05145656 -0.049990397 0.009631265 0.044135578 0.02775599 0.059178144
0.10738918 0.051031288 0.051491693 0.023186274 -0.010154012 0.03846843 0.0599342 -0.14723629
-0.00035748354 -0.04993313 -0.07719568 -0.018433101 -0.055834815 0.076665185 0.08504485 -0.015465451

layers.0.ff.linear1.weight f4 [64, 64]
00000000: 7a3c 1dbe de9c 103d 5785 943e 5991 833d
00000010: 8981 f43e bb83 043e 0469 143f 4d9d 9ebc
00000020: 59a9 42bd 7ad6 27bd eda5 b73d cab4 383d
00000030: 1f0e 25be a07a a8be 0cb0 f4ba bb32 99bd
00000040: e6f7 653e b2f8 f53e 4833 c8bd e565 063e
00000050: 6454 61bd 1896 043d 6f2b 0ebe 486a 2e3e
00000060: d0a2 7d3d 10ab ba3e 62a3 f43d f486 7fbe
00000070: 9f28 94be 333c cd3d 7609 8dbe 6802 86be
00000080: 7359 c03c 1b95 bd3d 8833 6d3e f630 2abe
00000090: 7e6a 963e a8ae 37be 8ee8 87be abfa 94be
000000a0: f43f 913d 75a5 4ebe 7ced 863e 5e61 373d
000000b0: 8457 953d fb47 8e3e c537 4dbd 6759 f03d
000000c0: 3009 003e ace3 d73e 6e94 27be 2f04 66be
000000d0: 7a72 0dbc cb17 d43e a309 9bbc 9aba b8be
000000e0: 8084 573c 7a26 96bf 94aa 1d3e 5099 353f
000000f0: 75c8 c9be 706d 373d c585 68bd 947f fbbd
00000100: 31d3 f6bd 102e 503b 9200 c03e 5aee 893d
00000110: 4b00 6b3e b9b2 b3bc 82b5 013f 3e9c 34bf
00000120: 382a 2abd f947 a0be f98c 343e 0999 8c3e
00000130: e043 813d 379a acbe 1413 c7bd e9b9 4f3e
00000140: bab8 2dbe f0ca e93d 3fc5 74be d6f3 cc3e
00000150: 8965 33be ec65 f6be 9939 b03d 6a51 ec39
00000160: cf5c dfbd 542e 163c 8e0d 203e edec a93d
00000170: f1af 3c3e 3d6c 1bbe 9078 d4bd cd58 25be
00000180: 8694 89bd 099a 3c3e f24f 07be f379 8d3e
00000190: 5505 6c3e 9451 be3d 452e 473e 4cff 6d3e
000001a0: bce2 90be 231c 2f3e 272a 193d 20b4 923e
000001b0: fb58 03be 42af 0fbe f46c bcbe 8bac 76be
000001c0: 2e6f acbd 1f59 263d 9749 8c3d ecb2 aabb
000001d0: 765d 273f bfc2 823d 95d9 793d 5e09 713e
000001e0: 1195 d93e c679 803e 4e2c 3bbe 56f0 32be
000001f0: 0726 c63e 558c 903d 4a8f 61be 7b33 4d3e
00000200: 43d2 b0bb 9fe9 2cbe c673 ab3b 0eeb 2dbe
00000210: d5ee 06be f1f1 a0be 6281 9bbd 17c4 9dbe
00000220: aac5 8c3e a7d9 883e ff07 c53d 5485 c5bd
00000230: 84bd 54be 01d7 053e 08a9 c8be a66a 543e
00000240: 4444 45be 8579 54be 422b 893e ce24 b9bd
00000250: a065 e1bc a38f 4bbd a155 313e e11e 21bd
00000260: a297 a6be 7699 293e aa9c d9bc 03bd 38bd
00000270: 39b4 4cbe 30bf 823d 0016 5a3e b75c 043e
00000280: 7cf6 b3bd 198d 94be bcba abbc 229e eebd
00000290: ea3c 3dbd 9f72 f13c 17f3 b2be 80a8 abbd
000002a0: cd78 4e3f e64b 383d 6495 493d 3810 7c3e
000002b0: 4694 93be 134b 223e 51df 9abe 044a c43e
000002c0: 96fd 9fbe b521 5d3e f67a 5bbe 9f95 5a3e
000002d0: 8e0a ffbd 6928 02bd 3d0d 94bd d1b8 8d3e
000002e0: 6eb4 783e d8d5 06bc 7780 463d 801b ae3e
000002f0: 4056 403e 036e 0d3e e8d3 c83e a459 7ebc
00000300: aa86 ccbd 6ca9 4abe ee08 85bc fd73 8d3c
00000310: 5601 27be 16a4 9abe 86d7 8cbe 99fa 5a3d
00000320: 28fd debd c3dc d83e 7b4d e23d 991a 4cbd
00000330: 9ce7 1f3e 7841 48be c207 1cbd 1298 ae3d
00000340: 9f14 8bbd 8f35 fdbc 78d6 edbd c461 023d
00000350: d9f0 c53d e574 bd3d 3473 203d afed fb3c
00000360: 75d9 51bd 9fad 9dbd 6b66 9a3d be26 9bbd
00000370: cf48 24be ee31 34be 2aa0 9b3d 015e d13c
00000380: d59d 30be 6d53 78be f393 07be 6577 cd3e
00000390: e0dd edbd 482c 833d dd85 583c 6c85 37bd
000003a0: f4e5 a4bd b9a9 363d 5b34 bd3e e9ab cc3a
000003b0: 4b56 bbbd c897 2d3d 2e9d 603e 50c0 98bd
000003c0: 5ae9 8d3d 4910 abbd 8d61 d93d 627a 7e3d
000003d0: 4090 853e a3c2 eabd b251 5ebd 71b6 17bd
000003e0: d11e 2f3b a746 b3bd be80 2dbe c52d 0c3f
000003f0: 79dc 47bd 72d6 47be 8da1 e43e d0a4 2f3e
-0.15355101 0.03530585 0.2900798 0.06424207 0.47755077 0.12940876 0.5797274 -0.019362116
-0.047524784 -0.040976025 0.08967195 0.04509429 -0.16118668 -0.32906055 -0.0018668189 -0.07480379
0.22457847 0.48041302 -0.09775406 0.13124807 -0.05501212 0.032369703 -0.13883756 0.1703273
0.06192285 0.36458635 0.11945225 -0.24953824 -0.2893724 0.10021248 -0.2754628 -0.2617371
0.023480153 0.09256955 0.23164189 -0.1662024 0.29378122 -0.1793772 -0.26544613 -0.29097494
0.07092276 -0.20180304 0.2635306 0.04477059 0.07292083 0.27789292 -0.050102014 0.11735802
0.12503505 0.42165887 -0.16365215 -0.22462533 -0.00863325 0.41424403 -0.018925494 -0.36079866
0.013154149 -1.1730492 0.15397102 0.7093706 -0.3941075 0.044782102 -0.056768198 -0.12280193
-0.12052 0.0031765737 0.37500435 0.06734915 0.2294933 -0.021935808 0.50667584 -0.70550907
-0.04154417 -0.3130491 0.17631902 0.27460507 0.06311774 -0.33711407 -0.09720436 0.20285763
-0.16964999 0.114156604 -0.23903368 0.40029782 -0.17519201 -0.48124635 0.08604736 0.00045074086
-0.10906374 0.009166319 0.1563017 0.08297143 0.18426491 -0.15178008 -0.10374558 -0.16147156
-0.06717782 0.18418135 -0.1321409 0.27632102 0.23048909 0.092929035 0.19451244 0.2324192
-0.28297985 0.17100577 0.037393715 0.2865305 -0.12826912 -0.140317 -0.36801875 -0.24089257
-0.08419643 0.040612336 0.06849974 -0.0052093174 0.65376985 0.06384801 0.060998518 0.2353873
0.4249654 0.25092906 -0.1827862 -0.17474493 0.38700888 0.07058016 -0.22027317 0.2003917
-0.005396159 -0.16885994 0.005232307 -0.16984197 -0.13177045 -0.31434587 -0.07593037 -0.30813667
0.27494556 0.26728556 0.09620666 -0.09644571 -0.2077542 0.13070299 -0.3919146 0.20743808
-0.19264323 -0.20749481 0.26790816 -0.09040223 -0.027514279 -0.04969753 0.17317821 -0.03933609
-0.32537562 0.16562447 -0.026563961 -0.04510213 -0.19990624 0.06384122 0.21297455 0.12925993
-0.087872475 -0.290139 -0.020963065 -0.11651255 -0.04620067 0.0294736 -0.34951088 -0.08381748
0.8065308 0.044994257 0.049214736 0.24615562 -0.2882406 0.15848951 -0.30248502 0.3833772
-0.31248158 0.2159489 -0.21433625 0.21346138 -0.12453185 -0.03177682 -0.072290875 0.27680066
0.24287578 -0.008229695 0.048462357 0.34005356 0.18782902 0.13811497 0.39224172 -0.015524302
-0.09986623 -0.19791192 -0.01623961 0.017267222 -0.16309103 -0.30203313 -0.2750818 0.053461645
-0.108881295 0.42355928 0.110499345 -0.049830053 0.15615696 -0.19556224 -0.038093336 0.08525099
-0.067910425 -0.030909328 -0.11613172 0.031831518 0.09665079 0.092508115 0.039172366 0.030752985
-0.051232774 -0.07699131 0.07539066 -0.07575749 -0.160434 -0.17597172 0.07598908 0.02555752
-0.17247708 -0.24250574 -0.13240032 0.40130153 -0.11614585 0.0640493 0.013215509 -0.044804975
-0.080516726 0.044595454 0.36954007 0.0015615198 -0.091473185 0.042381078 0.2193496 -0.07458556
0.06929274 -0.083527155 0.106143095 0.062128432 0.26086617 -0.11462905 -0.05427713 -0.037039224
0.002672125 -0.0875371 -0.16943642 0.5475734 -0.048794243 -0.19515398 0.44654503 0.17152715

layers.0.ff.linear1.bias f4 [64]
00000000: d752 9ebe bfda 4abe f5b0 27be 73c7 69be
00000010: 91e0 9abe 830c ddbe 7045 b1be cb94 09bf
00000020: de80 3dbe e56b edbe 6438 e3be fed5 48be
00000030: 7409 b2be 31aa 13be aa40 e4be cc43 a1bd
00000040: ab56 fcbe b6af cfbe 0d66 28be 8446 8ebe
00000050: 13ca 02bf d862 f7be ab13 c3be 583a 98be
00000060: fbcb c0be e890 f4be 1cf3 94be 07cd 22bf
00000070: 98c1 d1be 32e9 7ebe c222 cabe 38ba 80be
00000080: d83b 93be 6c1c 0cbe 07c5 2abf cf10 46be
00000090: 0290 6bbe 89aa 93be c928 30bf cfb8 2cbf
000000a0: 0047 d4be 80ea d4be 4020 bebe d982 f7be
000000b0: b6cb 3dbe 23a4 e4bd 410a adbe ee85 06bf
000000c0: 7016 81be 2dab 0abf 503f edbe 9804 99be
000000d0: c02d 7cbe 3962 37be 7670 abbe 8189 3bbf
000000e0: 9cb6 dcbe 9a33 9fbe f591 a2be ae6a acbe
000000f0: 95f3 84be afb4 b2be ed6d 02bf d86d 9dbe
-0.30922577 -0.19810008 -0.16376098 -0.2282999 -0.30249456 -0.43173608 -0.3462329 -0.53742665
-0.1850619 -0.4637138 -0.4437896 -0.19612882 -0.34772837 -0.14420392 -0.44580585 -0.07874259
-0.49284872 -0.40563744 -0.1644518 -0.27788174 -0.5108959 -0.483176 -0.38100943 -0.29732013
-0.37655625 -0.47766805 -0.29091728 -0.63594097 -0.40968013 -0.24893644 -0.39479643 -0.25142074
-0.28756595 -0.13682717 -0.6670689 -0.1934235 -0.23004153 -0.28841045 -0.68812233 -0.67469496
-0.4146042 -0.4158516 -0.3713398 -0.48342016 -0.18534741 -0.11164119 -0.33796886 -0.5254811
-0.2521243 -0.54167444 -0.46337366 -0.29886317 -0.24626827 -0.17908563 -0.33484238 -0.7325669
-0.4310807 -0.31094056 -0.3175198 -0.3367514 -0.25967088 -0.34903476 -0.50948983 -0.30747867

layers.0.ff.linear2.weight f4 [64, 64]
00000000: 8eaf ed3e 910b e2bf a6f9 1e3e 2dda 3c3e
00000010: 1e01 fd3d ac5a 6c3d 7ed9 9dbd d042 e03d
00000020: e423 b53d 62da fabc cc57 abbd 73f4 b2bd
00000030: 2812 f8bc fcba 5fbd 4b34 5abe 0881 5d3c
00000040: 3895 733c 332a 1a3f 3697 983d 5f59 f93e
00000050: 2510 f23d 071e 183e 01ff a13e a7d9 8bbe
00000060: 8ac9 68be f42c 3b3d 1740 c9bc ae88 9abd
00000070: 557b 313e b938 4f3e bb5f 483e 14fd 70bd
00000080: 8636 413e bfbd cebc 00ce b33e 3894 0cbd
00000090: 8bd0 d5bf 3f2b e53e 7e7c ed3e cae9 973e
000000a0: 3ae9 063e ed9f 15bc 3bfa 01bf d0ad ae3c
000000b0: 8ce9 8bbd 44fb 713d 52cc 19bc 44ac 25bd
000000c0: 8f00 4cbe f78b cf3d 11cc e6bc 033a 623d
000000d0: 9aec ea3e a80f 93bd d15d 75bc b38b 51bc
000000e0: bd36 57bd b4a1 ba3b 4450 3f3e abb8 c93e
000000f0: 1271 be39 3e9d b83e 4e96 c53e a347 76bd
00000100: 25f0 113e 1936 0bbf ad91 53bf 4bfb e53d
00000110: c886 11bf 30e1 d8bd 95b5 32bf 2731 9138
00000120: c97c e43d 8ea4 78bc be72 173e 216b 1c3f
00000130: 0f98 07bd 6d7d 4f3c 3e61 eb3d 446b 06bf
00000140: 64ce bdbd d0bb c4bf f6ca 223e a4a0 f53e
00000150: 727e 39bf 828d b7bd a2cf ff3d 09f9 673d
00000160: 445b d93e 4b6d 53be 2a35 9a3e ca5c 013e
00000170: 20e9 123e d1fa 81bd ec0a b9bd d25b 063e
00000180: 22f5 d03c 6c04 a4bd 3222 c03d 19f1 3cbe
00000190: 19f6 19bd d3d0 d43d eb1a 58bf fafd 193e
000001a0: 3c46 bfbd 41db 7ebd 8377 ce3e 6723 703e
000001b0: 5ffb 463e 8ee2 dfbe 8ea4 673e 951c a9bd
000001c0: ef12 203e bb85 563d 0fab 64be 8bb7 c03d
000001d0: 5ba2 06be 2ac3 b13e 2655 cd3e d6fb 61bd
000001e0: 439d 593c 460f eabc c143 9fbd ad1d 0e3f
000001f0: 1ec5 0d3f 25ea 61bf 4ae5 06be ac10 593e
00000200: bab0 24be 940a babd f43c ff3b 1b9b 1cbe
00000210: e90c b73b dd12 aebd 93f5 483d f7a1 06c0
00000220: 5708 e63c c47b 863e 255b 0c3d 6799 99bf
00000230: 178e 313e 678e 143e e5ad f63e a7aa 503d
00000240: b5a0 543f c17f 303f ec06 e03e 460c 1f3f
00000250: 1315 2dbe 8ff6 15be 4c16 f0bd 93ce 743d
00000260: f0b0 e2bd a06f 1cbb a760 cf3e 145e 62bf
00000270: 1218 abbc e0f2 2abd 408f f8bf 8ef6 c4bd
00000280: 5a65 b4be 60c5 b53e d6ad 0d3f 9080 aa3d
00000290: f2d8 8a3e 4473 5e3e 7afb 8c3e 08ce 6e3d
000002a0: c819 f3be 4e43 12c0 9d03 febb 6250 333e
000002b0: 5d85 193f d718 06bd 2740 b9bc 5588 43bd
000002c0: f85f bc3d b9e8 34bd 1c6f ccbd 317c 8f3d
000002d0: 1a53 833e 45fd b53b 4961 2c3e 8306 3f3e
000002e0: 6420 2f3f 4eb6 983d 8981 e0bc 30c3 2dbe
000002f0: 777c 323e bcd4 e1bc 8bf9 c4be e408 dabd
00000300: fcdf d7be a834 4a3e ce2d fe3e 8b1b 613c
00000310: 05bf c23e 4466 adbd 10ba 3b3e 9221 05c0
00000320: d987 873e 2dad bcbe 8e9a 98bd 096f 4bbe
00000330: 9b54 34bc baea 2bbd 8fe5 23be 4dc3 7c3b
00000340: a2ca fa3d a370 d93c 23a9 3ebf 0b9c 3cbe
00000350: 7df7 5c3e c594 c0bd d1b4 f3be 7596 80bd
00000360: c4e1 d3bd 4e7d 333e 1bf9 19bd 7359 ca3d
00000370: d616 8fbf b69b 78bf 4572 9e3e ed95 fcbf
00000380: ac88 d83e 6737 46bc 35b3 473b d3c5 853c
00000390: bb69 043e 7e66 7c3e c0b8 ba3e cf8b 383e
000003a0: a699 a83d 6933 27be 702e 30c0 1a57 3cbd
000003b0: b699 453e 1bff 09bd 7c6a 383e 796d ff3d
000003c0: 9940 0ebe fe2a 993d a481 9bbf 811e be3c
000003d0: ab9f dc3c ba2a 233f 4512 b4bc f7ec ab3e
000003e0: 7429 ddbe 1ed1 b8bd 5bb5 18bd 27cf 0dc0
000003f0: 3400 babc 0b6d 69ba 0b7e 553c 79ed 01bd
0.46423 -1.765978 0.15524921 0.18442602 0.12353729 0.05770366 -0.07707499 0.109502435
0.08844736 -0.030621711 -0.08366355 -0.08738031 -0.030282095 -0.05462168 -0.2130901 0.013519533
0.0148671195 0.6022064 0.07450716 0.48700997 0.118194856 0.14855205 0.31639865 -0.27314493
-0.22733131 0.045697168 -0.024566693 -0.07545601 0.17332204 0.20236482 0.19567768 -0.058835104
0.18868455 -0.025236962 0.35118103 -0.03432104 -1.6704267 0.44759557 0.46384043 0.29670554
0.13174906 -0.009132368 -0.50772446 0.021323115 -0.06831655 0.059077516 -0.009387093 -0.04044749
-0.19922088 0.10134118 -0.028173478 0.055231106 0.45883638 -0.071807206 -0.014975981 -0.012789655
-0.052542437 0.005695546 0.18682963 0.39398703 0.00036323868 0.36057466 0.38591236 -0.06012691
0.14251764 -0.5437942 -0.8264416 0.11229571 -0.56846285 -0.10589826 -0.6980832 6.923294e-05
0.111566134 -0.015175952 0.14789864 0.61100966 -0.033104 0.012664181 0.11493157 -0.52507424
-0.092678815 -1.5369816 0.15897736 0.47974122 -0.72458565 -0.08962537 0.12490775 0.056633983
0.42452443 -0.2064716 0.30118686 0.12633052 0.14346743 -0.063466676 -0.09035286 0.13120964
0.025507513 -0.08008656 0.09381522 -0.18451346 -0.037588213 0.103913926 -0.84416074 0.1503829
-0.09339568 -0.062220816 0.40325555 0.23451005 0.19431828 -0.43727535 0.22621366 -0.08257405
0.15632223 0.05237363 -0.22330879 0.09410008 -0.13147871 0.3471921 0.40104026 -0.05517181
0.013282123 -0.028571736 -0.07776595 0.5551403 0.553789 -0.882479 -0.13173404 0.21197766
-0.16083041 -0.09084049 0.0077892486 -0.15293543 0.005586256 -0.08499692 0.049062323 -2.1036355
0.028080149 0.262663 0.03426661 -1.199994 0.17339359 0.14507447 0.48179546 0.050943997
0.8305772 0.68944937 0.4375528 0.621281 -0.1690257 -0.14644836 -0.11723003 0.059767317
-0.110689044 -0.0023870245 0.40503427 -0.884248 -0.020885501 -0.04173553 -1.9418716 -0.09617339
-0.35233575 0.35502148 0.5534338 0.083253026 0.2711864 0.21723658 0.2753561 0.058301955
-0.47480607 -2.285358 -0.0077518956 0.17511132 0.5996912 -0.032738533 -0.022613598 -0.04773744
0.09197992 -0.044167254 -0.0998213 0.070061095 0.2564934 0.0055538737 0.16833986 0.18654828
0.684088 0.07456647 -0.027405517 -0.1696899 0.17430292 -0.02756726 -0.38471636 -0.10646227
-0.42163074 0.1974665 0.4964432 0.013739477 0.3803636 -0.08466771 0.18332696 -2.080174
0.2647083 -0.36850873 -0.07451354 -0.19866575 -0.0110065 -0.0419719 -0.16005538 0.0038568557
0.122456804 0.026542967 -0.7447683 -0.184189 0.21578784 -0.094033755 -0.4759889 -0.062786974
-0.10345796 0.17528269 -0.03759108 0.09880342 -1.1178844 -0.97112596 0.30946556 -1.9733254
0.42291772 -0.01209817 0.0030471806 0.016329682 0.12930958 0.24648473 0.36469078 0.18022083
0.08232431 -0.16328205 -2.7528343 -0.045981504 0.19296917 -0.033690553 0.1800937 0.12472052
-0.1389183 0.07478903 -1.2148938 0.023207905 0.026931604 0.6373707 -0.021981368 0.33579227
-0.4319569 -0.09024261 -0.03728233 -2.2157686 -0.022705175 -0.00089044933 0.013030539 -0.031720612

layers.0.ff.linear2.bias f4 [64]
00000000: c791 7bbd ea1e 6c3d a40b 88bd cd9c 983d
00000010: 1fe0 7a3d 8f9b c13d 2f78 51be 6275 88bd
00000020: a544 3dbf 6d99 89bd 3b53 91bd 6a68 31be
00000030: d131 86bd cfd7 86bd c505 01bd 20eb 5e3d
00000040: 8827 063e d844 86bd 25fe 81bd 4ed3 783d
00000050: 5398 a43d 5e10 743d e7af 813d c9da 85bd
00000060: dede 8abd a689 a7be f956 83bd 95d0 b5bd
00000070: 950b 733d 1ab9 debe 4980 783d 65b5 763d
00000080: 99cc a63d 6a4f 21be 8072 36bd 304b a1be
00000090: 3ea8 7a3d 3a34 dfbd e284 86bd cd01 7a3d
000000a0: c63a 89bc d83d 88bd dc40 733d 663e 49bb
000000b0: 23a8 89be bcff 86bd 6a01 ae3c 33af 55bd
000000c0: 9f34 88bd f77f 89bd a3bb 4a3d 72ad 733d
000000d0: 8331 9cbe eaf1 7a3d 709f e13c 7853 6f3d
000000e0: 7785 a6bc 5bab 85bd 5861 503d 0914 87bd
000000f0: d8c3 85bd ef9e f53c 589d 7f3d 00e8 b6bc
-0.06141832 0.05764667 -0.06642845 0.074517824 0.061248895 0.094534986 -0.20456003 -0.06663014
-0.7393287 -0.06718717 -0.07095953 -0.17324987 -0.065524705 -0.06584131 -0.031499643 0.05442345
0.13101017 -0.065561 -0.06347302 0.06074839 0.08036866 0.05958592 0.06332379 -0.065358706
-0.0678079 -0.32722205 -0.06413073 -0.088776745 0.059337217 -0.43500596 0.060669217 0.060231585
0.08144493 -0.1575295 -0.04454279 -0.31502676 0.061195605 -0.10898633 -0.06568314 0.061036874
-0.016751658 -0.06652421 0.059388027 -0.0030707358 -0.2688609 -0.06591746 0.021240909 -0.052169036
-0.06650662 -0.067138605 0.04949535 0.059491582 -0.30506524 0.061265863 0.027541846 0.05842921
-0.020327313 -0.06526824 0.050874084 -0.06595618 -0.06531495 0.029983012 0.062405914 -0.022327423

layers.0.norm1.weight f4 [64]
00000000: b19c 843f f444 833f 79b8 843f 76db 833f
00000010: 4b0f 823f 580c 733f 8eb4 833f da53 833f
00000020: 47f8 823f 1a99 933f 6f04 973f 3ae1 7d3f
00000030: 102e 833f 2cf4 7e3f 9fc1 943f bfae 853f
00000040: 57e8 823f 11ab 833f 80da 873f bdc6 813f
00000050: 7203 853f 13ae 833f 8a8d 863f f779 8d3f
00000060: fefd 6c3f a15f 833f 73a1 853f d094 843f
00000070: 9550 853f 86f2 853f 9679 8b3f d428 8a3f
00000080: ffca 6f3f 16f6 7f3f bb53 893f e916 7d3f
00000090: c409 853f 165a 853f 9c14 863f 7e3f 833f
000000a0: 3f87 833f a429 813f 8eba 8d3f a367 863f
000000b0: 111c 813f c639 7e3f 6d49 753f 257c 823f
000000c0: 5840 7a3f 3808 813f ea26 903f 6aaf 803f
000000d0: de89 803f 36b2 823f 2707 833f 8f2e 823f
000000e0: fbac 7e3f 0dfd 5f3f d266 853f 652e 843f
000000f0: 89db 833f cc5a 743f 1507 853f f4c3 693f
1.0360318 1.0255418 1.0368797 1.0301349 1.0160917 0.9494071 1.0289476 1.0259964
1.0232018 1.1531098 1.1798228 0.99171793 1.0248432 0.99591327 1.1621588 1.0443953
1.0227154 1.028658 1.0613556 1.0138775 1.0391676 1.0287498 1.0511944 1.1052846
0.9257506 1.0263559 1.0439895 1.0357914 1.0415217 1.0464637 1.089648 1.079371
0.9366912 0.9998487 1.0728678 0.98863083 1.0393605 1.0418117 1.047504 1.0253751
1.0275649 1.0090833 1.1072557 1.0500377 1.008669 0.99306905 0.95815164 1.0194136
0.9775443 1.0080633 1.1261876 1.0053532 1.0042074 1.0210636 1.0236558 1.0170459
0.994827 0.874955 1.0422003 1.0326658 1.0301372 0.95451045 1.0392786 0.91314626

layers.0.norm1.bias f4 [64]
00000000: 359c 2dbd d115 6a3b b790 a2bc d72f e9bd
00000010: d16f c03d d7ee cb3c 687c de3d 54de 823b
00000020: b5cd 86bc 6829 c73d 620c 6ebd 1294 db3c
00000030: 4a42 38bd d01f 24be 7b82 b33c ece8 31bd
00000040: e3af 3e3d 28ee 0bbe 655d 1d3c 235d b93d
00000050: 7583 ca3d 1442 a73c 409d a83a 8b91 4fbe
00000060: 7e76 6e3e 5d9a 80bd e2fd bc3c c654 dc3d
00000070: 819b c43c c927 0f3e 8cb2 73bc 7f32 563d
00000080: 496b 0ebc e186 76be 08a8 1fbc 1e99 833d
00000090: d97f ed3d aa7d dabd 6bbe 643e 33fc 693d
000000a0: c837 95bd fde5 1a3d 19b6 8fbd 6575 773d
000000b0: a985 39bd 1723 83bc dab5 07bd 1ebe 083e
000000c0: 9786 2f3d 71ed 773e f1fb ce3c 349e c5bc
000000d0: bc1f 493d f257 9abb 5104 0dbe 12df e13b
000000e0: a7f5 89bd df03 41be 1f32 13bd d6bf 0d3e
000000f0: 9d17 233e a41f 813e 9891 f0ba de82 e7bd
-0.0423853 0.003571857 -0.019844396 -0.11386078 0.09396327 0.024894161 0.10863572 0.0039937887
-0.01645551 0.097246945 -0.058117278 0.026804004 -0.044985093 -0.1602776 0.021912804 -0.043435022
0.046554457 -0.13665068 0.0096047865 0.090509675 0.09888355 0.02041725 0.0012864247 -0.20270364
0.23287389 -0.062794425 0.02307028 0.10758357 0.023999931 0.1398002 -0.014874112 0.05229425
-0.008692571 -0.2407489 -0.009744652 0.06425689 0.11596651 -0.106685 0.22338264 0.05712528
-0.0728603 0.03781699 -0.07017154 0.06041469 -0.045293484 -0.016007943 -0.03313241 0.13353774
0.042852964 0.2421167 0.02526662 -0.024123289 0.04910253 -0.004710191 -0.13771178 0.006893047
-0.067363076 -0.18849133 -0.03593647 0.13842711 0.15926977 0.25219452 -0.0018353937 -0.11304258

layers.0.norm2.weight f4 [64]
00000000: 89a4 a03f 2f30 603f 8259 923f 822d 903f
00000010: 5fc1 893f 6c55 a73f 8bbd 903f bd6d ba3f
00000020: 9437 8a3f e3dc 4c3f eb78 8d3f 1243 ac3f
00000030: d6cb 8c3f 8b53 953f e2aa 943f cf09 7c3f
00000040: 1a84 873f 3ee0 9a3f 84c8 823f 167e 933f
00000050: 7a21 ac3f ac77 763f b7af 643f f2b7 973f
00000060: 82f8 5a3f 696b 763f 3d52 573f d524 a03f
00000070: f956 b43f 8954 913f d8b1 863f d4ba 6d3f
00000080: 77c0 823f d4e7 ac3f b581 983f 7666 a33f
00000090: d4b4 773f ffbd 843f ddf3 923f f026 643f
000000a0: 3a43 a53f a5ee 863f 9ea2 7f3f e7d9 883f
000000b0: a44d 693f fc9a 6e3f 30c9 753f 7c91 b13f
000000c0: a622 953f fec7 a33f d962 913f 1fe9 823f
000000d0: 1d2b a13f d606 9c3f 7b42 9c3f 3e19 853f
000000e0: d714 673f cd26 8c3f 4395 9e3f b420 9d3f
000000f0: 8b45 703f 5f77 7e3f 1cc5 7a3f f9e1 ad3f
1.2550212 0.8757352 1.1433566 1.1263888 1.0762137 1.3072944 1.1307844 1.456474
1.0798211 0.80024546 1.1052526 1.3457968 1.0999706 1.166612 1.1614649 0.98452467
1.0587189 1.2099683 1.0217443 1.1522853 1.3447716 0.96276355 0.8933062 1.1853011
0.8553544 0.96257645 0.8410986 1.251124 1.4089042 1.1353923 1.0523024 0.928632
1.0214986 1.3508248 1.1914583 1.2765644 0.96760297 1.0370482 1.1480671 0.89121914
1.2911141 1.0541579 0.9985751 1.0691499 0.91134095 0.9320524 0.9601011 1.3872523
1.1651199 1.2795408 1.1358291 1.0227393 1.2591282 1.2189586 1.2207788 1.0398328
0.90266174 1.0949341 1.2389301 1.2275605 0.93856114 0.99400896 0.97957015 1.3584586

layers.0.norm2.bias f4 [64]
00000000: 3722 433e 0d07 acbe d10d 6ebe 7782 84be
00000010: 1612 503e e72d 0dbd 99d2 2fbe 37eb 8f3e
00000020: 2439 12be b7f8 e3be e246 7d3e 0e3b a5be
00000030: 770d e83e 7830 d83d 78ac 3cbe 40d4 973e
00000040: d884 8cbe 8133 2dbf 7489 3dbf 9e63 d6bd
00000050: 2d08 173e a092 09be 5fe0 5a3e cc32 b73e
00000060: 1abd c3be 9378 f83d 56a1 da3d 7db4 fdbd
00000070: d0ab 41bf 5070 863d e2c6 2c3e b25c c0bd
00000080: a7e3 a23e 8c57 433c d2b0 123e 4e57 38be
00000090: 52b9 953e 1913 2e3e db95 e53c c747 683e
000000a0: 0c21 7fbd 0a75 2cbd ea33 69be 1d09 db3d
000000b0: c541 ea3c d44d 20be edc5 fc3d 93ad d53d
000000c0: b1d1 973e f2db cebe ceea 2cbe 8544 59bd
000000d0: bf03 e0be cc28 3f3e 94a3 af3e 4a26 873e
000000e0: a240 8b3d a043 d83e d53c 1b3e 8051 fabe
000000f0: 1a2e ac3d 6941 08be 78de 3a3e a45a cb3e
0.1905602 -0.3359913 -0.23247458 -0.25880787 0.20319399 -0.034467604 -0.1717018 0.28109142
-0.1427961 -0.44525692 0.24734071 -0.32271618 0.45322773 0.1055612 -0.18425167 0.2965412
-0.27445102 -0.67656714 -0.7403786 -0.10468219 0.14749213 -0.13434839 0.21374653 0.35780942
-0.3823021 0.12132373 0.10675304 -0.12387941 -0.7565279 0.06564391 0.16872743 -0.0939268
0.3181431 0.011922728 0.14325264 -0.18002054 0.2924295 0.16999473 0.028025558 0.22683631
-0.062287375 -0.042103805 -0.2277371 0.106950976 0.028595814 -0.15654689 0.12342439 0.10433497
0.2965217 -0.4040218 -0.16886446 -0.05304386 -0.43752858 0.18667907 0.34304488 0.263964
0.06799437 0.42239094 0.15159924 -0.48890305 0.08407231 -0.13306202 0.18248928 0.3971759

head.weight f4 [2, 64]
00000000: b48e a1be 2e4b 103e a325 babd a91a 453e
00000010: 28e2 643e fea2 483e 29a3 1dbd ef83 4dbd
00000020: 69ce 50be 5a65 fabd df29 b5be 5fc1 6fbd
00000030: 80c3 823d 6577 cbbe 5826 01be bd60 d53e
00000040: 085e ca3e 0c8d 9dbe 7743 84be 649c ab3e
00000050: 992d f73e d58d 293e 4d14 1c3e 4469 b1be
00000060: c8a2 34bd f860 39bd 22ee 4ebe 8369 a8be
00000070: 27b8 1a3e f64f d93e 878e c13d fd50 1e3e
00000080: 55e4 bf3e 25dd 743e d09b c3be 10c4 0bbe
00000090: 735e 7f3e 46af 86be 0b6c 05bd 4b50 a53e
000000a0: 6f7b 96be 0dbb 8dbd e728 993e fd7c 013d
000000b0: 9ff0 bd3e d8a8 0ebe d1ac c23e bf48 53be
000000c0: 43c4 ddbd d69f e4bc ea7d db3e 1b56 733e
000000d0: 3368 16be 5e35 923e a2ca afbe 9930 c43e
000000e0: aa55 153e a02f 52be 20b4 543e 1ca5 3abe
000000f0: d1a1 5ebe 3d47 8a3e 28f7 b13e fed9 05bf
00000100: d0fa 5b3e 6786 c7bd 3b39 c63e 3093 e3be
00000110: e0c0 69be 067c 2cbe 632b 8fbe aa8d a53e
00000120: 98fa d83e b8ae 3d3e 70d1 2f3d 8293 bcbe
00000130: 5a6c e63e 34a0 0e3e 2180 0d3e 7c2b 313e
00000140: 7f90 833c efaa 2c3e bd44 ca3d a35e 8fbe
00000150: 5efa acbd 7854 58be 6aa2 edbe fae1 0a3e
00000160: deaf b73e 51c2 693e bdca 4e3e 20a9 80bd
00000170: d06b 54be e5bb afbc ec1f d4be 2f72 8cbe
00000180: 88ab 7f3c dc45 c8be da18 2d3e 0f90 3d3e
00000190: dbf7 93be 827f 2fbc a88e d23e 2c2d 82be
000001a0: bdb7 443e 822f e23e 3364 02be d077 f53e
000001b0: bdd1 27bd 034c 913e acb9 40be 8b39 833e
000001c0: 8667 9f3e 8531 853e 48e4 a23c b986 92be
000001d0: ee87 743e 1bc9 febe b300 043e 7684 aebd
000001e0: ac41 f2be c08f be3e 9454 e8be 5727 7b3e
000001f0: eec6 ab3e 0cbd 51be 4390 d0be 6313 013e
-0.31554186 0.14091179 -0.0908921 0.19248451 0.22351897 0.19593427 -0.03848568 -0.05017465
-0.20391239 -0.122263625 -0.35383508 -0.058534022 0.06384945 -0.39739528 -0.12612283 0.41675368
0.39524865 -0.30771673 -0.25832722 0.33517754 0.48276976 0.16558011 0.15242119 -0.34650624
-0.044100553 -0.045258492 -0.20208028 -0.32893 0.15109311 0.42443818 0.09451013 0.15460582
0.3747889 0.23912485 -0.38204813 -0.1364901 0.24938373 -0.26305598 -0.03257374 0.3228782
-0.29391047 -0.06920443 0.2991402 0.03161334 0.37097642 -0.13931596 0.38022473 -0.20633219
-0.108284496 -0.027908247 0.42869502 0.23763315 -0.14688186 0.2855634 -0.34334284 0.38318327
0.1458346 -0.2052598 0.20771837 -0.18227047 -0.21741416 0.27007475 0.34758878 -0.52285755
0.21482396 -0.09742432 0.38715538 -0.44448233 -0.22827482 -0.16844186 -0.2796279 0.32334644
0.42378688 0.18523681 0.042924345 -0.3683129 0.4500454 0.139283 0.13818409 0.17301744
0.016060112 0.16862081 0.09876392 -0.2800189 -0.08446191 -0.21125972 -0.46412975 0.13562766
0.35876364 0.22828032 0.20194526 -0.06282258 -0.20744252 -0.0214519 -0.41430604 -0.27430865
0.015604861 -0.39115798 0.16904011 0.18511985 -0.28900036 -0.010711553 0.41124463 -0.25425088
0.19210716 0.4417687 -0.12733535 0.47942972 -0.040971506 0.28378305 -0.18820828 0.2562984
0.3113367 0.26014343 0.019884244 -0.2861841 0.23879978 -0.49762806 0.12890892 -0.08521359
-0.4731573 0.37219048 -0.45377028 0.24526726 0.3355021 -0.20482272 -0.40735063 0.12605052

head.bias f4 [2]
00000000: 8c42 803d 826b 80bd
0.06262693 -0.062705055
