spectf_cloud/weights/v0.1.0/model_no_bandcat_bf16.onnx (onnx, 59356 bytes, 19 tensors)

spectral_embed.linear.bias bf16 [64]
0.011108398 0.028808594 -0.00074386597 -0.0026550293 -0.015258789 -0.016357422 -0.031982422 -0.011352539
0.015991211 -0.012451172 -0.0087890625 -0.012207031 0.0015029907 0.024169922 -0.0025024414 -0.0045166016
-0.0051574707 0.020385742 -0.006958008 -0.02331543 0.020141602 0.0019836426 -0.096191406 0.020141602
-0.010864258 0.024780273 -0.024291992 0.002319336 -0.00579834 -0.0062561035 0.033935547 -0.008422852
-0.000415802 0.011352539 0.032226562 -0.010864258 -0.019042969 0.003616333 -0.036376953 8.6307526e-05
0.028564453 0.010559082 -0.0043945312 0.035888672 -0.0073547363 0.008422852 0.0017242432 -0.02709961
0.024536133 -0.0033416748 -0.0046691895 -0.00074005127 0.022216797 -0.002670288 -0.009399414 0.009460449
-0.0018310547 0.0060424805 0.018920898 -0.0063171387 -0.0008544922 -0.00032043457 0.009338379 -0.0126953125
00000000: 363c ec3c 43ba 2ebb 7abc 86bc 03bd 3abc
00000010: 833c 4cbc 10bc 48bc c53a c63c 24bb 94bb
00000020: a9bb a73c e4bb bfbc a53c 023b c5bd a53c
00000030: 32bc cb3c c7bc 183b bebb cdbb 0b3d 0abc
00000040: dab9 3a3c 043d 32bc 9cbc 6d3b 15bd b538
00000050: ea3c 2d3c 90bb 133d f1bb 0a3c e23a debc
00000060: c93c 5bbb 99bb 42ba b63c 2fbb 1abc 1b3c
00000070: f0ba c63b 9b3c cfbb 60ba a8b9 193c 50bc

layers.0.attention.attention.out_proj.weight bf16 [64, 64]
0.057617188 0.19726562 -0.15527344 0.059814453 0.13671875 0.0072631836 0.015197754 0.2890625
-0.047607422 0.016357422 0.15039062 -0.09326172 0.010803223 0.060546875 0.234375 0.103515625
0.026611328 -0.044921875 0.19335938 0.23828125 0.05517578 0.025756836 -0.15722656 0.23632812
-0.26953125 -0.088378906 0.18847656 -0.14453125 0.03540039 -0.04345703 -0.19238281 0.038330078
0.011047363 -0.1640625 0.055419922 0.044189453 -0.11767578 0.07324219 -0.010864258 -0.068847656
0.16015625 0.05078125 -0.020263672 -0.08886719 0.041992188 -0.1640625 0.064453125 -0.012817383
0.06933594 0.011291504 -0.21972656 -0.13964844 -0.1953125 -0.019042969 0.13769531 0.09033203
0.12695312 -0.045898438 -0.029052734 0.08544922 -0.03125 -0.12695312 0.07861328 -0.14355469
0.07470703 0.010498047 0.028686523 -0.060791016 0.23632812 -0.037597656 0.045654297 0.07128906
-0.24023438 -0.033447266 -0.13574219 0.21289062 -0.35351562 0.13867188 0.08984375 0.056640625
0.17285156 -0.20507812 -0.14941406 0.12060547 -0.15332031 -0.053955078 0.16992188 -0.02722168
-0.27929688 -0.028564453 0.056396484 0.13671875 -8.1539154e-05 -0.17578125 0.11621094 0.23242188
-0.12695312 -0.16503906 -0.38476562 -0.060302734 -0.24902344 0.40625 -0.037109375 -0.030517578
0.007293701 -0.06982422 -0.12988281 -0.040283203 -0.00015640259 -0.15527344 -0.21972656 0.028320312
0.15722656 -0.052001953 0.15820312 0.20214844 -0.14648438 0.072753906 -0.171875 0.21972656
0.048339844 0.30859375 0.016967773 -0.020141602 -0.115234375 0.20898438 -0.1640625 -0.21582031
-0.067871094 -0.23046875 -0.07470703 0.12988281 0.05444336 0.07324219 -0.103027344 0.07470703
0.004180908 -0.13671875 0.091308594 0.14648438 0.13378906 -0.20996094 0.00793457 0.18652344
-0.079589844 0.19628906 0.014770508 -0.14355469 0.08300781 0.047607422 0.059570312 0.0625
0.056396484 0.07080078 0.099121094 -0.16601562 -0.048583984 -0.0012207031 0.11328125 0.061035156
-0.103027344 -0.092285156 -0.09326172 -0.092285156 0.13378906 0.15527344 0.12060547 -0.04321289
0.005432129 -0.15625 0.15332031 -0.06298828 -0.099609375 -0.09472656 0.00982666 0.0546875
-0.2109375 0.13769531 -0.013000488 0.07861328 -0.13378906 0.0054626465 0.19140625 0.23535156
-0.103027344 -0.048339844 -0.049316406 -0.018798828 0.15820312 -0.022827148 -0.18066406 0.055908203
0.067871094 -0.203125 -0.11767578 0.13378906 -0.17578125 0.17578125 0.25976562 -0.16796875
-0.24414062 -0.21875 0.0703125 -0.072753906 0.061035156 0.15820312 -0.140625 -0.029663086
0.26953125 0.08154297 -0.10888672 -0.018188477 0.12695312 0.055664062 0.14648438 -0.00050354004
-0.013549805 0.003829956 -0.14355469 -0.17089844 0.24414062 -0.008850098 -0.15429688 0.07910156
0.025756836 -0.18554688 -0.032470703 -0.00289917 -0.18945312 -0.20410156 0.012573242 0.111328125
-0.1796875 0.22363281 0.04736328 0.234375 -0.13867188 0.053710938 0.14550781 0.119140625
0.006286621 0.087890625 0.14550781 -0.1015625 0.08691406 -0.08105469 0.125 -0.10888672
-0.11230469 0.23632812 -0.265625 0.10888672 0.012207031 0.40234375 0.18261719 0.076660156
00000000: 6c3d 4a3e 1fbe 753d 0c3e ee3b 793c 943e
00000010: 43bd 863c 1a3e bfbd 313c 783d 703e d43d
00000020: da3c 38bd 463e 743e 623d d33c 21be 723e
00000030: 8abe b5bd 413e 14be 113d 32bd 45be 1d3d
00000040: 353c 28be 633d 353d f1bd 963d 32bc 8dbd
00000050: 243e 503d a6bc b6bd 2c3d 28be 843d 52bc
00000060: 8e3d 393c 61be 0fbe 48be 9cbc 0d3e b93d
00000070: 023e 3cbd eebc af3d 00bd 02be a13d 13be
00000080: 993d 2c3c eb3c 79bd 723e 1abd 3b3d 923d
00000090: 76be 09bd 0bbe 5a3e b5be 0e3e b83d 683d
000000a0: 313e 52be 19be f73d 1dbe 5dbd 2e3e dfbc
000000b0: 8fbe eabc 673d 0c3e abb8 34be ee3d 6e3e
000000c0: 02be 29be c5be 77bd 7fbe d03e 18bd fabc
000000d0: ef3b 8fbd 05be 25bd 24b9 1fbe 61be e83c
000000e0: 213e 55bd 223e 4f3e 16be 953d 30be 613e
000000f0: 463d 9e3e 8b3c a5bc ecbd 563e 28be 5dbe
00000100: 8bbd 6cbe 99bd 053e 5f3d 963d d3bd 993d
00000110: 893b 0cbe bb3d 163e 093e 57be 023c 3f3e
00000120: a3bd 493e 723c 13be aa3d 433d 743d 803d
00000130: 673d 913d cb3d 2abe 47bd a0ba e83d 7a3d
00000140: d3bd bdbd bfbd bdbd 093e 1f3e f73d 31bd
00000150: b23b 20be 1d3e 81bd ccbd c2bd 213c 603d
00000160: 58be 0d3e 55bc a13d 09be b33b 443e 713e
00000170: d3bd 46bd 4abd 9abc 223e bbbc 39be 653d
00000180: 8b3d 50be f1bd 093e 34be 343e 853e 2cbe
00000190: 7abe 60be 903d 95bd 7a3d 223e 10be f3bc
000001a0: 8a3e a73d dfbd 95bc 023e 643d 163e 04ba
000001b0: 5ebc 7b3b 13be 2fbe 7a3e 11bc 1ebe a23d
000001c0: d33c 3ebe 05bd 3ebb 42be 51be 4e3c e43d
000001d0: 38be 653e 423d 703e 0ebe 5c3d 153e f43d
000001e0: ce3b b43d 153e d0bd b23d a6bd 003e dfbd
000001f0: e6bd 723e 88be df3d 483c ce3e 3b3e 9d3d

layers.0.attention.attention.out_proj.bias bf16 [64]
0.049804688 -0.03125 -0.053955078 0.038085938 0.02734375 -0.025878906 -0.037353516 0.01574707
-0.021362305 0.103027344 0.05419922 -0.08154297 0.007385254 -0.053222656 0.026245117 0.09423828
0.13867188 0.05078125 -0.20507812 0.0018310547 -0.004211426 0.05834961 -0.022216797 0.029418945
-0.008178711 0.15917969 -0.039794922 -0.014282227 -0.0095825195 -0.002822876 -0.0023040771 0.0019836426
-0.0063476562 -0.0046691895 0.024047852 -0.079589844 0.041748047 0.0054626465 -0.013427734 -0.10546875
-0.0058288574 -0.09863281 0.051513672 -0.050048828 0.009643555 0.044189453 0.027709961 0.05908203
0.107421875 0.05102539 0.051513672 0.02319336 -0.010131836 0.03857422 0.059814453 -0.14746094
-0.0003566742 -0.050048828 -0.07714844 -0.018432617 -0.055908203 0.076660156 0.08496094 -0.0154418945
00000000: 4c3d 00bd 5dbd 1c3d e03c d4bc 19bd 813c
00000010: afbc d33d 5e3d a7bd f23b 5abd d73c c13d
00000020: 0e3e 503d 52be f03a 8abb 6f3d b6bc f13c
00000030: 06bc 233e 23bd 6abc 1dbc 39bb 17bb 023b
00000040: d0bb 99bb c53c a3bd 2b3d b33b 5cbc d8bd
00000050: bfbb cabd 533d 4dbd 1e3c 353d e33c 723d
00000060: dc3d 513d 533d be3c 26bc 1e3d 753d 17be
00000070: bbb9 4dbd 9ebd 97bc 65bd 9d3d ae3d 7dbc

layers.0.ff.linear1.bias bf16 [64]
-0.30859375 -0.19824219 -0.1640625 -0.22851562 -0.30273438 -0.43164062 -0.34570312 -0.5390625
-0.18554688 -0.46289062 -0.44335938 -0.19628906 -0.34765625 -0.14453125 -0.4453125 -0.07861328
-0.4921875 -0.40625 -0.1640625 -0.27734375 -0.51171875 -0.48242188 -0.38085938 -0.296875
-0.37695312 -0.47851562 -0.29101562 -0.63671875 -0.41015625 -0.24902344 -0.39453125 -0.25195312
-0.28710938 -0.13671875 -0.66796875 -0.19335938 -0.23046875 -0.2890625 -0.6875 -0.67578125
-0.4140625 -0.41601562 -0.37109375 -0.484375 -0.18554688 -0.111816406 -0.33789062 -0.52734375
-0.25195312 -0.54296875 -0.46289062 -0.29882812 -0.24609375 -0.17871094 -0.33398438 -0.734375
-0.43164062 -0.31054688 -0.31835938 -0.3359375 -0.25976562 -0.34960938 -0.5078125 -0.30664062
00000000: 9ebe 4bbe 28be 6abe 9bbe ddbe b1be 0abf
00000010: 3ebe edbe e3be 49be b2be 14be e4be a1bd
00000020: fcbe d0be 28be 8ebe 03bf f7be c3be 98be
00000030: c1be f5be 95be 23bf d2be 7fbe cabe 81be
00000040: 93be 0cbe 2bbf 46be 6cbe 94be 30bf 2dbf
00000050: d4be d5be bebe f8be 3ebe e5bd adbe 07bf
00000060: 81be 0bbf edbe 99be 7cbe 37be abbe 3cbf
00000070: ddbe 9fbe a3be acbe 85be b3be 02bf 9dbe

layers.0.ff.linear2.bias bf16 [64]
-0.061523438 0.057617188 -0.06640625 0.07470703 0.061279297 0.09472656 -0.20410156 -0.06640625
-0.73828125 -0.06738281 -0.07080078 -0.17285156 -0.06542969 -0.06591797 -0.03149414 0.05444336
0.13085938 -0.06542969 -0.06347656 0.060791016 0.080566406 0.059570312 0.06347656 -0.06542969
-0.067871094 -0.328125 -0.063964844 -0.08886719 0.059326172 -0.43554688 0.060791016 0.060302734
0.08154297 -0.15722656 -0.044433594 -0.31445312 0.061279297 -0.10888672 -0.06591797 0.061035156
-0.016723633 -0.06640625 0.059326172 -0.0030670166 -0.26953125 -0.06591797 0.021240234 -0.052246094
-0.06640625 -0.06689453 0.049560547 0.059570312 -0.3046875 0.061279297 0.02758789 0.05834961
-0.020385742 -0.06542969 0.05078125 -0.06591797 -0.06542969 0.030029297 0.0625 -0.022338867
00000000: 7cbd 6c3d 88bd 993d 7b3d c23d 51be 88bd
00000010: 3dbf 8abd 91bd 31be 86bd 87bd 01bd 5f3d
00000020: 063e 86bd 82bd 793d a53d 743d 823d 86bd
00000030: 8bbd a8be 83bd b6bd 733d dfbe 793d 773d
00000040: a73d 21be 36bd a1be 7b3d dfbd 87bd 7a3d
00000050: 89bc 88bd 733d 49bb 8abe 87bd ae3c 56bd
00000060: 88bd 89bd 4b3d 743d 9cbe 7b3d e23c 6f3d
00000070: a7bc 86bd 503d 87bd 86bd f63c 803d b7bc

layers.0.norm1.weight bf16 [64]
1.0390625 1.0234375 1.0390625 1.03125 1.015625 0.94921875 1.03125 1.0234375
1.0234375 1.15625 1.1796875 0.9921875 1.0234375 0.99609375 1.1640625 1.046875
1.0234375 1.03125 1.0625 1.015625 1.0390625 1.03125 1.0546875 1.1015625
0.92578125 1.0234375 1.046875 1.0390625 1.0390625 1.046875 1.0859375 1.078125
0.9375 1.0 1.0703125 0.98828125 1.0390625 1.0390625 1.046875 1.0234375
1.03125 1.0078125 1.109375 1.046875 1.0078125 0.9921875 0.95703125 1.015625
0.9765625 1.0078125 1.125 1.0078125 1.0078125 1.0234375 1.0234375 1.015625
0.99609375 0.875 1.0390625 1.03125 1.03125 0.953125 1.0390625 0.9140625
00000000: 853f 833f 853f 843f 823f 733f 843f 833f
00000010: 833f 943f 973f 7e3f 833f 7f3f 953f 863f
00000020: 833f 843f 883f 823f 853f 843f 873f 8d3f
00000030: 6d3f 833f 863f 853f 853f 863f 8b3f 8a3f
00000040: 703f 803f 893f 7d3f 853f 853f 863f 833f
00000050: 843f 813f 8e3f 863f 813f 7e3f 753f 823f
00000060: 7a3f 813f 903f 813f 813f 833f 833f 823f
00000070: 7f3f 603f 853f 843f 843f 743f 853f 6a3f

layers.0.norm1.bias bf16 [64]
-0.04248047 0.0035705566 -0.019897461 -0.11376953 0.09375 0.024902344 0.10839844 0.0039978027
-0.016479492 0.09716797 -0.05810547 0.026855469 -0.044921875 -0.16015625 0.021972656 -0.04345703
0.04663086 -0.13671875 0.0095825195 0.09033203 0.099121094 0.020385742 0.0012893677 -0.203125
0.23242188 -0.06298828 0.023071289 0.107421875 0.024047852 0.13964844 -0.014892578 0.052246094
-0.008666992 -0.24121094 -0.009765625 0.064453125 0.115722656 -0.10644531 0.22363281 0.057128906
-0.072753906 0.037841797 -0.0703125 0.060302734 -0.045410156 -0.015991211 -0.033203125 0.13378906
0.04296875 0.2421875 0.025268555 -0.024169922 0.049072266 -0.004699707 -0.13769531 0.0068969727
-0.06738281 -0.18847656 -0.035888672 0.13867188 0.15917969 0.25195312 -0.0018386841 -0.11328125
00000000: 2ebd 6a3b a3bc e9bd c03d cc3c de3d 833b
00000010: 87bc c73d 6ebd dc3c 38bd 24be b43c 32bd
00000020: 3f3d 0cbe 1d3c b93d cb3d a73c a93a 50be
00000030: 6e3e 81bd bd3c dc3d c53c 0f3e 74bc 563d
00000040: 0ebc 77be 20bc 843d ed3d dabd 653e 6a3d
00000050: 95bd 1b3d 90bd 773d 3abd 83bc 08bd 093e
00000060: 303d 783e cf3c c6bc 493d 9abb 0dbe e23b
00000070: 8abd 41be 13bd 0e3e 233e 813e f1ba e8bd

layers.0.norm2.weight bf16 [64]
1.2578125 0.875 1.140625 1.125 1.078125 1.3046875 1.1328125 1.453125
1.078125 0.80078125 1.1015625 1.34375 1.1015625 1.1640625 1.1640625 0.984375
1.0625 1.2109375 1.0234375 1.1484375 1.34375 0.9609375 0.89453125 1.1875
0.85546875 0.9609375 0.83984375 1.25 1.40625 1.1328125 1.0546875 0.9296875
1.0234375 1.3515625 1.1953125 1.2734375 0.96875 1.0390625 1.1484375 0.890625
1.2890625 1.0546875 1.0 1.0703125 0.91015625 0.93359375 0.9609375 1.390625
1.1640625 1.28125 1.1328125 1.0234375 1.2578125 1.21875 1.21875 1.0390625
0.90234375 1.09375 1.2421875 1.2265625 0.9375 0.9921875 0.98046875 1.359375
00000000: a13f 603f 923f 903f 8a3f a73f 913f ba3f
00000010: 8a3f 4d3f 8d3f ac3f 8d3f 953f 953f 7c3f
00000020: 883f 9b3f 833f 933f ac3f 763f 653f 983f
00000030: 5b3f 763f 573f a03f b43f 913f 873f 6e3f
00000040: 833f ad3f 993f a33f 783f 853f 933f 643f
00000050: a53f 873f 803f 893f 693f 6f3f 763f b23f
00000060: 953f a43f 913f 833f a13f 9c3f 9c3f 853f
00000070: 673f 8c3f 9f3f 9d3f 703f 7e3f 7b3f ae3f

layers.0.norm2.bias bf16 [64]
0.19042969 -0.3359375 -0.23242188 -0.25976562 0.203125 -0.034423828 -0.171875 0.28125
-0.14257812 -0.4453125 0.24707031 -0.32226562 0.453125 0.10546875 -0.18457031 0.296875
-0.27539062 -0.67578125 -0.7421875 -0.10449219 0.14746094 -0.13476562 0.21386719 0.35742188
-0.3828125 0.12109375 0.106933594 -0.12402344 -0.7578125 0.06542969 0.16894531 -0.09375
0.31835938 0.0119018555 0.14355469 -0.1796875 0.29296875 0.16992188 0.028076172 0.2265625
-0.06225586 -0.041992188 -0.22753906 0.106933594 0.028564453 -0.15625 0.123535156 0.10449219
0.296875 -0.40429688 -0.16894531 -0.052978516 -0.4375 0.18652344 0.34375 0.26367188
0.067871094 0.421875 0.15136719 -0.48828125 0.083984375 -0.1328125 0.18261719 0.39648438
00000000: 433e acbe 6ebe 85be 503e 0dbd 30be 903e
00000010: 12be e4be 7d3e a5be e83e d83d 3dbe 983e
00000020: 8dbe 2dbf 3ebf d6bd 173e 0abe 5b3e b73e
00000030: c4be f83d db3d febd 42bf 863d 2d3e c0bd
00000040: a33e 433c 133e 38be 963e 2e3e e63c 683e
00000050: 7fbd 2cbd 69be db3d ea3c 20be fd3d d63d
00000060: 983e cfbe 2dbe 59bd e0be 3f3e b03e 873e
00000070: 8b3d d83e 1b3e fabe ac3d 08be 3b3e cb3e

head.weight bf16 [2, 64]
-0.31640625 0.140625 -0.09082031 0.19238281 0.22363281 0.19628906 -0.03857422 -0.05029297
-0.20410156 -0.12207031 -0.35351562 -0.05859375 0.063964844 -0.39648438 -0.12597656 0.41601562
0.39453125 -0.30859375 -0.2578125 0.3359375 0.48242188 0.16601562 0.15234375 -0.34570312
-0.044189453 -0.045166016 -0.20214844 -0.328125 0.15136719 0.42382812 0.09472656 0.15429688
0.375 0.23925781 -0.3828125 -0.13671875 0.24902344 -0.26367188 -0.032470703 0.32226562
-0.29296875 -0.06933594 0.29882812 0.03149414 0.37109375 -0.13964844 0.38085938 -0.20605469
-0.10839844 -0.027954102 0.42773438 0.23730469 -0.14648438 0.28515625 -0.34375 0.3828125
0.14550781 -0.20507812 0.20800781 -0.18261719 -0.21777344 0.26953125 0.34765625 -0.5234375
0.21484375 -0.09765625 0.38671875 -0.4453125 -0.22851562 -0.16796875 -0.27929688 0.32421875
0.42382812 0.18554688 0.04296875 -0.36914062 0.44921875 0.13964844 0.13867188 0.17285156
0.016113281 0.16894531 0.09863281 -0.27929688 -0.084472656 -0.2109375 -0.46484375 0.13574219
0.359375 0.22851562 0.20214844 -0.06298828 -0.20703125 -0.021484375 -0.4140625 -0.2734375
0.015625 -0.390625 0.16894531 0.18554688 -0.2890625 -0.010681152 0.41210938 -0.25390625
0.19238281 0.44140625 -0.12695312 0.47851562 -0.041015625 0.28320312 -0.18847656 0.25585938
0.31054688 0.25976562 0.019897461 -0.28710938 0.23925781 -0.49804688 0.12890625 -0.08544922
-0.47265625 0.37304688 -0.453125 0.24511719 0.3359375 -0.20507812 -0.40820312 0.12597656
00000000: a2be 103e babd 453e 653e 493e 1ebd 4ebd
00000010: 51be fabd b5be 70bd 833d cbbe 01be d53e
00000020: ca3e 9ebe 84be ac3e f73e 2a3e 1c3e b1be
00000030: 35bd 39bd 4fbe a8be 1b3e d93e c23d 1e3e
00000040: c03e 753e c4be 0cbe 7f3e 87be 05bd a53e
00000050: 96be 8ebd 993e 013d be3e 0fbe c33e 53be
00000060: debd e5bc db3e 733e 16be 923e b0be c43e
00000070: 153e 52be 553e 3bbe 5fbe 8a3e b23e 06bf
00000080: 5c3e c8bd c63e e4be 6abe 2cbe 8fbe a63e
00000090: d93e 3e3e 303d bdbe e63e 0f3e 0e3e 313e
000000a0: 843c 2d3e ca3d 8fbe adbd 58be eebe 0b3e
000000b0: b83e 6a3e 4f3e 81bd 54be b0bc d4be 8cbe
000000c0: 803c c8be 2d3e 3e3e 94be 2fbc d33e 82be
000000d0: 453e e23e 02be f53e 28bd 913e 41be 833e
000000e0: 9f3e 853e a33c 93be 753e ffbe 043e afbd
000000f0: f2be bf3e e8be 7b3e ac3e 52be d1be 013e

onnx::MatMul_141 bf16 [2, 64]
0.265625 -0.28320312 -0.5078125 0.07861328 -0.02319336 0.21972656 -0.16015625 -0.25
0.20800781 0.39257812 0.46875 0.30273438 -0.020263672 0.022583008 -0.42578125 -0.15429688
0.049804688 0.018676758 0.27929688 0.19433594 0.05102539 0.087402344 -0.18164062 0.37890625
0.015380859 -0.010620117 0.20605469 -0.25976562 -0.1796875 -0.2890625 -0.18457031 0.19824219
0.03112793 -0.20898438 0.67578125 -0.01550293 -0.09765625 0.20996094 -0.047607422 -0.15332031
0.04345703 -0.20996094 0.37695312 0.10986328 0.09716797 0.049560547 -0.09082031 -0.046875
0.30273438 -0.057128906 -0.5078125 -0.390625 -0.18359375 -0.10253906 0.13085938 -0.19921875
0.21972656 0.0072021484 -0.07421875 -0.34765625 0.0023345947 -0.14550781 -0.16894531 0.17773438
0.099121094 -0.09033203 -0.12890625 -0.31835938 0.17089844 0.25976562 0.007385254 -0.107910156
0.18652344 -0.008544922 0.068847656 0.115234375 0.2890625 -0.12597656 0.014953613 0.47265625
-0.13378906 -0.1484375 0.16210938 0.1328125 -0.104003906 -0.6015625 0.033203125 0.012207031
0.12988281 -0.16015625 0.10449219 0.034423828 0.39453125 -0.0703125 -0.018676758 -0.0703125
-0.003189087 0.00025367737 -0.62109375 0.25195312 0.07763672 0.051513672 -0.17285156 -0.08642578
-0.07421875 -0.15332031 0.037841797 0.13671875 0.16699219 -0.052734375 -0.30078125 0.31054688
-0.21972656 0.095703125 -0.06689453 -0.15039062 -0.0546875 -0.15136719 -0.11669922 0.091308594
-0.041259766 0.030395508 -0.06933594 0.09863281 0.14160156 -0.08105469 0.020507812 0.22167969
00000000: 883e 91be 02bf a13d bebc 613e 24be 80be
00000010: 553e c93e f03e 9b3e a6bc b93c dabe 1ebe
00000020: 4c3d 993c 8f3e 473e 513d b33d 3abe c23e
00000030: 7c3c 2ebc 533e 85be 38be 94be 3dbe 4b3e
00000040: ff3c 56be 2d3f 7ebc c8bd 573e 43bd 1dbe
00000050: 323d 57be c13e e13d c73d 4b3d babd 40bd
00000060: 9b3e 6abd 02bf c8be 3cbe d2bd 063e 4cbe
00000070: 613e ec3b 98bd b2be 193b 15be 2dbe 363e
00000080: cb3d b9bd 04be a3be 2f3e 853e f23b ddbd
00000090: 3f3e 0cbc 8d3d ec3d 943e 01be 753c f23e
000000a0: 09be 18be 263e 083e d5bd 1abf 083d 483c
000000b0: 053e 24be d63d 0d3d ca3e 90bd 99bc 90bd
000000c0: 51bb 8539 1fbf 813e 9f3d 533d 31be b1bd
000000d0: 98bd 1dbe 1b3d 0c3e 2b3e 58bd 9abe 9f3e
000000e0: 61be c43d 89bd 1abe 60bd 1bbe efbd bb3d
000000f0: 29bd f93c 8ebd ca3d 113e a6bd a83c 633e

onnx::Add_157 bf16 [64]
-0.026855469 0.05078125 0.032958984 0.06738281 -0.057617188 -0.040771484 -0.064453125 0.09082031
-0.119140625 0.034423828 -0.12207031 0.043701172 0.21875 0.068847656 -0.01965332 0.08203125
-0.061035156 -0.010192871 -0.15625 0.06201172 -0.09863281 -0.07324219 0.16894531 0.24511719
-0.014038086 0.010681152 -0.20898438 -0.049804688 -0.28710938 -0.17480469 0.023925781 -0.07421875
-0.020141602 -0.16308594 0.04321289 0.03466797 0.002090454 0.21582031 -0.048095703 -0.041015625
-0.018188477 -0.01361084 0.10205078 0.026489258 -0.080078125 -0.087402344 0.024414062 -0.29296875
-0.019897461 0.016357422 0.002822876 -0.3359375 0.24902344 0.037841797 0.018798828 0.024047852
0.068359375 0.072753906 0.06225586 0.08642578 -0.578125 -0.21972656 -0.18261719 -0.14355469
00000000: dcbc 503d 073d 8a3d 6cbd 27bd 84bd ba3d
00000010: f4bd 0d3d fabd 333d 603e 8d3d a1bc a83d
00000020: 7abd 27bc 20be 7e3d cabd 96bd 2d3e 7b3e
00000030: 66bc 2f3c 56be 4cbd 93be 33be c43c 98bd
00000040: a5bc 27be 313d 0e3d 093b 5d3e 45bd 28bd
00000050: 95bc 5fbc d13d d93c a4bd b3bd c83c 96be
00000060: a3bc 863c 393b acbe 7f3e 1b3d 9a3c c53c
00000070: 8c3d 953d 7f3d b13d 14bf 61be 3bbe 13be

onnx::Add_159 bf16 [64]
-0.08105469 -0.05883789 -0.0012817383 0.004760742 -0.043701172 -0.041748047 -0.057617188 0.00970459
0.015991211 0.09277344 0.025268555 -0.03125 0.05029297 0.05419922 -0.0048828125 -0.017333984
-0.09472656 0.0024871826 0.072753906 -0.029296875 0.036621094 0.015380859 -0.064453125 -0.010681152
-0.06542969 -0.08105469 -0.17773438 -0.04736328 -0.123535156 -0.041015625 -0.03515625 -0.07519531
0.015258789 -0.0018920898 -0.012756348 -0.0063171387 0.026245117 0.016113281 -0.0024414062 0.0095825195
-0.0064086914 0.017700195 0.028808594 0.028320312 -0.010986328 -0.034179688 -0.0017623901 -0.005340576
-0.006286621 -0.004180908 0.00039672852 -0.013549805 0.0019989014 0.009033203 -0.00060653687 0.014831543
0.045166016 0.017578125 -0.019165039 0.100097656 -0.0067749023 -0.028442383 -0.03564453 0.009033203
00000000: a6bd 71bd a8ba 9c3b 33bd 2bbd 6cbd 1f3c
00000010: 833c be3d cf3c 00bd 4e3d 5e3d a0bb 8ebc
00000020: c2bd 233b 953d f0bc 163d 7c3c 84bd 2fbc
00000030: 86bd a6bd 36be 42bd fdbd 28bd 10bd 9abd
00000040: 7a3c f8ba 51bc cfbb d73c 843c 20bb 1d3c
00000050: d2bb 913c ec3c e83c 34bc 0cbd e7ba afbb
00000060: cebb 89bb d039 5ebc 033b 143c 1fba 733c
00000070: 393d 903c 9dbc cd3d debb e9bc 12bd 143c

onnx::Add_161 bf16 [64]
-0.0625 -0.31054688 0.23339844 -0.071777344 -0.07763672 -0.1328125 -0.07080078 0.11328125
0.045898438 -0.17089844 0.17089844 -0.028320312 0.41210938 -0.11621094 -0.07861328 0.07763672
-0.072753906 0.030395508 -0.045654297 0.08105469 0.03515625 0.025024414 -0.079589844 0.16894531
-0.17871094 -0.10839844 0.15527344 0.24511719 -0.12890625 -0.079589844 0.15136719 -0.08935547
-0.12451172 -0.043701172 0.071777344 0.09863281 -0.059570312 -0.05053711 -0.095214844 -0.006866455
-0.12988281 -0.1640625 -0.03857422 0.13476562 0.06591797 -0.15039062 0.053955078 0.0134887695
-0.11230469 0.103515625 0.08886719 0.10546875 0.0068359375 0.08300781 0.115234375 -0.05834961
0.046875 -0.16113281 -0.01953125 -0.13671875 0.048828125 -0.123535156 -0.014770508 0.12158203
00000000: 80bd 9fbe 6f3e 93bd 9fbd 08be 91bd e83d
00000010: 3c3d 2fbe 2f3e e8bc d33e eebd a1bd 9f3d
00000020: 95bd f93c 3bbd a63d 103d cd3c a3bd 2d3e
00000030: 37be debd 1f3e 7b3e 04be a3bd 1b3e b7bd
00000040: ffbd 33bd 933d ca3d 74bd 4fbd c3bd e1bb
00000050: 05be 28be 1ebd 0a3e 873d 1abe 5d3d 5d3c
00000060: e6bd d43d b63d d83d e03b aa3d ec3d 6fbd
00000070: 403d 25be a0bc 0cbe 483d fdbd 72bc f93d

onnx::MatMul_162 bf16 [64, 64]
0.09277344 0.036865234 -0.15527344 0.14941406 -0.083496094 -0.046875 0.010009766 -0.14746094
0.13085938 0.24707031 0.0859375 -0.12597656 0.07421875 0.06933594 0.029052734 -0.010803223
-0.10449219 -0.11230469 0.10839844 -0.09765625 0.13964844 -0.023071289 0.020996094 0.034179688
-0.0023498535 -0.018798828 -0.20800781 0.19628906 -0.15527344 -0.16113281 -0.18066406 -0.12060547
-0.048339844 0.11230469 0.20800781 0.2109375 0.036621094 0.049316406 -0.09765625 -0.140625
-0.123046875 -0.125 0.099121094 0.039794922 -0.13867188 -0.061767578 0.09716797 -0.088378906
0.033447266 0.028930664 -0.048095703 0.099121094 -0.15234375 -0.17675781 -0.18164062 0.15820312
0.12988281 0.08642578 0.009887695 0.09667969 0.05883789 -0.016479492 -0.032958984 0.19042969
-0.008483887 -0.24023438 -0.10644531 -0.053710938 -0.087890625 0.072753906 0.005493164 -0.0067749023
0.067871094 -0.09814453 0.09326172 -0.0011062622 -0.17773438 -0.087402344 0.07910156 -0.0030975342
-0.075683594 -0.05517578 -0.087890625 -0.04638672 -0.078125 0.04248047 -0.10107422 0.16308594
-0.057373047 0.14550781 0.118652344 -0.05908203 0.018676758 -0.078125 0.140625 0.09423828
-0.17285156 0.049560547 0.04663086 -0.056640625 -0.099609375 -0.12402344 0.047607422 0.13867188
0.12890625 -0.13378906 0.033447266 0.10498047 0.0138549805 0.18847656 -0.07519531 -0.072753906
0.13769531 0.010375977 -0.033691406 -0.021850586 -0.076660156 0.041748047 0.16113281 0.020019531
-0.14746094 -0.056396484 0.123535156 0.08691406 -0.009643555 0.13769531 0.014709473 -0.0036010742
-0.09082031 -0.09863281 0.23144531 0.07421875 0.12060547 0.125 0.11816406 -0.028320312
0.09375 -0.09082031 0.0012435913 0.072753906 -0.30859375 -0.21875 0.10107422 0.07519531
-0.076660156 -0.041259766 -0.11376953 0.20410156 -0.19335938 0.03515625 0.18847656 0.026000977
-0.16308594 0.27148438 0.21679688 -0.09765625 -0.0126953125 -0.0025024414 0.23828125 0.32226562
0.13085938 0.09326172 0.0234375 0.080078125 0.07861328 -0.048828125 -0.016845703 0.09082031
0.13769531 -0.011291504 -0.13671875 -0.024169922 -0.12988281 0.052490234 0.118652344 -0.15332031
0.043945312 0.035888672 -0.19824219 0.0017242432 -0.006164551 0.16601562 0.19335938 -0.22167969
-0.0046081543 -0.17675781 0.010375977 -0.140625 0.10839844 -0.027954102 0.07910156 0.0036773682
-0.14550781 -0.00076293945 0.13476562 -0.06933594 -0.15722656 0.025268555 -0.1640625 0.087402344
-0.09814453 -0.24902344 0.09667969 0.032470703 -0.076660156 0.012268066 0.10644531 -0.06542969
0.018066406 -0.06591797 0.024291992 0.080078125 0.12402344 -0.022827148 -0.041748047 -0.05834961
0.18359375 -0.06542969 0.17871094 -0.033203125 0.23730469 -0.064453125 0.080078125 0.099609375
-0.07519531 -0.017822266 -0.04248047 -0.060546875 -0.110839844 0.15332031 -0.03112793 -0.02746582
0.118652344 -0.15332031 -0.095703125 0.037597656 0.08691406 0.010314941 0.025512695 0.095703125
-0.0013046265 -0.04248047 0.14550781 0.18652344 0.08154297 -0.07861328 -0.119628906 -0.020263672
0.1328125 0.06225586 0.09667969 0.04663086 -0.09814453 0.048339844 0.15429688 0.060546875
00000000: be3d 173d 1fbe 193e abbd 40bd 243c 17be
00000010: 063e 7d3e b03d 01be 983d 8e3d ee3c 31bc
00000020: d6bd e6bd de3d c8bd 0f3e bdbc ac3c 0c3d
00000030: 1abb 9abc 55be 493e 1fbe 25be 39be f7bd
00000040: 46bd e63d 553e 583e 163d 4a3d c8bd 10be
00000050: fcbd 00be cb3d 233d 0ebe 7dbd c73d b5bd
00000060: 093d ed3c 45bd cb3d 1cbe 35be 3abe 223e
00000070: 053e b13d 223c c63d 713d 87bc 07bd 433e
00000080: 0bbc 76be dabd 5cbd b4bd 953d b43b debb
00000090: 8b3d c9bd bf3d 91ba 36be b3bd a23d 4bbb
000000a0: 9bbd 62bd b4bd 3ebd a0bd 2e3d cfbd 273e
000000b0: 6bbd 153e f33d 72bd 993c a0bd 103e c13d
000000c0: 31be 4b3d 3f3d 68bd ccbd febd 433d 0e3e
000000d0: 043e 09be 093d d73d 633c 413e 9abd 95bd
000000e0: 0d3e 2a3c 0abd b3bc 9dbd 2b3d 253e a43c
000000f0: 17be 67bd fd3d b23d 1ebc 0d3e 713c 6cbb
00000100: babd cabd 6d3e 983d f73d 003e f23d e8bc
00000110: c03d babd a33a 953d 9ebe 60be cf3d 9a3d
00000120: 9dbd 29bd e9bd 513e 46be 103d 413e d53c
00000130: 27be 8b3e 5e3e c8bd 50bc 24bb 743e a53e
00000140: 063e bf3d c03c a43d a13d 48bd 8abc ba3d
00000150: 0d3e 39bc 0cbe c6bc 05be 573d f33d 1dbe
00000160: 343d 133d 4bbe e23a cabb 2a3e 463e 63be
00000170: 97bb 35be 2a3c 10be de3d e5bc a23d 713b
00000180: 15be 48ba 0a3e 8ebd 21be cf3c 28be b33d
00000190: c9bd 7fbe c63d 053d 9dbd 493c da3d 86bd
000001a0: 943c 87bd c73c a43d fe3d bbbc 2bbd 6fbd
000001b0: 3c3e 86bd 373e 08bd 733e 84bd a43d cc3d
000001c0: 9abd 92bc 2ebd 78bd e3bd 1d3e ffbc e1bc
000001d0: f33d 1dbe c4bd 1a3d b23d 293c d13c c43d
000001e0: abba 2ebd 153e 3f3e a73d a1bd f5bd a6bc
000001f0: 083e 7f3d c63d 3f3d c9bd 463d 1e3e 783d

onnx::MatMul_163 bf16 [64, 64]
-0.13671875 -0.068359375 0.032714844 0.04345703 -0.20019531 0.040283203 -0.118652344 0.045898438
-0.079589844 -0.037109375 -0.030029297 -0.08935547 0.12402344 -0.12060547 -0.002960205 -0.09863281
-0.033691406 0.0859375 0.048339844 -0.037109375 -0.0037078857 0.09667969 0.024169922 0.11279297
-0.008972168 -0.17871094 -0.20800781 0.041503906 -0.12109375 -0.13867188 -0.061279297 -0.16992188
0.06933594 0.15527344 -0.0044555664 0.16699219 -0.041748047 -0.17578125 0.12890625 0.03173828
-0.26757812 -0.29296875 0.0053100586 -0.028076172 0.037353516 0.004119873 0.0048828125 0.06982422
-0.020141602 -0.14453125 0.076171875 0.14257812 -0.28320312 -0.19335938 -0.088378906 -0.045410156
0.08496094 -0.020019531 -0.03491211 -0.095214844 0.068359375 0.12988281 0.20019531 0.03857422
0.1015625 -0.09863281 -0.24804688 0.13378906 -0.08496094 0.0024108887 -0.11230469 -0.09814453
0.06591797 0.037597656 -0.12988281 0.056640625 -0.140625 -0.18066406 0.08984375 0.17089844
0.06982422 0.080078125 0.08300781 0.036376953 0.18847656 -0.16308594 -0.13867188 -0.0010910034
0.19140625 0.07324219 0.23144531 -0.015319824 0.09375 0.00062942505 0.35351562 -0.05859375
0.035888672 0.296875 -0.014587402 -0.05908203 0.17871094 -0.103027344 -0.1015625 0.063964844
0.2734375 0.10546875 -0.03955078 0.17578125 0.0061950684 0.09033203 0.029663086 -0.22265625
0.18261719 0.359375 -0.104003906 -0.06201172 0.12060547 -0.028686523 0.33789062 0.08984375
-0.060546875 -0.15136719 -0.12890625 0.118652344 0.024047852 0.109375 0.13476562 -0.106933594
0.19042969 0.075683594 -0.043701172 0.055419922 -0.06738281 0.09326172 -0.06933594 -0.16210938
0.080078125 -0.125 0.08642578 0.060058594 -0.06738281 -0.14160156 0.1640625 -0.07421875
-0.11230469 -0.0003376007 -0.12158203 0.08886719 0.04345703 -0.08154297 -0.088378906 -0.15136719
-0.10986328 -0.038085938 0.18554688 0.018676758 0.16113281 0.17382812 0.21386719 0.049804688
0.11230469 -0.026733398 -0.115234375 0.024047852 0.064453125 0.09277344 0.03881836 0.01940918
0.24023438 0.26953125 -0.088378906 0.2265625 -0.07470703 -0.21972656 0.111328125 -0.060791016
0.05883789 0.083984375 -0.068847656 -0.14160156 0.114746094 -0.011779785 0.13183594 0.064453125
-0.14746094 0.044921875 -0.08642578 0.006072998 -0.18066406 0.041748047 -0.15332031 -0.09667969
0.087402344 -0.024169922 0.072753906 0.13183594 0.07861328 -0.118652344 -0.03100586 0.13183594
0.13183594 0.12890625 0.09716797 0.060546875 0.028076172 0.03564453 0.03540039 -0.12060547
0.047607422 0.12011719 -0.08105469 -0.05126953 -0.16503906 -0.06591797 0.083496094 0.060791016
-0.20800781 0.068847656 -0.125 0.0013656616 -0.0625 -0.12597656 0.18652344 0.19921875
0.0095825195 -0.1015625 -0.06738281 0.123046875 -0.0079956055 -0.06542969 -0.118652344 -0.11230469
0.23632812 -0.0076904297 -0.2578125 0.11035156 0.0036621094 -0.13183594 -0.044433594 0.061035156
-0.36328125 -0.15136719 0.047607422 -0.1328125 -0.12451172 -0.057617188 -0.24902344 0.14941406
-0.03930664 0.025878906 -0.110839844 0.018798828 -0.047607422 -0.05493164 -0.0033416748 0.021362305
00000000: 0cbe 8cbd 063d 323d 4dbe 253d f3bd 3c3d
00000010: a3bd 18bd f6bc b7bd fe3d f7bd 42bb cabd
00000020: 0abd b03d 463d 18bd 73bb c63d c63c e73d
00000030: 13bc 37be 55be 2a3d f8bd 0ebe 7bbd 2ebe
00000040: 8e3d 1f3e 92bb 2b3e 2bbd 34be 043e 023d
00000050: 89be 96be ae3b e6bc 193d 873b a03b 8f3d
00000060: a5bc 14be 9c3d 123e 91be 46be b5bd 3abd
00000070: ae3d a4bc 0fbd c3bd 8c3d 053e 4d3e 1e3d
00000080: d03d cabd 7ebe 093e aebd 1e3b e6bd c9bd
00000090: 873d 1a3d 05be 683d 10be 39be b83d 2f3e
000000a0: 8f3d a43d aa3d 153d 413e 27be 0ebe 8fba
000000b0: 443e 963d 6d3e 7bbc c03d 253a b53e 70bd
000000c0: 133d 983e 6fbc 72bd 373e d3bd d0bd 833d
000000d0: 8c3e d83d 22bd 343e cb3b b93d f33c 64be
000000e0: 3b3e b83e d5bd 7ebd f73d ebbc ad3e b83d
000000f0: 78bd 1bbe 04be f33d c53c e03d 0a3e dbbd
00000100: 433e 9b3d 33bd 633d 8abd bf3d 8ebd 26be
00000110: a43d 00be b13d 763d 8abd 11be 283e 98bd
00000120: e6bd b1b9 f9bd b63d 323d a7bd b5bd 1bbe
00000130: e1bd 1cbd 3e3e 993c 253e 323e 5b3e 4c3d
00000140: e63d dbbc ecbd c53c 843d be3d 1f3d 9f3c
00000150: 763e 8a3e b5bd 683e 99bd 61be e43d 79bd
00000160: 713d ac3d 8dbd 11be eb3d 41bc 073e 843d
00000170: 17be 383d b1bd c73b 39be 2b3d 1dbe c6bd
00000180: b33d c6bc 953d 073e a13d f3bd febc 073e
00000190: 073e 043e c73d 783d e63c 123d 113d f7bd
000001a0: 433d f63d a6bd 52bd 29be 87bd ab3d 793d
000001b0: 55be 8d3d 00be b33a 80bd 01be 3f3e 4c3e
000001c0: 1d3c d0bd 8abd fc3d 03bc 86bd f3bd e6bd
000001d0: 723e fcbb 84be e23d 703b 07be 36bd 7a3d
000001e0: babe 1bbe 433d 08be ffbd 6cbd 7fbe 193e
000001f0: 21bd d43c e3bd 9a3c 43bd 61bd 5bbb af3c

onnx::MatMul_164 bf16 [64, 64]
0.103515625 0.13867188 -0.13183594 0.13867188 -0.106933594 0.068359375 0.07470703 -0.09082031
0.03149414 0.0028076172 -0.06542969 -0.001045227 -0.061279297 -0.107421875 0.07861328 0.14746094
0.01953125 -0.083496094 -0.009338379 -0.10546875 -0.045654297 0.103027344 -0.0029144287 0.004547119
0.05908203 0.045410156 0.12451172 0.13574219 -0.11376953 0.0018615723 0.122558594 -0.028930664
-0.0053710938 -0.014404297 -0.0703125 -0.037109375 -0.07910156 0.08300781 -0.027832031 -0.0011138916
0.041748047 0.13378906 -0.16113281 0.03466797 -0.1796875 0.107910156 0.02746582 -0.036865234
0.091796875 -0.008544922 0.06738281 -0.030029297 -0.012329102 0.0390625 -0.022216797 0.07421875
-0.13867188 -0.036865234 -0.16308594 0.04321289 -0.01953125 0.091308594 -0.032226562 -0.104003906
0.09814453 0.07910156 -0.055664062 -0.00065231323 0.017700195 0.025024414 0.075683594 -0.08642578
-0.171875 0.14648438 0.10498047 -0.104003906 -0.029785156 -0.119140625 -0.19726562 -0.10058594
0.14257812 -0.10546875 0.11279297 0.087402344 -0.012817383 -0.007446289 -0.045410156 -0.018798828
0.02319336 -0.23242188 -0.17382812 0.049560547 0.0146484375 0.07861328 0.13574219 0.04296875
-0.123046875 -0.20410156 -0.18261719 0.09423828 0.16601562 0.14648438 -0.071777344 0.0075683594
-0.24316406 -0.084472656 0.22949219 0.15722656 -0.07128906 -0.033203125 0.0703125 -0.14941406
-0.1171875 0.068847656 0.0009460449 0.03857422 0.12109375 0.029052734 0.025634766 -0.19921875
-0.010925293 0.07861328 -0.028198242 0.004760742 0.2734375 -0.20410156 0.05102539 0.09667969
0.025756836 -0.03515625 0.053222656 0.02319336 0.12988281 0.10498047 -0.10986328 0.03125
-0.09863281 0.07470703 0.15527344 0.29492188 -0.096191406 -0.048339844 -0.18847656 -0.20605469
0.21582031 0.08203125 -0.068847656 0.13964844 -0.096191406 0.023803711 0.203125 0.029296875
-0.10595703 -0.1953125 -0.09472656 -0.04711914 0.12207031 0.05419922 -0.100097656 -0.09814453
0.10986328 0.09033203 -0.06933594 -0.040283203 -0.104003906 -0.01586914 0.076660156 0.010192871
-0.20507812 0.07910156 0.06591797 0.068847656 0.06298828 -0.037353516 -0.0024414062 0.00793457
-0.052001953 0.012145996 -0.03540039 0.13574219 0.103515625 -0.10644531 0.115722656 0.16992188
0.15332031 0.083496094 0.115722656 -0.08984375 -0.0045776367 -0.17285156 -0.052246094 0.03881836
0.099609375 -0.17773438 -0.100097656 -0.04711914 0.078125 -0.0625 -0.123535156 -0.08642578
0.10107422 0.015197754 0.043945312 -0.078125 0.09423828 -0.024414062 0.016235352 0.009887695
-0.10546875 0.038330078 0.11328125 -0.08105469 -0.1328125 0.11279297 -0.0046691895 0.03173828
-0.0071411133 0.037109375 0.027832031 0.1171875 0.068359375 0.14160156 -0.09423828 -0.04663086
-0.01953125 0.014282227 0.041503906 -0.060302734 0.10253906 0.10107422 0.14355469 -0.005645752
0.110839844 -0.14648438 -0.111328125 -0.013000488 -0.017456055 0.14550781 0.08300781 0.1328125
-0.056396484 0.08105469 -0.07128906 -0.10888672 0.005218506 0.11767578 -0.029907227 0.14550781
0.0022735596 0.047851562 -0.10107422 0.14746094 -0.13964844 0.14257812 -0.07324219 -0.04248047
00000000: d43d 0e3e 07be 0e3e dbbd 8c3d 993d babd
00000010: 013d 383b 86bd 89ba 7bbd dcbd a13d 173e
00000020: a03c abbd 19bc d8bd 3bbd d33d 3fbb 953b
00000030: 723d 3a3d ff3d 0b3e e9bd f43a fb3d edbc
00000040: b0bb 6cbc 90bd 18bd a2bd aa3d e4bc 92ba
00000050: 2b3d 093e 25be 0e3d 38be dd3d e13c 17bd
00000060: bc3d 0cbc 8a3d f6bc 4abc 203d b6bc 983d
00000070: 0ebe 17bd 27be 313d a0bc bb3d 04bd d5bd
00000080: c93d a23d 64bd 2bba 913c cd3c 9b3d b1bd
00000090: 30be 163e d73d d5bd f4bc f4bd 4abe cebd
000000a0: 123e d8bd e73d b33d 52bc f4bb 3abd 9abc
000000b0: be3c 6ebe 32be 4b3d 703c a13d 0b3e 303d
000000c0: fcbd 51be 3bbe c13d 2a3e 163e 93bd f83b
000000d0: 79be adbd 6b3e 213e 92bd 08bd 903d 19be
000000e0: f0bd 8d3d 783a 1e3d f83d ee3c d23c 4cbe
000000f0: 33bc a13d e7bc 9c3b 8c3e 51be 513d c63d
00000100: d33c 10bd 5a3d be3c 053e d73d e1bd 003d
00000110: cabd 993d 1f3e 973e c5bd 46bd 41be 53be
00000120: 5d3e a83d 8dbd 0f3e c5bd c33c 503e f03c
00000130: d9bd 48be c2bd 41bd fa3d 5e3d cdbd c9bd
00000140: e13d b93d 8ebd 25bd d5bd 82bc 9d3d 273c
00000150: 52be a23d 873d 8d3d 813d 19bd 20bb 023c
00000160: 55bd 473c 11bd 0b3e d43d dabd ed3d 2e3e
00000170: 1d3e ab3d ed3d b8bd 96bb 31be 56bd 1f3d
00000180: cc3d 36be cdbd 41bd a03d 80bd fdbd b1bd
00000190: cf3d 793c 343d a0bd c13d c8bc 853c 223c
000001a0: d8bd 1d3d e83d a6bd 08be e73d 99bb 023d
000001b0: eabb 183d e43c f03d 8c3d 113e c1bd 3fbd
000001c0: a0bc 6a3c 2a3d 77bd d23d cf3d 133e b9bb
000001d0: e33d 16be e4bd 55bc 8fbc 153e aa3d 083e
000001e0: 67bd a63d 92bd dfbd ab3b f13d f5bc 153e
000001f0: 153b 443d cfbd 173e 0fbe 123e 96bd 2ebd

onnx::MatMul_184 bf16 [64, 64]
-0.15332031 -0.12060547 -0.0054016113 -0.100097656 -0.03515625 0.08691406 -0.2109375 -0.19726562
0.46484375 -0.18359375 -0.1875 -0.77734375 -0.115722656 -0.1484375 0.33789062 0.011047363
-0.37695312 0.16992188 0.014709473 0.0046691895 0.49804688 0.039794922 0.07519531 -0.020751953
0.09082031 0.17675781 0.11328125 0.09375 -0.42382812 -0.013183594 -0.031982422 -0.043701172
-0.19042969 0.10107422 -0.32226562 0.18945312 -0.15917969 -0.10839844 0.4921875 -0.028930664
0.008117676 -0.36328125 -0.515625 0.22460938 -0.40234375 -0.24316406 0.041259766 -0.45117188
-0.022094727 -0.26171875 0.03149414 0.16210938 0.03491211 -0.043945312 0.28515625 -0.42382812
-0.3203125 -0.021362305 0.007507324 -0.07714844 -0.107910156 0.20800781 0.15332031 0.20996094
0.03540039 0.0031738281 -0.16894531 -0.19824219 -0.140625 -0.03857422 -0.08105469 -0.1875
-0.09326172 0.099609375 -0.13476562 -0.4375 0.041503906 0.13769531 -0.036376953 0.022705078
0.09667969 -0.03491211 0.12695312 0.13378906 -0.095214844 0.3671875 0.21484375 -0.07910156
0.22363281 0.068847656 -0.03564453 -0.020507812 -0.05029297 0.13476562 -0.16503906 0.16796875
-0.21484375 0.14941406 0.123535156 0.16894531 -0.09375 -0.06347656 -0.029907227 -0.25195312
0.046875 0.23632812 0.07910156 -0.30859375 0.23828125 0.11816406 0.115234375 -0.084472656
-0.050048828 0.28125 0.40429688 0.109375 -0.15917969 -0.10888672 0.1484375 0.036376953
0.15625 0.008666992 -0.17773438 0.028320312 -0.1171875 0.039794922 0.028076172 -0.1484375
0.29101562 0.375 0.005218506 -0.016235352 -0.02709961 -0.019042969 0.66015625 -0.17773438
-0.18847656 -0.0040283203 -0.14941406 0.2734375 -0.0024871826 -0.21386719 0.06738281 0.006072998
0.3203125 -0.043701172 -0.111816406 0.74609375 -0.05883789 0.20800781 -0.053710938 0.006134033
-0.122558594 0.08105469 0.31640625 -0.15820312 -0.14453125 0.080566406 0.19726562 -0.19628906
0.1171875 -0.16601562 -0.15136719 -0.07324219 0.40625 -0.24414062 0.23632812 -0.17675781
0.19140625 0.1171875 0.34765625 -0.13574219 0.76953125 0.14550781 -0.30078125 0.18457031
0.036376953 0.03515625 -0.07519531 -0.011413574 0.15625 0.50390625 -0.034179688 -0.09716797
0.11669922 -0.119628906 -0.013122559 0.6796875 0.11816406 -0.13769531 -0.052978516 -0.12695312
0.064453125 0.06738281 -0.16992188 0.017211914 0.07861328 -0.30078125 0.13574219 0.23046875
-0.46484375 0.22851562 0.09814453 0.33007812 -0.041015625 -0.05517578 -0.06982422 -0.030395508
0.26367188 0.026611328 0.6484375 -0.07714844 -0.17871094 0.35742188 0.025146484 0.071777344
0.09814453 -0.15136719 -0.15234375 0.07470703 -0.0024261475 -0.06933594 0.13964844 0.46679688
0.056396484 -0.03857422 -0.17773438 -0.17285156 -0.16210938 -0.004211426 -0.16015625 0.06933594
-0.13183594 0.37695312 0.21386719 0.0234375 0.087890625 -0.05834961 0.22851562 0.11669922
-0.2734375 -0.19140625 0.13183594 -0.22558594 -0.0012435913 0.05517578 -0.00982666 0.34570312
0.024658203 -0.27539062 -0.010131836 0.010437012 -0.1953125 -0.05078125 0.03930664 -0.15429688
00000000: 1dbe f7bd b1bb cdbd 10bd b23d 58be 4abe
00000010: ee3e 3cbe 40be 47bf edbd 18be ad3e 353c
00000020: c1be 2e3e 713c 993b ff3e 233d 9a3d aabc
00000030: ba3d 353e e83d c03d d9be 58bc 03bd 33bd
00000040: 43be cf3d a5be 423e 23be debd fc3e edbc
00000050: 053c babe 04bf 663e cebe 79be 293d e7be
00000060: b5bc 86be 013d 263e 0f3d 34bd 923e d9be
00000070: a4be afbc f63b 9ebd ddbd 553e 1d3e 573e
00000080: 113d 503b 2dbe 4bbe 10be 1ebd a6bd 40be
00000090: bfbd cc3d 0abe e0be 2a3d 0d3e 15bd ba3c
000000a0: c63d 0fbd 023e 093e c3bd bc3e 5c3e a2bd
000000b0: 653e 8d3d 12bd a8bc 4ebd 0a3e 29be 2c3e
000000c0: 5cbe 193e fd3d 2d3e c0bd 82bd f5bc 81be
000000d0: 403d 723e a23d 9ebe 743e f23d ec3d adbd
000000e0: 4dbd 903e cf3e e03d 23be dfbd 183e 153d
000000f0: 203e 0e3c 36be e83c f0bd 233d e63c 18be
00000100: 953e c03e ab3b 85bc debc 9cbc 293f 36be
00000110: 41be 84bb 19be 8c3e 23bb 5bbe 8a3d c73b
00000120: a43e 33bd e5bd 3f3f 71bd 553e 5cbd c93b
00000130: fbbd a63d a23e 22be 14be a53d 4a3e 49be
00000140: f03d 2abe 1bbe 96bd d03e 7abe 723e 35be
00000150: 443e f03d b23e 0bbe 453f 153e 9abe 3d3e
00000160: 153d 103d 9abd 3bbc 203e 013f 0cbd c7bd
00000170: ef3d f5bd 57bc 2e3f f23d 0dbe 59bd 02be
00000180: 843d 8a3d 2ebe 8d3c a13d 9abe 0b3e 6c3e
00000190: eebe 6a3e c93d a93e 28bd 62bd 8fbd f9bc
000001a0: 873e da3c 263f 9ebd 37be b73e ce3c 933d
000001b0: c93d 1bbe 1cbe 993d 1fbb 8ebd 0f3e ef3e
000001c0: 673d 1ebd 36be 31be 26be 8abb 24be 8e3d
000001d0: 07be c13e 5b3e c03c b43d 6fbd 6a3e ef3d
000001e0: 8cbe 44be 073e 67be a3ba 623d 21bc b13e
000001f0: ca3c 8dbe 26bc 2b3c 48be 50bd 213d 1ebe

onnx::MatMul_185 bf16 [64, 64]
0.46484375 0.14257812 -0.16113281 -0.421875 0.36328125 0.0069885254 0.40820312 0.17675781
-0.609375 0.55078125 -0.071777344 -0.875 0.19824219 -0.068847656 0.28710938 -0.17578125
-0.061035156 -0.13964844 0.20507812 0.018432617 -0.056152344 0.65234375 0.3359375 -0.088378906
0.515625 0.11230469 0.43945312 0.46679688 0.06347656 -0.028442383 -0.17578125 0.265625
-0.890625 -0.0034942627 -0.09716797 0.05102539 -2.703125 0.54296875 -0.024169922 -1.8125
0.07519531 -0.19335938 -1.40625 -0.0021972656 -0.025268555 0.36132812 0.2421875 -0.73046875
-0.14941406 0.027709961 -1.28125 -0.14550781 -0.13964844 -0.18261719 -0.072265625 -0.045898438
-0.067871094 0.04248047 -1.4375 -0.21777344 -0.014587402 -0.06982422 -0.0059814453 -0.24316406
-1.765625 -0.54296875 -0.09082031 0.19726562 0.009094238 -0.11376953 -0.0041503906 -0.71484375
-0.0028533936 0.16699219 -0.4453125 -0.0015869141 0.018554688 0.10888672 0.12597656 -0.053710938
-0.26757812 0.10498047 -0.85546875 0.35351562 0.15039062 0.052246094 0.046142578 0.052001953
-0.002746582 -0.89453125 0.017333984 -0.12792969 0.35546875 -0.09082031 0.171875 -0.037841797
-0.057373047 0.084472656 -0.09863281 -1.1640625 -0.30664062 -0.76171875 -0.390625 0.033203125
0.009094238 -0.038085938 -0.036621094 -0.71875 -0.033935547 0.009643555 0.10205078 0.2734375
0.29101562 -0.115722656 0.14941406 -0.019897461 -2.734375 0.33789062 -0.96875 0.34570312
0.053955078 -1.4375 0.265625 0.38671875 0.30078125 -0.1875 0.34570312 0.23730469
0.15527344 -0.828125 0.0077819824 0.49609375 0.25390625 -0.109375 -1.0703125 -0.015197754
-1.3125 -0.104003906 -1.3984375 -0.94140625 -0.07470703 0.044677734 0.24316406 0.044921875
-0.0016555786 0.038085938 -1.9375 -0.026977539 -0.12695312 -0.1171875 0.31835938 -0.41210938
0.088378906 0.29296875 0.36132812 -0.068359375 -1.4375 -0.118652344 -0.06298828 -0.09765625
0.033935547 -2.8125 -0.103027344 -0.48242188 0.00036239624 -0.0390625 -0.051513672 0.041259766
-0.09863281 -0.099121094 0.099609375 -1.5703125 -0.24707031 -0.22949219 -0.30859375 0.104003906
0.013000488 0.002090454 -0.020263672 -0.024780273 -1.53125 0.09033203 -1.1640625 -0.21386719
-0.0029144287 -0.030883789 0.38867188 0.16894531 -0.0055236816 -0.546875 0.3671875 0.0107421875
0.18457031 0.11230469 -0.15332031 0.01373291 -0.828125 -1.953125 0.26953125 0.061767578
-0.14355469 0.18066406 0.08300781 0.044189453 -0.17285156 0.014343262 -0.07080078 -1.0546875
-0.72265625 0.10107422 -0.06982422 -0.087402344 0.19824219 -0.91015625 0.10449219 0.39257812
-0.006164551 0.018432617 0.05419922 0.123046875 -0.036865234 -0.020874023 0.45117188 -0.14941406
0.037353516 0.063964844 0.38867188 0.057861328 -0.047851562 0.25585938 0.10058594 0.17480469
-2.109375 -1.3984375 0.07910156 -0.057617188 0.42578125 0.265625 -0.038085938 0.12011719
0.359375 0.20214844 0.020874023 0.15625 0.16503906 -0.025878906 -0.022460938 -0.16601562
-0.13574219 0.18164062 -0.09277344 -0.023803711 -0.51953125 -0.024658203 0.2734375 0.06298828
00000000: ee3e 123e 25be d8be ba3e e53b d13e 353e
00000010: 1cbf 0d3f 93bd 60bf 4b3e 8dbd 933e 34be
00000020: 7abd 0fbe 523e 973c 66bd 273f ac3e b5bd
00000030: 043f e63d e13e ef3e 823d e9bc 34be 883e
00000040: 64bf 65bb c7bd 513d 2dc0 0b3f c6bc e8bf
00000050: 9a3d 46be b4bf 10bb cfbc b93e 783e 3bbf
00000060: 19be e33c a4bf 15be 0fbe 3bbe 94bd 3cbd
00000070: 8bbd 2e3d b8bf 5fbe 6fbc 8fbd c4bb 79be
00000080: e2bf 0bbf babd 4a3e 153c e9bd 88bb 37bf
00000090: 3bbb 2b3e e4be d0ba 983c df3d 013e 5cbd
000000a0: 89be d73d 5bbf b53e 1a3e 563d 3d3d 553d
000000b0: 34bb 65bf 8e3c 03be b63e babd 303e 1bbd
000000c0: 6bbd ad3d cabd 95bf 9dbe 43bf c8be 083d
000000d0: 153c 1cbd 16bd 38bf 0bbd 1e3c d13d 8c3e
000000e0: 953e edbd 193e a3bc 2fc0 ad3e 78bf b13e
000000f0: 5d3d b8bf 883e c63e 9a3e 40be b13e 733e
00000100: 1f3e 54bf ff3b fe3e 823e e0bd 89bf 79bc
00000110: a8bf d5bd b3bf 71bf 99bd 373d 793e 383d
00000120: d9ba 1c3d f8bf ddbc 02be f0bd a33e d3be
00000130: b53d 963e b93e 8cbd b8bf f3bd 81bd c8bd
00000140: 0b3d 34c0 d3bd f7be be39 20bd 53bd 293d
00000150: cabd cbbd cc3d c9bf 7dbe 6bbe 9ebe d53d
00000160: 553c 093b a6bc cbbc c4bf b93d 95bf 5bbe
00000170: 3fbb fdbc c73e 2d3e b5bb 0cbf bc3e 303c
00000180: 3d3e e63d 1dbe 613c 54bf fabf 8a3e 7d3d
00000190: 13be 393e aa3d 353d 31be 6b3c 91bd 87bf
000001a0: 39bf cf3d 8fbd b3bd 4b3e 69bf d63d c93e
000001b0: cabb 973c 5e3d fc3d 17bd abbc e73e 19be
000001c0: 193d 833d c73e 6d3d 44bd 833e ce3d 333e
000001d0: 07c0 b3bf a23d 6cbd da3e 883e 1cbd f63d
000001e0: b83e 4f3e ab3c 203e 293e d4bc b8bc 2abe
000001f0: 0bbe 3a3e bebd c3bc 05bf cabc 8c3e 813d
